#loc = loc("/tmp/torchinductor_root/5c/c5cth62vzgmyfxmls7ag44hhbhxzgvbripy7rclomnu57kqsi2mk.py":18:0)
module {
  tt.func public @triton_poi_fused_add_mul_pow_tanh_4(%arg0: !tt.ptr<bf16> {tt.divisibility = 16 : i32} loc("/tmp/torchinductor_root/5c/c5cth62vzgmyfxmls7ag44hhbhxzgvbripy7rclomnu57kqsi2mk.py":18:0), %arg1: !tt.ptr<bf16> {tt.divisibility = 16 : i32} loc("/tmp/torchinductor_root/5c/c5cth62vzgmyfxmls7ag44hhbhxzgvbripy7rclomnu57kqsi2mk.py":18:0), %arg2: i32 {tt.divisibility = 16 : i32} loc("/tmp/torchinductor_root/5c/c5cth62vzgmyfxmls7ag44hhbhxzgvbripy7rclomnu57kqsi2mk.py":18:0)) attributes {noinline = false} {
    %cst = arith.constant dense<1.000000e+00> : tensor<512xf32> loc(#loc1)
    %cst_0 = arith.constant dense<0.797884583> : tensor<512xf32> loc(#loc1)
    %cst_1 = arith.constant dense<4.471500e-02> : tensor<512xf32> loc(#loc1)
    %cst_2 = arith.constant dense<5.000000e-01> : tensor<512xf32> loc(#loc1)
    %c512_i32 = arith.constant 512 : i32 loc(#loc1)
    %0 = tt.get_program_id x : i32 loc(#loc2)
    %1 = arith.muli %0, %c512_i32 : i32 loc(#loc3)
    %2 = tt.make_range {end = 512 : i32, start = 0 : i32} : tensor<512xi32> loc(#loc4)
    %3 = tt.splat %1 : i32 -> tensor<512xi32> loc(#loc5)
    %4 = arith.addi %3, %2 : tensor<512xi32> loc(#loc5)
    %5 = tt.splat %arg0 : !tt.ptr<bf16> -> tensor<512x!tt.ptr<bf16>> loc(#loc6)
    %6 = tt.addptr %5, %4 : tensor<512x!tt.ptr<bf16>>, tensor<512xi32> loc(#loc6)
    %7 = tt.load %6 : tensor<512x!tt.ptr<bf16>> loc(#loc7)
    %8 = arith.extf %7 : tensor<512xbf16> to tensor<512xf32> loc(#loc8)
    %9 = tt.splat %arg1 : !tt.ptr<bf16> -> tensor<512x!tt.ptr<bf16>> loc(#loc9)
    %10 = tt.addptr %9, %4 : tensor<512x!tt.ptr<bf16>>, tensor<512xi32> loc(#loc9)
    %11 = tt.load %10 : tensor<512x!tt.ptr<bf16>> loc(#loc10)
    %12 = arith.extf %11 : tensor<512xbf16> to tensor<512xf32> loc(#loc11)
    %13 = arith.mulf %8, %cst_2 : tensor<512xf32> loc(#loc12)
    %14 = arith.mulf %8, %8 : tensor<512xf32> loc(#loc13)
    %15 = arith.mulf %14, %8 : tensor<512xf32> loc(#loc14)
    %16 = arith.mulf %15, %cst_1 : tensor<512xf32> loc(#loc15)
    %17 = arith.addf %8, %16 : tensor<512xf32> loc(#loc16)
    %18 = arith.mulf %17, %cst_0 : tensor<512xf32> loc(#loc17)
    %19 = tt.extern_elementwise %18 {libname = "", libpath = "", pure = true, symbol = "__nv_tanhf"} : (tensor<512xf32>) -> tensor<512xf32> loc(#loc18)
    %20 = arith.addf %19, %cst : tensor<512xf32> loc(#loc19)
    %21 = arith.mulf %13, %20 : tensor<512xf32> loc(#loc20)
    %22 = arith.mulf %21, %12 : tensor<512xf32> loc(#loc21)
    %23 = arith.truncf %22 : tensor<512xf32> to tensor<512xbf16> loc(#loc22)
    tt.store %6, %23 : tensor<512x!tt.ptr<bf16>> loc(#loc22)
    tt.return loc(#loc23)
  } loc(#loc)
} loc(#loc)
#loc1 = loc(unknown)
#loc2 = loc("/tmp/torchinductor_root/5c/c5cth62vzgmyfxmls7ag44hhbhxzgvbripy7rclomnu57kqsi2mk.py":20:28)
#loc3 = loc("/tmp/torchinductor_root/5c/c5cth62vzgmyfxmls7ag44hhbhxzgvbripy7rclomnu57kqsi2mk.py":20:33)
#loc4 = loc("/tmp/torchinductor_root/5c/c5cth62vzgmyfxmls7ag44hhbhxzgvbripy7rclomnu57kqsi2mk.py":21:36)
#loc5 = loc("/tmp/torchinductor_root/5c/c5cth62vzgmyfxmls7ag44hhbhxzgvbripy7rclomnu57kqsi2mk.py":21:23)
#loc6 = loc("/tmp/torchinductor_root/5c/c5cth62vzgmyfxmls7ag44hhbhxzgvbripy7rclomnu57kqsi2mk.py":24:34)
#loc7 = loc("/tmp/torchinductor_root/5c/c5cth62vzgmyfxmls7ag44hhbhxzgvbripy7rclomnu57kqsi2mk.py":24:39)
#loc8 = loc("/tmp/torchinductor_root/5c/c5cth62vzgmyfxmls7ag44hhbhxzgvbripy7rclomnu57kqsi2mk.py":24:48)
#loc9 = loc("/tmp/torchinductor_root/5c/c5cth62vzgmyfxmls7ag44hhbhxzgvbripy7rclomnu57kqsi2mk.py":25:31)
#loc10 = loc("/tmp/torchinductor_root/5c/c5cth62vzgmyfxmls7ag44hhbhxzgvbripy7rclomnu57kqsi2mk.py":25:36)
#loc11 = loc("/tmp/torchinductor_root/5c/c5cth62vzgmyfxmls7ag44hhbhxzgvbripy7rclomnu57kqsi2mk.py":25:45)
#loc12 = loc("/tmp/torchinductor_root/5c/c5cth62vzgmyfxmls7ag44hhbhxzgvbripy7rclomnu57kqsi2mk.py":27:18)
#loc13 = loc("/tmp/torchinductor_root/5c/c5cth62vzgmyfxmls7ag44hhbhxzgvbripy7rclomnu57kqsi2mk.py":28:18)
#loc14 = loc("/tmp/torchinductor_root/5c/c5cth62vzgmyfxmls7ag44hhbhxzgvbripy7rclomnu57kqsi2mk.py":29:18)
#loc15 = loc("/tmp/torchinductor_root/5c/c5cth62vzgmyfxmls7ag44hhbhxzgvbripy7rclomnu57kqsi2mk.py":31:18)
#loc16 = loc("/tmp/torchinductor_root/5c/c5cth62vzgmyfxmls7ag44hhbhxzgvbripy7rclomnu57kqsi2mk.py":32:18)
#loc17 = loc("/tmp/torchinductor_root/5c/c5cth62vzgmyfxmls7ag44hhbhxzgvbripy7rclomnu57kqsi2mk.py":34:18)
#loc18 = loc("/tmp/torchinductor_root/5c/c5cth62vzgmyfxmls7ag44hhbhxzgvbripy7rclomnu57kqsi2mk.py":35:27)
#loc19 = loc("/tmp/torchinductor_root/5c/c5cth62vzgmyfxmls7ag44hhbhxzgvbripy7rclomnu57kqsi2mk.py":37:20)
#loc20 = loc("/tmp/torchinductor_root/5c/c5cth62vzgmyfxmls7ag44hhbhxzgvbripy7rclomnu57kqsi2mk.py":38:19)
#loc21 = loc("/tmp/torchinductor_root/5c/c5cth62vzgmyfxmls7ag44hhbhxzgvbripy7rclomnu57kqsi2mk.py":39:20)
#loc22 = loc("/tmp/torchinductor_root/5c/c5cth62vzgmyfxmls7ag44hhbhxzgvbripy7rclomnu57kqsi2mk.py":40:40)
#loc23 = loc("/tmp/torchinductor_root/5c/c5cth62vzgmyfxmls7ag44hhbhxzgvbripy7rclomnu57kqsi2mk.py":40:4)
