#loc = loc("/tmp/torchinductor_root/vl/cvltpna72szvalp7fozxjqbarwav7bnep53hb6q7tuni7yet5hqg.py":18:0)
#loc1 = loc(unknown)
#loc25 = loc("/tmp/torchinductor_root/vl/cvltpna72szvalp7fozxjqbarwav7bnep53hb6q7tuni7yet5hqg.py":44:25)
#loc32 = loc(callsite(#loc1 at #loc25))
module {
  tt.func public @triton_red_fused__to_copy_mean_pow_4(%arg0: !tt.ptr<bf16> {tt.divisibility = 16 : i32} loc("/tmp/torchinductor_root/vl/cvltpna72szvalp7fozxjqbarwav7bnep53hb6q7tuni7yet5hqg.py":18:0), %arg1: !tt.ptr<f32> {tt.divisibility = 16 : i32} loc("/tmp/torchinductor_root/vl/cvltpna72szvalp7fozxjqbarwav7bnep53hb6q7tuni7yet5hqg.py":18:0), %arg2: i32 {tt.divisibility = 16 : i32} loc("/tmp/torchinductor_root/vl/cvltpna72szvalp7fozxjqbarwav7bnep53hb6q7tuni7yet5hqg.py":18:0), %arg3: i32 {tt.divisibility = 16 : i32} loc("/tmp/torchinductor_root/vl/cvltpna72szvalp7fozxjqbarwav7bnep53hb6q7tuni7yet5hqg.py":18:0)) attributes {noinline = false} {
    %cst = arith.constant dense<0.000000e+00> : tensor<4x128xbf16> loc(#loc1)
    %cst_0 = arith.constant dense<9216> : tensor<4x1xi32> loc(#loc1)
    %cst_1 = arith.constant dense<128> : tensor<4x1xi32> loc(#loc1)
    %cst_2 = arith.constant dense<128> : tensor<1x128xi32> loc(#loc1)
    %cst_3 = arith.constant dense<0.000000e+00> : tensor<4x128xf32> loc(#loc1)
    %cst_4 = arith.constant dense<24> : tensor<4x1xi32> loc(#loc1)
    %cst_5 = arith.constant dense<86400> : tensor<4x1xi32> loc(#loc1)
    %c4_i32 = arith.constant 4 : i32 loc(#loc1)
    %0 = tt.get_program_id x : i32 loc(#loc2)
    %1 = arith.muli %0, %c4_i32 : i32 loc(#loc3)
    %2 = tt.make_range {end = 4 : i32, start = 0 : i32} : tensor<4xi32> loc(#loc4)
    %3 = tt.expand_dims %2 {axis = 1 : i32} : tensor<4xi32> -> tensor<4x1xi32> loc(#loc5)
    %4 = tt.splat %1 : i32 -> tensor<4x1xi32> loc(#loc6)
    %5 = arith.addi %4, %3 : tensor<4x1xi32> loc(#loc6)
    %6 = arith.cmpi slt, %5, %cst_5 : tensor<4x1xi32> loc(#loc7)
    %7 = tt.make_range {end = 128 : i32, start = 0 : i32} : tensor<128xi32> loc(#loc8)
    %8 = tt.expand_dims %7 {axis = 0 : i32} : tensor<128xi32> -> tensor<1x128xi32> loc(#loc9)
    %9 = arith.remsi %5, %cst_4 : tensor<4x1xi32> loc(#loc10)
    %10 = arith.divsi %5, %cst_4 : tensor<4x1xi32> loc(#loc11)
    %11 = arith.cmpi slt, %8, %cst_2 : tensor<1x128xi32> loc(#loc12)
    %12 = arith.muli %9, %cst_1 : tensor<4x1xi32> loc(#loc13)
    %13 = tt.broadcast %8 : tensor<1x128xi32> -> tensor<4x128xi32> loc(#loc14)
    %14 = tt.broadcast %12 : tensor<4x1xi32> -> tensor<4x128xi32> loc(#loc14)
    %15 = arith.addi %13, %14 : tensor<4x128xi32> loc(#loc14)
    %16 = arith.muli %10, %cst_0 : tensor<4x1xi32> loc(#loc15)
    %17 = tt.broadcast %16 : tensor<4x1xi32> -> tensor<4x128xi32> loc(#loc16)
    %18 = arith.addi %15, %17 : tensor<4x128xi32> loc(#loc16)
    %19 = tt.splat %arg0 : !tt.ptr<bf16> -> tensor<4x128x!tt.ptr<bf16>> loc(#loc17)
    %20 = tt.addptr %19, %18 : tensor<4x128x!tt.ptr<bf16>>, tensor<4x128xi32> loc(#loc17)
    %21 = tt.broadcast %11 : tensor<1x128xi1> -> tensor<4x128xi1> loc(#loc18)
    %22 = tt.broadcast %6 : tensor<4x1xi1> -> tensor<4x128xi1> loc(#loc18)
    %23 = arith.andi %21, %22 : tensor<4x128xi1> loc(#loc18)
    %24 = tt.load %20, %23, %cst evictionPolicy = evict_first : tensor<4x128x!tt.ptr<bf16>> loc(#loc19)
    %25 = arith.extf %24 : tensor<4x128xbf16> to tensor<4x128xf32> loc(#loc20)
    %26 = arith.mulf %25, %25 : tensor<4x128xf32> loc(#loc21)
    %27 = arith.addf %26, %cst_3 : tensor<4x128xf32> loc(#loc22)
    %28 = arith.select %23, %27, %cst_3 : tensor<4x128xi1>, tensor<4x128xf32> loc(#loc23)
    %29 = "tt.reduce"(%28) <{axis = 1 : i32}> ({
    ^bb0(%arg4: f32 loc(callsite(#loc1 at #loc25)), %arg5: f32 loc(callsite(#loc1 at #loc25))):
      %33 = arith.addf %arg4, %arg5 : f32 loc(#loc34)
      tt.reduce.return %33 : f32 loc(#loc31)
    }) : (tensor<4x128xf32>) -> tensor<4xf32> loc(#loc31)
    %30 = tt.expand_dims %29 {axis = 1 : i32} : tensor<4xf32> -> tensor<4x1xf32> loc(#loc27)
    %31 = tt.splat %arg1 : !tt.ptr<f32> -> tensor<4x1x!tt.ptr<f32>> loc(#loc28)
    %32 = tt.addptr %31, %5 : tensor<4x1x!tt.ptr<f32>>, tensor<4x1xi32> loc(#loc28)
    tt.store %32, %30, %6 : tensor<4x1x!tt.ptr<f32>> loc(#loc29)
    tt.return loc(#loc30)
  } loc(#loc)
} loc(#loc)
#loc2 = loc("/tmp/torchinductor_root/vl/cvltpna72szvalp7fozxjqbarwav7bnep53hb6q7tuni7yet5hqg.py":23:28)
#loc3 = loc("/tmp/torchinductor_root/vl/cvltpna72szvalp7fozxjqbarwav7bnep53hb6q7tuni7yet5hqg.py":23:33)
#loc4 = loc("/tmp/torchinductor_root/vl/cvltpna72szvalp7fozxjqbarwav7bnep53hb6q7tuni7yet5hqg.py":24:36)
#loc5 = loc("/tmp/torchinductor_root/vl/cvltpna72szvalp7fozxjqbarwav7bnep53hb6q7tuni7yet5hqg.py":24:44)
#loc6 = loc("/tmp/torchinductor_root/vl/cvltpna72szvalp7fozxjqbarwav7bnep53hb6q7tuni7yet5hqg.py":24:23)
#loc7 = loc("/tmp/torchinductor_root/vl/cvltpna72szvalp7fozxjqbarwav7bnep53hb6q7tuni7yet5hqg.py":25:21)
#loc8 = loc("/tmp/torchinductor_root/vl/cvltpna72szvalp7fozxjqbarwav7bnep53hb6q7tuni7yet5hqg.py":26:27)
#loc9 = loc("/tmp/torchinductor_root/vl/cvltpna72szvalp7fozxjqbarwav7bnep53hb6q7tuni7yet5hqg.py":26:37)
#loc10 = loc("/tmp/torchinductor_root/vl/cvltpna72szvalp7fozxjqbarwav7bnep53hb6q7tuni7yet5hqg.py":28:19)
#loc11 = loc("/tmp/torchinductor_root/vl/cvltpna72szvalp7fozxjqbarwav7bnep53hb6q7tuni7yet5hqg.py":29:19)
#loc12 = loc("/tmp/torchinductor_root/vl/cvltpna72szvalp7fozxjqbarwav7bnep53hb6q7tuni7yet5hqg.py":34:29)
#loc13 = loc("/tmp/torchinductor_root/vl/cvltpna72szvalp7fozxjqbarwav7bnep53hb6q7tuni7yet5hqg.py":38:45)
#loc14 = loc("/tmp/torchinductor_root/vl/cvltpna72szvalp7fozxjqbarwav7bnep53hb6q7tuni7yet5hqg.py":38:41)
#loc15 = loc("/tmp/torchinductor_root/vl/cvltpna72szvalp7fozxjqbarwav7bnep53hb6q7tuni7yet5hqg.py":38:55)
#loc16 = loc("/tmp/torchinductor_root/vl/cvltpna72szvalp7fozxjqbarwav7bnep53hb6q7tuni7yet5hqg.py":38:50)
#loc17 = loc("/tmp/torchinductor_root/vl/cvltpna72szvalp7fozxjqbarwav7bnep53hb6q7tuni7yet5hqg.py":38:34)
#loc18 = loc("/tmp/torchinductor_root/vl/cvltpna72szvalp7fozxjqbarwav7bnep53hb6q7tuni7yet5hqg.py":38:70)
#loc19 = loc("/tmp/torchinductor_root/vl/cvltpna72szvalp7fozxjqbarwav7bnep53hb6q7tuni7yet5hqg.py":38:60)
#loc20 = loc("/tmp/torchinductor_root/vl/cvltpna72szvalp7fozxjqbarwav7bnep53hb6q7tuni7yet5hqg.py":38:122)
#loc21 = loc("/tmp/torchinductor_root/vl/cvltpna72szvalp7fozxjqbarwav7bnep53hb6q7tuni7yet5hqg.py":40:22)
#loc22 = loc("/tmp/torchinductor_root/vl/cvltpna72szvalp7fozxjqbarwav7bnep53hb6q7tuni7yet5hqg.py":42:23)
#loc23 = loc("/tmp/torchinductor_root/vl/cvltpna72szvalp7fozxjqbarwav7bnep53hb6q7tuni7yet5hqg.py":43:48)
#loc24 = loc("/usr/local/lib/python3.10/dist-packages/triton/language/standard.py":286:36)
#loc26 = loc("/usr/local/lib/python3.10/dist-packages/triton/language/standard.py":256:15)
#loc27 = loc("/tmp/torchinductor_root/vl/cvltpna72szvalp7fozxjqbarwav7bnep53hb6q7tuni7yet5hqg.py":44:28)
#loc28 = loc("/tmp/torchinductor_root/vl/cvltpna72szvalp7fozxjqbarwav7bnep53hb6q7tuni7yet5hqg.py":45:25)
#loc29 = loc("/tmp/torchinductor_root/vl/cvltpna72szvalp7fozxjqbarwav7bnep53hb6q7tuni7yet5hqg.py":45:36)
#loc30 = loc("/tmp/torchinductor_root/vl/cvltpna72szvalp7fozxjqbarwav7bnep53hb6q7tuni7yet5hqg.py":45:4)
#loc31 = loc(callsite(#loc24 at #loc25))
#loc33 = loc(callsite(#loc26 at #loc24))
#loc34 = loc(callsite(#loc33 at #loc25))
