#loc = loc("/tmp/torchinductor_root/ts/ctsirzfzzd3q6hzmst3ijql2wxprbyku6agjaau5y4tork4ec7an.py":18:0)
#loc1 = loc(unknown)
#loc34 = loc("/tmp/torchinductor_root/ts/ctsirzfzzd3q6hzmst3ijql2wxprbyku6agjaau5y4tork4ec7an.py":47:79)
#loc95 = loc("/tmp/torchinductor_root/ts/ctsirzfzzd3q6hzmst3ijql2wxprbyku6agjaau5y4tork4ec7an.py":87:40)
#loc98 = loc("/tmp/torchinductor_root/ts/ctsirzfzzd3q6hzmst3ijql2wxprbyku6agjaau5y4tork4ec7an.py":88:40)
#loc156 = loc(callsite(#loc1 at #loc34))
#loc178 = loc(callsite(#loc1 at #loc95))
#loc184 = loc(callsite(#loc1 at #loc98))
module {
  tt.func public @triton_red_fused__to_copy_add_amax_amin_clamp_mul_native_layer_norm_reciprocal_1(%arg0: !tt.ptr<bf16> {tt.divisibility = 16 : i32} loc("/tmp/torchinductor_root/ts/ctsirzfzzd3q6hzmst3ijql2wxprbyku6agjaau5y4tork4ec7an.py":18:0), %arg1: !tt.ptr<f32> {tt.divisibility = 16 : i32} loc("/tmp/torchinductor_root/ts/ctsirzfzzd3q6hzmst3ijql2wxprbyku6agjaau5y4tork4ec7an.py":18:0), %arg2: !tt.ptr<bf16> {tt.divisibility = 16 : i32} loc("/tmp/torchinductor_root/ts/ctsirzfzzd3q6hzmst3ijql2wxprbyku6agjaau5y4tork4ec7an.py":18:0), %arg3: !tt.ptr<bf16> {tt.divisibility = 16 : i32} loc("/tmp/torchinductor_root/ts/ctsirzfzzd3q6hzmst3ijql2wxprbyku6agjaau5y4tork4ec7an.py":18:0), %arg4: !tt.ptr<bf16> {tt.divisibility = 16 : i32} loc("/tmp/torchinductor_root/ts/ctsirzfzzd3q6hzmst3ijql2wxprbyku6agjaau5y4tork4ec7an.py":18:0), %arg5: !tt.ptr<bf16> {tt.divisibility = 16 : i32} loc("/tmp/torchinductor_root/ts/ctsirzfzzd3q6hzmst3ijql2wxprbyku6agjaau5y4tork4ec7an.py":18:0), %arg6: !tt.ptr<bf16> {tt.divisibility = 16 : i32} loc("/tmp/torchinductor_root/ts/ctsirzfzzd3q6hzmst3ijql2wxprbyku6agjaau5y4tork4ec7an.py":18:0), %arg7: !tt.ptr<bf16> {tt.divisibility = 16 : i32} loc("/tmp/torchinductor_root/ts/ctsirzfzzd3q6hzmst3ijql2wxprbyku6agjaau5y4tork4ec7an.py":18:0), %arg8: !tt.ptr<bf16> {tt.divisibility = 16 : i32} loc("/tmp/torchinductor_root/ts/ctsirzfzzd3q6hzmst3ijql2wxprbyku6agjaau5y4tork4ec7an.py":18:0), %arg9: !tt.ptr<bf16> {tt.divisibility = 16 : i32} loc("/tmp/torchinductor_root/ts/ctsirzfzzd3q6hzmst3ijql2wxprbyku6agjaau5y4tork4ec7an.py":18:0), %arg10: !tt.ptr<bf16> {tt.divisibility = 16 : i32} loc("/tmp/torchinductor_root/ts/ctsirzfzzd3q6hzmst3ijql2wxprbyku6agjaau5y4tork4ec7an.py":18:0), %arg11: !tt.ptr<bf16> {tt.divisibility = 16 : i32} loc("/tmp/torchinductor_root/ts/ctsirzfzzd3q6hzmst3ijql2wxprbyku6agjaau5y4tork4ec7an.py":18:0), %arg12: !tt.ptr<i8> {tt.divisibility = 16 : i32} loc("/tmp/torchinductor_root/ts/ctsirzfzzd3q6hzmst3ijql2wxprbyku6agjaau5y4tork4ec7an.py":18:0), %arg13: !tt.ptr<i8> {tt.divisibility = 16 : i32} loc("/tmp/torchinductor_root/ts/ctsirzfzzd3q6hzmst3ijql2wxprbyku6agjaau5y4tork4ec7an.py":18:0), %arg14: !tt.ptr<i8> {tt.divisibility = 16 : i32} loc("/tmp/torchinductor_root/ts/ctsirzfzzd3q6hzmst3ijql2wxprbyku6agjaau5y4tork4ec7an.py":18:0), %arg15: !tt.ptr<i8> {tt.divisibility = 16 : i32} loc("/tmp/torchinductor_root/ts/ctsirzfzzd3q6hzmst3ijql2wxprbyku6agjaau5y4tork4ec7an.py":18:0), %arg16: i32 {tt.divisibility = 16 : i32} loc("/tmp/torchinductor_root/ts/ctsirzfzzd3q6hzmst3ijql2wxprbyku6agjaau5y4tork4ec7an.py":18:0), %arg17: i32 {tt.divisibility = 16 : i32} loc("/tmp/torchinductor_root/ts/ctsirzfzzd3q6hzmst3ijql2wxprbyku6agjaau5y4tork4ec7an.py":18:0)) attributes {noinline = false} {
    %cst = arith.constant dense<1.270000e+02> : tensor<64x64xf32> loc(#loc1)
    %cst_0 = arith.constant dense<-1.270000e+02> : tensor<64x64xf32> loc(#loc1)
    %cst_1 = arith.constant dense<9.99999974E-6> : tensor<64x1xf32> loc(#loc1)
    %cst_2 = arith.constant dense<1.000000e+00> : tensor<64x64xf32> loc(#loc1)
    %cst_3 = arith.constant dense<0.000000e+00> : tensor<64x64xf32> loc(#loc1)
    %cst_4 = arith.constant dense<1.000000e+00> : tensor<64x1xf32> loc(#loc1)
    %cst_5 = arith.constant dense<0.000000e+00> : tensor<1x64xbf16> loc(#loc1)
    %cst_6 = arith.constant dense<0.000000e+00> : tensor<64x64xbf16> loc(#loc1)
    %c3072_i32 = arith.constant 3072 : i32 loc(#loc1)
    %cst_7 = arith.constant dense<0.00787401571> : tensor<64x1xf32> loc(#loc1)
    %cst_8 = arith.constant dense<0.000000e+00> : tensor<64x1xf32> loc(#loc1)
    %cst_9 = arith.constant dense<1.000000e+00> : tensor<1x64xf32> loc(#loc1)
    %cst_10 = arith.constant dense<9.99999997E-7> : tensor<64x1xf32> loc(#loc1)
    %cst_11 = arith.constant dense<3.072000e+03> : tensor<64x1xf32> loc(#loc1)
    %cst_12 = arith.constant dense<0.000000e+00> : tensor<1x64xf32> loc(#loc1)
    %cst_13 = arith.constant dense<0xFF800000> : tensor<64x64xf32> loc(#loc1)
    %cst_14 = arith.constant dense<0x7F800000> : tensor<64x64xf32> loc(#loc1)
    %cst_15 = arith.constant 0.000000e+00 : f32 loc(#loc1)
    %cst_16 = arith.constant dense<3072> : tensor<64x1xi32> loc(#loc1)
    %cst_17 = arith.constant dense<3072> : tensor<1x64xi32> loc(#loc1)
    %c0_i32 = arith.constant 0 : i32 loc(#loc1)
    %cst_18 = arith.constant dense<4112> : tensor<64x1xi32> loc(#loc1)
    %c64_i32 = arith.constant 64 : i32 loc(#loc1)
    %0 = tt.get_program_id x : i32 loc(#loc2)
    %1 = arith.muli %0, %c64_i32 : i32 loc(#loc3)
    %2 = tt.make_range {end = 64 : i32, start = 0 : i32} : tensor<64xi32> loc(#loc4)
    %3 = tt.expand_dims %2 {axis = 1 : i32} : tensor<64xi32> -> tensor<64x1xi32> loc(#loc5)
    %4 = tt.splat %1 : i32 -> tensor<64x1xi32> loc(#loc6)
    %5 = arith.addi %4, %3 : tensor<64x1xi32> loc(#loc6)
    %6 = arith.cmpi slt, %5, %cst_18 : tensor<64x1xi32> loc(#loc7)
    %7 = tt.expand_dims %2 {axis = 0 : i32} : tensor<64xi32> -> tensor<1x64xi32> loc(#loc8)
    %8:3 = scf.for %arg18 = %c0_i32 to %c3072_i32 step %c64_i32 iter_args(%arg19 = %cst_3, %arg20 = %cst_3, %arg21 = %cst_3) -> (tensor<64x64xf32>, tensor<64x64xf32>, tensor<64x64xf32>)  : i32 {
      %35 = tt.splat %arg18 : i32 -> tensor<1x64xi32> loc(#loc10)
      %36 = arith.addi %35, %7 : tensor<1x64xi32> loc(#loc10)
      %37 = arith.cmpi slt, %36, %cst_17 : tensor<1x64xi32> loc(#loc11)
      %38 = arith.muli %5, %cst_16 : tensor<64x1xi32> loc(#loc12)
      %39 = tt.broadcast %36 : tensor<1x64xi32> -> tensor<64x64xi32> loc(#loc13)
      %40 = tt.broadcast %38 : tensor<64x1xi32> -> tensor<64x64xi32> loc(#loc13)
      %41 = arith.addi %39, %40 : tensor<64x64xi32> loc(#loc13)
      %42 = tt.splat %arg0 : !tt.ptr<bf16> -> tensor<64x64x!tt.ptr<bf16>> loc(#loc14)
      %43 = tt.addptr %42, %41 : tensor<64x64x!tt.ptr<bf16>>, tensor<64x64xi32> loc(#loc14)
      %44 = tt.broadcast %37 : tensor<1x64xi1> -> tensor<64x64xi1> loc(#loc15)
      %45 = tt.broadcast %6 : tensor<64x1xi1> -> tensor<64x64xi1> loc(#loc15)
      %46 = arith.andi %44, %45 : tensor<64x64xi1> loc(#loc15)
      %47 = tt.load %43, %46, %cst_6 evictionPolicy = evict_last : tensor<64x64x!tt.ptr<bf16>> loc(#loc16)
      %48 = arith.extf %47 : tensor<64x64xbf16> to tensor<64x64xf32> loc(#loc17)
      %49 = arith.cmpi eq, %arg18, %c0_i32 : i32 loc(#loc18)
      %50:3 = scf.if %49 -> (tensor<64x64xf32>, tensor<64x64xf32>, tensor<64x64xf32>) {
        scf.yield %cst_3, %48, %cst_2 : tensor<64x64xf32>, tensor<64x64xf32>, tensor<64x64xf32> loc(#loc147)
      } else {
        %54 = arith.subf %48, %arg19 : tensor<64x64xf32> loc(#loc148)
        %55 = arith.addf %arg21, %cst_2 : tensor<64x64xf32> loc(#loc149)
        %56 = arith.divf %54, %55 : tensor<64x64xf32> loc(#loc150)
        %57 = arith.addf %arg19, %56 : tensor<64x64xf32> loc(#loc151)
        %58 = arith.subf %48, %57 : tensor<64x64xf32> loc(#loc152)
        %59 = arith.mulf %54, %58 : tensor<64x64xf32> loc(#loc153)
        %60 = arith.addf %arg20, %59 : tensor<64x64xf32> loc(#loc154)
        scf.yield %60, %57, %55 : tensor<64x64xf32>, tensor<64x64xf32>, tensor<64x64xf32> loc(#loc154)
      } loc(#loc146)
      %51 = arith.select %46, %50#1, %arg19 : tensor<64x64xi1>, tensor<64x64xf32> loc(#loc29)
      %52 = arith.select %46, %50#0, %arg20 : tensor<64x64xi1>, tensor<64x64xf32> loc(#loc30)
      %53 = arith.select %46, %50#2, %arg21 : tensor<64x64xi1>, tensor<64x64xf32> loc(#loc31)
      scf.yield %51, %52, %53 : tensor<64x64xf32>, tensor<64x64xf32>, tensor<64x64xf32> loc(#loc32)
    } loc(#loc9)
    %9:3 = "tt.reduce"(%8#0, %8#1, %8#2) <{axis = 1 : i32}> ({
    ^bb0(%arg18: f32 loc(callsite(#loc1 at #loc34)), %arg19: f32 loc(callsite(#loc1 at #loc34)), %arg20: f32 loc(callsite(#loc1 at #loc34)), %arg21: f32 loc(callsite(#loc1 at #loc34)), %arg22: f32 loc(callsite(#loc1 at #loc34)), %arg23: f32 loc(callsite(#loc1 at #loc34))):
      %35 = arith.subf %arg21, %arg18 : f32 loc(#loc213)
      %36 = arith.addf %arg20, %arg23 : f32 loc(#loc214)
      %37 = arith.cmpf oeq, %36, %cst_15 : f32 loc(#loc215)
      %38 = arith.divf %arg23, %36 : f32 loc(#loc216)
      %39 = arith.select %37, %cst_15, %38 : f32 loc(#loc217)
      %40 = arith.mulf %35, %39 : f32 loc(#loc218)
      %41 = arith.addf %arg18, %40 : f32 loc(#loc219)
      %42 = arith.addf %arg19, %arg22 : f32 loc(#loc220)
      %43 = arith.mulf %35, %35 : f32 loc(#loc221)
      %44 = arith.mulf %43, %arg20 : f32 loc(#loc222)
      %45 = arith.mulf %44, %39 : f32 loc(#loc223)
      %46 = arith.addf %42, %45 : f32 loc(#loc224)
      tt.reduce.return %41, %46, %36 : f32, f32, f32 loc(#loc155)
    }) : (tensor<64x64xf32>, tensor<64x64xf32>, tensor<64x64xf32>) -> (tensor<64xf32>, tensor<64xf32>, tensor<64xf32>) loc(#loc155)
    %10 = tt.expand_dims %9#0 {axis = 1 : i32} : tensor<64xf32> -> tensor<64x1xf32> loc(#loc47)
    %11 = tt.expand_dims %9#1 {axis = 1 : i32} : tensor<64xf32> -> tensor<64x1xf32> loc(#loc48)
    %12:2 = scf.for %arg18 = %c0_i32 to %c3072_i32 step %c64_i32 iter_args(%arg19 = %cst_14, %arg20 = %cst_13) -> (tensor<64x64xf32>, tensor<64x64xf32>)  : i32 {
      %35 = tt.splat %arg18 : i32 -> tensor<1x64xi32> loc(#loc50)
      %36 = arith.addi %35, %7 : tensor<1x64xi32> loc(#loc50)
      %37 = arith.cmpi slt, %36, %cst_17 : tensor<1x64xi32> loc(#loc51)
      %38 = arith.muli %5, %cst_16 : tensor<64x1xi32> loc(#loc52)
      %39 = tt.broadcast %36 : tensor<1x64xi32> -> tensor<64x64xi32> loc(#loc53)
      %40 = tt.broadcast %38 : tensor<64x1xi32> -> tensor<64x64xi32> loc(#loc53)
      %41 = arith.addi %39, %40 : tensor<64x64xi32> loc(#loc53)
      %42 = tt.splat %arg0 : !tt.ptr<bf16> -> tensor<64x64x!tt.ptr<bf16>> loc(#loc54)
      %43 = tt.addptr %42, %41 : tensor<64x64x!tt.ptr<bf16>>, tensor<64x64xi32> loc(#loc54)
      %44 = tt.broadcast %37 : tensor<1x64xi1> -> tensor<64x64xi1> loc(#loc55)
      %45 = tt.broadcast %6 : tensor<64x1xi1> -> tensor<64x64xi1> loc(#loc55)
      %46 = arith.andi %44, %45 : tensor<64x64xi1> loc(#loc55)
      %47 = tt.load %43, %46, %cst_6 evictionPolicy = evict_first : tensor<64x64x!tt.ptr<bf16>> loc(#loc56)
      %48 = arith.extf %47 : tensor<64x64xbf16> to tensor<64x64xf32> loc(#loc57)
      %49 = arith.addi %36, %cst_17 : tensor<1x64xi32> loc(#loc58)
      %50 = tt.splat %arg1 : !tt.ptr<f32> -> tensor<1x64x!tt.ptr<f32>> loc(#loc59)
      %51 = tt.addptr %50, %49 : tensor<1x64x!tt.ptr<f32>>, tensor<1x64xi32> loc(#loc59)
      %52 = tt.load %51, %37, %cst_12 evictionPolicy = evict_last : tensor<1x64x!tt.ptr<f32>> loc(#loc60)
      %53 = tt.splat %arg2 : !tt.ptr<bf16> -> tensor<1x64x!tt.ptr<bf16>> loc(#loc61)
      %54 = tt.addptr %53, %49 : tensor<1x64x!tt.ptr<bf16>>, tensor<1x64xi32> loc(#loc61)
      %55 = tt.load %54, %37, %cst_5 evictionPolicy = evict_last : tensor<1x64x!tt.ptr<bf16>> loc(#loc62)
      %56 = arith.extf %55 : tensor<1x64xbf16> to tensor<1x64xf32> loc(#loc63)
      %57 = tt.addptr %50, %36 : tensor<1x64x!tt.ptr<f32>>, tensor<1x64xi32> loc(#loc64)
      %58 = tt.load %57, %37, %cst_12 evictionPolicy = evict_last : tensor<1x64x!tt.ptr<f32>> loc(#loc65)
      %59 = tt.addptr %53, %36 : tensor<1x64x!tt.ptr<bf16>>, tensor<1x64xi32> loc(#loc66)
      %60 = tt.load %59, %37, %cst_5 evictionPolicy = evict_last : tensor<1x64x!tt.ptr<bf16>> loc(#loc67)
      %61 = arith.extf %60 : tensor<1x64xbf16> to tensor<1x64xf32> loc(#loc68)
      %62 = tt.broadcast %10 : tensor<64x1xf32> -> tensor<64x64xf32> loc(#loc69)
      %63 = arith.subf %48, %62 : tensor<64x64xf32> loc(#loc69)
      %64 = arith.divf %11, %cst_11 : tensor<64x1xf32> loc(#loc70)
      %65 = arith.addf %64, %cst_10 : tensor<64x1xf32> loc(#loc71)
      %66 = tt.extern_elementwise %65 {libname = "", libpath = "", pure = true, symbol = "__nv_rsqrtf"} : (tensor<64x1xf32>) -> tensor<64x1xf32> loc(#loc72)
      %67 = tt.broadcast %66 : tensor<64x1xf32> -> tensor<64x64xf32> loc(#loc73)
      %68 = arith.mulf %63, %67 : tensor<64x64xf32> loc(#loc73)
      %69 = arith.addf %52, %56 : tensor<1x64xf32> loc(#loc74)
      %70 = arith.addf %69, %cst_9 : tensor<1x64xf32> loc(#loc75)
      %71 = tt.broadcast %70 : tensor<1x64xf32> -> tensor<64x64xf32> loc(#loc76)
      %72 = arith.mulf %68, %71 : tensor<64x64xf32> loc(#loc76)
      %73 = arith.addf %58, %61 : tensor<1x64xf32> loc(#loc77)
      %74 = tt.broadcast %73 : tensor<1x64xf32> -> tensor<64x64xf32> loc(#loc78)
      %75 = arith.addf %72, %74 : tensor<64x64xf32> loc(#loc78)
      %76 = arith.cmpf olt, %arg19, %75 : tensor<64x64xf32> loc(#loc169)
      %77 = arith.cmpf une, %arg19, %arg19 : tensor<64x64xf32> loc(#loc170)
      %78 = arith.ori %76, %77 : tensor<64x64xi1> loc(#loc171)
      %79 = arith.select %78, %arg19, %75 : tensor<64x64xi1>, tensor<64x64xf32> loc(#loc172)
      %80 = arith.select %46, %79, %arg19 : tensor<64x64xi1>, tensor<64x64xf32> loc(#loc84)
      %81 = arith.cmpf ogt, %arg20, %75 : tensor<64x64xf32> loc(#loc173)
      %82 = arith.cmpf une, %arg20, %arg20 : tensor<64x64xf32> loc(#loc174)
      %83 = arith.ori %81, %82 : tensor<64x64xi1> loc(#loc175)
      %84 = arith.select %83, %arg20, %75 : tensor<64x64xi1>, tensor<64x64xf32> loc(#loc176)
      %85 = arith.select %46, %84, %arg20 : tensor<64x64xi1>, tensor<64x64xf32> loc(#loc90)
      %86 = tt.splat %arg3 : !tt.ptr<bf16> -> tensor<64x64x!tt.ptr<bf16>> loc(#loc91)
      %87 = tt.addptr %86, %41 : tensor<64x64x!tt.ptr<bf16>>, tensor<64x64xi32> loc(#loc91)
      %88 = arith.truncf %75 : tensor<64x64xf32> to tensor<64x64xbf16> loc(#loc92)
      tt.store %87, %88, %46 : tensor<64x64x!tt.ptr<bf16>> loc(#loc92)
      scf.yield %80, %85 : tensor<64x64xf32>, tensor<64x64xf32> loc(#loc93)
    } loc(#loc49)
    %13 = "tt.reduce"(%12#0) <{axis = 1 : i32}> ({
    ^bb0(%arg18: f32 loc(callsite(#loc1 at #loc95)), %arg19: f32 loc(callsite(#loc1 at #loc95))):
      %35 = arith.cmpf olt, %arg18, %arg19 : f32 loc(#loc225)
      %36 = arith.cmpf une, %arg18, %arg18 : f32 loc(#loc226)
      %37 = arith.ori %35, %36 : i1 loc(#loc227)
      %38 = arith.select %37, %arg18, %arg19 : f32 loc(#loc228)
      tt.reduce.return %38 : f32 loc(#loc177)
    }) : (tensor<64x64xf32>) -> tensor<64xf32> loc(#loc177)
    %14 = tt.expand_dims %13 {axis = 1 : i32} : tensor<64xf32> -> tensor<64x1xf32> loc(#loc96)
    %15 = "tt.reduce"(%12#1) <{axis = 1 : i32}> ({
    ^bb0(%arg18: f32 loc(callsite(#loc1 at #loc98)), %arg19: f32 loc(callsite(#loc1 at #loc98))):
      %35 = arith.cmpf ogt, %arg18, %arg19 : f32 loc(#loc229)
      %36 = arith.cmpf une, %arg18, %arg18 : f32 loc(#loc230)
      %37 = arith.ori %35, %36 : i1 loc(#loc231)
      %38 = arith.select %37, %arg18, %arg19 : f32 loc(#loc232)
      tt.reduce.return %38 : f32 loc(#loc183)
    }) : (tensor<64x64xf32>) -> tensor<64xf32> loc(#loc183)
    %16 = tt.expand_dims %15 {axis = 1 : i32} : tensor<64xf32> -> tensor<64x1xf32> loc(#loc99)
    %17 = tt.splat %arg4 : !tt.ptr<bf16> -> tensor<64x1x!tt.ptr<bf16>> loc(#loc100)
    %18 = tt.addptr %17, %5 : tensor<64x1x!tt.ptr<bf16>>, tensor<64x1xi32> loc(#loc100)
    %19 = arith.truncf %14 : tensor<64x1xf32> to tensor<64x1xbf16> loc(#loc101)
    tt.store %18, %19, %6 : tensor<64x1x!tt.ptr<bf16>> loc(#loc101)
    %20 = tt.splat %arg5 : !tt.ptr<bf16> -> tensor<64x1x!tt.ptr<bf16>> loc(#loc102)
    %21 = tt.addptr %20, %5 : tensor<64x1x!tt.ptr<bf16>>, tensor<64x1xi32> loc(#loc102)
    %22 = arith.truncf %16 : tensor<64x1xf32> to tensor<64x1xbf16> loc(#loc103)
    tt.store %21, %22, %6 : tensor<64x1x!tt.ptr<bf16>> loc(#loc103)
    %23 = tt.splat %arg6 : !tt.ptr<bf16> -> tensor<64x1x!tt.ptr<bf16>> loc(#loc104)
    %24 = tt.addptr %23, %5 : tensor<64x1x!tt.ptr<bf16>>, tensor<64x1xi32> loc(#loc104)
    tt.store %24, %19, %6 : tensor<64x1x!tt.ptr<bf16>> loc(#loc105)
    %25 = tt.splat %arg7 : !tt.ptr<bf16> -> tensor<64x1x!tt.ptr<bf16>> loc(#loc106)
    %26 = tt.addptr %25, %5 : tensor<64x1x!tt.ptr<bf16>>, tensor<64x1xi32> loc(#loc106)
    tt.store %26, %22, %6 : tensor<64x1x!tt.ptr<bf16>> loc(#loc107)
    %27 = tt.splat %arg8 : !tt.ptr<bf16> -> tensor<64x1x!tt.ptr<bf16>> loc(#loc108)
    %28 = tt.addptr %27, %5 : tensor<64x1x!tt.ptr<bf16>>, tensor<64x1xi32> loc(#loc108)
    tt.store %28, %19, %6 : tensor<64x1x!tt.ptr<bf16>> loc(#loc109)
    %29 = tt.splat %arg9 : !tt.ptr<bf16> -> tensor<64x1x!tt.ptr<bf16>> loc(#loc110)
    %30 = tt.addptr %29, %5 : tensor<64x1x!tt.ptr<bf16>>, tensor<64x1xi32> loc(#loc110)
    tt.store %30, %22, %6 : tensor<64x1x!tt.ptr<bf16>> loc(#loc111)
    %31 = tt.splat %arg10 : !tt.ptr<bf16> -> tensor<64x1x!tt.ptr<bf16>> loc(#loc112)
    %32 = tt.addptr %31, %5 : tensor<64x1x!tt.ptr<bf16>>, tensor<64x1xi32> loc(#loc112)
    tt.store %32, %19, %6 : tensor<64x1x!tt.ptr<bf16>> loc(#loc113)
    %33 = tt.splat %arg11 : !tt.ptr<bf16> -> tensor<64x1x!tt.ptr<bf16>> loc(#loc114)
    %34 = tt.addptr %33, %5 : tensor<64x1x!tt.ptr<bf16>>, tensor<64x1xi32> loc(#loc114)
    tt.store %34, %22, %6 : tensor<64x1x!tt.ptr<bf16>> loc(#loc115)
    scf.for %arg18 = %c0_i32 to %c3072_i32 step %c64_i32  : i32 {
      %35 = tt.splat %arg18 : i32 -> tensor<1x64xi32> loc(#loc117)
      %36 = arith.addi %35, %7 : tensor<1x64xi32> loc(#loc117)
      %37 = arith.cmpi slt, %36, %cst_17 : tensor<1x64xi32> loc(#loc118)
      %38 = arith.muli %5, %cst_16 : tensor<64x1xi32> loc(#loc119)
      %39 = tt.broadcast %36 : tensor<1x64xi32> -> tensor<64x64xi32> loc(#loc120)
      %40 = tt.broadcast %38 : tensor<64x1xi32> -> tensor<64x64xi32> loc(#loc120)
      %41 = arith.addi %39, %40 : tensor<64x64xi32> loc(#loc120)
      %42 = tt.splat %arg3 : !tt.ptr<bf16> -> tensor<64x64x!tt.ptr<bf16>> loc(#loc121)
      %43 = tt.addptr %42, %41 : tensor<64x64x!tt.ptr<bf16>>, tensor<64x64xi32> loc(#loc121)
      %44 = tt.broadcast %37 : tensor<1x64xi1> -> tensor<64x64xi1> loc(#loc122)
      %45 = tt.broadcast %6 : tensor<64x1xi1> -> tensor<64x64xi1> loc(#loc122)
      %46 = arith.andi %44, %45 : tensor<64x64xi1> loc(#loc122)
      %47 = tt.load %43, %46, %cst_6 evictionPolicy = evict_first : tensor<64x64x!tt.ptr<bf16>> loc(#loc123)
      %48 = arith.extf %47 : tensor<64x64xbf16> to tensor<64x64xf32> loc(#loc124)
      %49 = arith.cmpf olt, %14, %cst_8 : tensor<64x1xf32> loc(#loc189)
      %50 = arith.cmpf une, %14, %14 : tensor<64x1xf32> loc(#loc190)
      %51 = arith.ori %49, %50 : tensor<64x1xi1> loc(#loc191)
      %52 = arith.select %51, %14, %cst_8 : tensor<64x1xi1>, tensor<64x1xf32> loc(#loc192)
      %53 = arith.subf %cst_8, %52 : tensor<64x1xf32> loc(#loc126)
      %54 = arith.cmpf ogt, %16, %cst_8 : tensor<64x1xf32> loc(#loc193)
      %55 = arith.cmpf une, %16, %16 : tensor<64x1xf32> loc(#loc194)
      %56 = arith.ori %54, %55 : tensor<64x1xi1> loc(#loc195)
      %57 = arith.select %56, %16, %cst_8 : tensor<64x1xi1>, tensor<64x1xf32> loc(#loc196)
      %58 = arith.cmpf ogt, %53, %57 : tensor<64x1xf32> loc(#loc197)
      %59 = arith.cmpf une, %53, %53 : tensor<64x1xf32> loc(#loc198)
      %60 = arith.ori %58, %59 : tensor<64x1xi1> loc(#loc199)
      %61 = arith.select %60, %53, %57 : tensor<64x1xi1>, tensor<64x1xf32> loc(#loc200)
      %62 = arith.mulf %61, %cst_7 : tensor<64x1xf32> loc(#loc129)
      %63 = arith.cmpf ogt, %62, %cst_1 : tensor<64x1xf32> loc(#loc201)
      %64 = arith.cmpf une, %62, %62 : tensor<64x1xf32> loc(#loc202)
      %65 = arith.ori %63, %64 : tensor<64x1xi1> loc(#loc203)
      %66 = arith.select %65, %62, %cst_1 : tensor<64x1xi1>, tensor<64x1xf32> loc(#loc204)
      %67 = arith.divf %cst_4, %66 : tensor<64x1xf32> loc(#loc131)
      %68 = tt.broadcast %67 : tensor<64x1xf32> -> tensor<64x64xf32> loc(#loc132)
      %69 = arith.mulf %48, %68 : tensor<64x64xf32> loc(#loc132)
      %70 = tt.extern_elementwise %69 {libname = "", libpath = "", pure = true, symbol = "__nv_nearbyintf"} : (tensor<64x64xf32>) -> tensor<64x64xf32> loc(#loc133)
      %71 = arith.cmpf ogt, %70, %cst_0 : tensor<64x64xf32> loc(#loc205)
      %72 = arith.cmpf une, %70, %70 : tensor<64x64xf32> loc(#loc206)
      %73 = arith.ori %71, %72 : tensor<64x64xi1> loc(#loc207)
      %74 = arith.select %73, %70, %cst_0 : tensor<64x64xi1>, tensor<64x64xf32> loc(#loc208)
      %75 = arith.cmpf olt, %74, %cst : tensor<64x64xf32> loc(#loc209)
      %76 = arith.cmpf une, %74, %74 : tensor<64x64xf32> loc(#loc210)
      %77 = arith.ori %75, %76 : tensor<64x64xi1> loc(#loc211)
      %78 = arith.select %77, %74, %cst : tensor<64x64xi1>, tensor<64x64xf32> loc(#loc212)
      %79 = arith.fptosi %78 : tensor<64x64xf32> to tensor<64x64xi8> loc(#loc136)
      %80 = tt.splat %arg12 : !tt.ptr<i8> -> tensor<64x64x!tt.ptr<i8>> loc(#loc137)
      %81 = tt.addptr %80, %41 : tensor<64x64x!tt.ptr<i8>>, tensor<64x64xi32> loc(#loc137)
      tt.store %81, %79, %46 : tensor<64x64x!tt.ptr<i8>> loc(#loc138)
      %82 = tt.splat %arg13 : !tt.ptr<i8> -> tensor<64x64x!tt.ptr<i8>> loc(#loc139)
      %83 = tt.addptr %82, %41 : tensor<64x64x!tt.ptr<i8>>, tensor<64x64xi32> loc(#loc139)
      tt.store %83, %79, %46 : tensor<64x64x!tt.ptr<i8>> loc(#loc140)
      %84 = tt.splat %arg14 : !tt.ptr<i8> -> tensor<64x64x!tt.ptr<i8>> loc(#loc141)
      %85 = tt.addptr %84, %41 : tensor<64x64x!tt.ptr<i8>>, tensor<64x64xi32> loc(#loc141)
      tt.store %85, %79, %46 : tensor<64x64x!tt.ptr<i8>> loc(#loc142)
      %86 = tt.splat %arg15 : !tt.ptr<i8> -> tensor<64x64x!tt.ptr<i8>> loc(#loc143)
      %87 = tt.addptr %86, %41 : tensor<64x64x!tt.ptr<i8>>, tensor<64x64xi32> loc(#loc143)
      tt.store %87, %79, %46 : tensor<64x64x!tt.ptr<i8>> loc(#loc144)
    } loc(#loc116)
    tt.return loc(#loc145)
  } loc(#loc)
} loc(#loc)
#loc2 = loc("/tmp/torchinductor_root/ts/ctsirzfzzd3q6hzmst3ijql2wxprbyku6agjaau5y4tork4ec7an.py":23:28)
#loc3 = loc("/tmp/torchinductor_root/ts/ctsirzfzzd3q6hzmst3ijql2wxprbyku6agjaau5y4tork4ec7an.py":23:33)
#loc4 = loc("/tmp/torchinductor_root/ts/ctsirzfzzd3q6hzmst3ijql2wxprbyku6agjaau5y4tork4ec7an.py":24:36)
#loc5 = loc("/tmp/torchinductor_root/ts/ctsirzfzzd3q6hzmst3ijql2wxprbyku6agjaau5y4tork4ec7an.py":24:44)
#loc6 = loc("/tmp/torchinductor_root/ts/ctsirzfzzd3q6hzmst3ijql2wxprbyku6agjaau5y4tork4ec7an.py":24:23)
#loc7 = loc("/tmp/torchinductor_root/ts/ctsirzfzzd3q6hzmst3ijql2wxprbyku6agjaau5y4tork4ec7an.py":25:21)
#loc8 = loc("/tmp/torchinductor_root/ts/ctsirzfzzd3q6hzmst3ijql2wxprbyku6agjaau5y4tork4ec7an.py":26:37)
#loc9 = loc("/tmp/torchinductor_root/ts/ctsirzfzzd3q6hzmst3ijql2wxprbyku6agjaau5y4tork4ec7an.py":32:40)
#loc10 = loc("/tmp/torchinductor_root/ts/ctsirzfzzd3q6hzmst3ijql2wxprbyku6agjaau5y4tork4ec7an.py":33:31)
#loc11 = loc("/tmp/torchinductor_root/ts/ctsirzfzzd3q6hzmst3ijql2wxprbyku6agjaau5y4tork4ec7an.py":34:29)
#loc12 = loc("/tmp/torchinductor_root/ts/ctsirzfzzd3q6hzmst3ijql2wxprbyku6agjaau5y4tork4ec7an.py":38:46)
#loc13 = loc("/tmp/torchinductor_root/ts/ctsirzfzzd3q6hzmst3ijql2wxprbyku6agjaau5y4tork4ec7an.py":38:41)
#loc14 = loc("/tmp/torchinductor_root/ts/ctsirzfzzd3q6hzmst3ijql2wxprbyku6agjaau5y4tork4ec7an.py":38:34)
#loc15 = loc("/tmp/torchinductor_root/ts/ctsirzfzzd3q6hzmst3ijql2wxprbyku6agjaau5y4tork4ec7an.py":38:61)
#loc16 = loc("/tmp/torchinductor_root/ts/ctsirzfzzd3q6hzmst3ijql2wxprbyku6agjaau5y4tork4ec7an.py":38:51)
#loc17 = loc("/tmp/torchinductor_root/ts/ctsirzfzzd3q6hzmst3ijql2wxprbyku6agjaau5y4tork4ec7an.py":38:112)
#loc18 = loc("/tmp/torchinductor_root/ts/ctsirzfzzd3q6hzmst3ijql2wxprbyku6agjaau5y4tork4ec7an.py":42:62)
#loc19 = loc("/usr/local/lib/python3.10/dist-packages/torch/_inductor/runtime/triton_helpers.py":203:7)
#loc20 = loc("/tmp/torchinductor_root/ts/ctsirzfzzd3q6hzmst3ijql2wxprbyku6agjaau5y4tork4ec7an.py":42:51)
#loc21 = loc("/usr/local/lib/python3.10/dist-packages/torch/_inductor/runtime/triton_helpers.py":206:31)
#loc22 = loc("/usr/local/lib/python3.10/dist-packages/torch/_inductor/runtime/triton_helpers.py":208:24)
#loc23 = loc("/usr/local/lib/python3.10/dist-packages/torch/_inductor/runtime/triton_helpers.py":209:30)
#loc24 = loc("/usr/local/lib/python3.10/dist-packages/torch/_inductor/runtime/triton_helpers.py":210:34)
#loc25 = loc("/usr/local/lib/python3.10/dist-packages/torch/_inductor/runtime/triton_helpers.py":210:26)
#loc26 = loc("/usr/local/lib/python3.10/dist-packages/torch/_inductor/runtime/triton_helpers.py":211:39)
#loc27 = loc("/usr/local/lib/python3.10/dist-packages/torch/_inductor/runtime/triton_helpers.py":211:31)
#loc28 = loc("/usr/local/lib/python3.10/dist-packages/torch/_inductor/runtime/triton_helpers.py":211:22)
#loc29 = loc("/tmp/torchinductor_root/ts/ctsirzfzzd3q6hzmst3ijql2wxprbyku6agjaau5y4tork4ec7an.py":44:62)
#loc30 = loc("/tmp/torchinductor_root/ts/ctsirzfzzd3q6hzmst3ijql2wxprbyku6agjaau5y4tork4ec7an.py":45:58)
#loc31 = loc("/tmp/torchinductor_root/ts/ctsirzfzzd3q6hzmst3ijql2wxprbyku6agjaau5y4tork4ec7an.py":46:66)
#loc32 = loc("/tmp/torchinductor_root/ts/ctsirzfzzd3q6hzmst3ijql2wxprbyku6agjaau5y4tork4ec7an.py":46:8)
#loc33 = loc("/usr/local/lib/python3.10/dist-packages/torch/_inductor/runtime/triton_helpers.py":229:46)
#loc35 = loc("/usr/local/lib/python3.10/dist-packages/torch/_inductor/runtime/triton_helpers.py":217:21)
#loc36 = loc("/usr/local/lib/python3.10/dist-packages/torch/_inductor/runtime/triton_helpers.py":218:28)
#loc37 = loc("/usr/local/lib/python3.10/dist-packages/torch/_inductor/runtime/triton_helpers.py":219:39)
#loc38 = loc("/usr/local/lib/python3.10/dist-packages/torch/_inductor/runtime/triton_helpers.py":219:60)
#loc39 = loc("/usr/local/lib/python3.10/dist-packages/torch/_inductor/runtime/triton_helpers.py":219:49)
#loc40 = loc("/usr/local/lib/python3.10/dist-packages/torch/_inductor/runtime/triton_helpers.py":221:25)
#loc41 = loc("/usr/local/lib/python3.10/dist-packages/torch/_inductor/runtime/triton_helpers.py":221:17)
#loc42 = loc("/usr/local/lib/python3.10/dist-packages/torch/_inductor/runtime/triton_helpers.py":222:15)
#loc43 = loc("/usr/local/lib/python3.10/dist-packages/torch/_inductor/runtime/triton_helpers.py":222:30)
#loc44 = loc("/usr/local/lib/python3.10/dist-packages/torch/_inductor/runtime/triton_helpers.py":222:38)
#loc45 = loc("/usr/local/lib/python3.10/dist-packages/torch/_inductor/runtime/triton_helpers.py":222:49)
#loc46 = loc("/usr/local/lib/python3.10/dist-packages/torch/_inductor/runtime/triton_helpers.py":222:22)
#loc47 = loc("/tmp/torchinductor_root/ts/ctsirzfzzd3q6hzmst3ijql2wxprbyku6agjaau5y4tork4ec7an.py":48:16)
#loc48 = loc("/tmp/torchinductor_root/ts/ctsirzfzzd3q6hzmst3ijql2wxprbyku6agjaau5y4tork4ec7an.py":49:16)
#loc49 = loc("/tmp/torchinductor_root/ts/ctsirzfzzd3q6hzmst3ijql2wxprbyku6agjaau5y4tork4ec7an.py":53:40)
#loc50 = loc("/tmp/torchinductor_root/ts/ctsirzfzzd3q6hzmst3ijql2wxprbyku6agjaau5y4tork4ec7an.py":54:31)
#loc51 = loc("/tmp/torchinductor_root/ts/ctsirzfzzd3q6hzmst3ijql2wxprbyku6agjaau5y4tork4ec7an.py":55:29)
#loc52 = loc("/tmp/torchinductor_root/ts/ctsirzfzzd3q6hzmst3ijql2wxprbyku6agjaau5y4tork4ec7an.py":59:46)
#loc53 = loc("/tmp/torchinductor_root/ts/ctsirzfzzd3q6hzmst3ijql2wxprbyku6agjaau5y4tork4ec7an.py":59:41)
#loc54 = loc("/tmp/torchinductor_root/ts/ctsirzfzzd3q6hzmst3ijql2wxprbyku6agjaau5y4tork4ec7an.py":59:34)
#loc55 = loc("/tmp/torchinductor_root/ts/ctsirzfzzd3q6hzmst3ijql2wxprbyku6agjaau5y4tork4ec7an.py":59:61)
#loc56 = loc("/tmp/torchinductor_root/ts/ctsirzfzzd3q6hzmst3ijql2wxprbyku6agjaau5y4tork4ec7an.py":59:51)
#loc57 = loc("/tmp/torchinductor_root/ts/ctsirzfzzd3q6hzmst3ijql2wxprbyku6agjaau5y4tork4ec7an.py":59:113)
#loc58 = loc("/tmp/torchinductor_root/ts/ctsirzfzzd3q6hzmst3ijql2wxprbyku6agjaau5y4tork4ec7an.py":60:42)
#loc59 = loc("/tmp/torchinductor_root/ts/ctsirzfzzd3q6hzmst3ijql2wxprbyku6agjaau5y4tork4ec7an.py":60:35)
#loc60 = loc("/tmp/torchinductor_root/ts/ctsirzfzzd3q6hzmst3ijql2wxprbyku6agjaau5y4tork4ec7an.py":60:49)
#loc61 = loc("/tmp/torchinductor_root/ts/ctsirzfzzd3q6hzmst3ijql2wxprbyku6agjaau5y4tork4ec7an.py":61:35)
#loc62 = loc("/tmp/torchinductor_root/ts/ctsirzfzzd3q6hzmst3ijql2wxprbyku6agjaau5y4tork4ec7an.py":61:49)
#loc63 = loc("/tmp/torchinductor_root/ts/ctsirzfzzd3q6hzmst3ijql2wxprbyku6agjaau5y4tork4ec7an.py":61:102)
#loc64 = loc("/tmp/torchinductor_root/ts/ctsirzfzzd3q6hzmst3ijql2wxprbyku6agjaau5y4tork4ec7an.py":62:35)
#loc65 = loc("/tmp/torchinductor_root/ts/ctsirzfzzd3q6hzmst3ijql2wxprbyku6agjaau5y4tork4ec7an.py":62:42)
#loc66 = loc("/tmp/torchinductor_root/ts/ctsirzfzzd3q6hzmst3ijql2wxprbyku6agjaau5y4tork4ec7an.py":63:35)
#loc67 = loc("/tmp/torchinductor_root/ts/ctsirzfzzd3q6hzmst3ijql2wxprbyku6agjaau5y4tork4ec7an.py":63:42)
#loc68 = loc("/tmp/torchinductor_root/ts/ctsirzfzzd3q6hzmst3ijql2wxprbyku6agjaau5y4tork4ec7an.py":63:95)
#loc69 = loc("/tmp/torchinductor_root/ts/ctsirzfzzd3q6hzmst3ijql2wxprbyku6agjaau5y4tork4ec7an.py":65:24)
#loc70 = loc("/tmp/torchinductor_root/ts/ctsirzfzzd3q6hzmst3ijql2wxprbyku6agjaau5y4tork4ec7an.py":67:24)
#loc71 = loc("/tmp/torchinductor_root/ts/ctsirzfzzd3q6hzmst3ijql2wxprbyku6agjaau5y4tork4ec7an.py":69:24)
#loc72 = loc("/tmp/torchinductor_root/ts/ctsirzfzzd3q6hzmst3ijql2wxprbyku6agjaau5y4tork4ec7an.py":70:32)
#loc73 = loc("/tmp/torchinductor_root/ts/ctsirzfzzd3q6hzmst3ijql2wxprbyku6agjaau5y4tork4ec7an.py":71:24)
#loc74 = loc("/tmp/torchinductor_root/ts/ctsirzfzzd3q6hzmst3ijql2wxprbyku6agjaau5y4tork4ec7an.py":74:24)
#loc75 = loc("/tmp/torchinductor_root/ts/ctsirzfzzd3q6hzmst3ijql2wxprbyku6agjaau5y4tork4ec7an.py":76:24)
#loc76 = loc("/tmp/torchinductor_root/ts/ctsirzfzzd3q6hzmst3ijql2wxprbyku6agjaau5y4tork4ec7an.py":77:24)
#loc77 = loc("/tmp/torchinductor_root/ts/ctsirzfzzd3q6hzmst3ijql2wxprbyku6agjaau5y4tork4ec7an.py":79:24)
#loc78 = loc("/tmp/torchinductor_root/ts/ctsirzfzzd3q6hzmst3ijql2wxprbyku6agjaau5y4tork4ec7an.py":80:24)
#loc79 = loc("/usr/local/lib/python3.10/dist-packages/torch/_inductor/runtime/triton_helpers.py":94:15)
#loc80 = loc("/tmp/torchinductor_root/ts/ctsirzfzzd3q6hzmst3ijql2wxprbyku6agjaau5y4tork4ec7an.py":82:47)
#loc81 = loc("/usr/local/lib/python3.10/dist-packages/torch/_inductor/runtime/triton_helpers.py":96:21)
#loc82 = loc("/usr/local/lib/python3.10/dist-packages/torch/_inductor/runtime/triton_helpers.py":96:16)
#loc83 = loc("/usr/local/lib/python3.10/dist-packages/torch/_inductor/runtime/triton_helpers.py":97:29)
#loc84 = loc("/tmp/torchinductor_root/ts/ctsirzfzzd3q6hzmst3ijql2wxprbyku6agjaau5y4tork4ec7an.py":83:50)
#loc85 = loc("/usr/local/lib/python3.10/dist-packages/torch/_inductor/runtime/triton_helpers.py":102:15)
#loc86 = loc("/tmp/torchinductor_root/ts/ctsirzfzzd3q6hzmst3ijql2wxprbyku6agjaau5y4tork4ec7an.py":84:47)
#loc87 = loc("/usr/local/lib/python3.10/dist-packages/torch/_inductor/runtime/triton_helpers.py":104:21)
#loc88 = loc("/usr/local/lib/python3.10/dist-packages/torch/_inductor/runtime/triton_helpers.py":104:16)
#loc89 = loc("/usr/local/lib/python3.10/dist-packages/torch/_inductor/runtime/triton_helpers.py":105:29)
#loc90 = loc("/tmp/torchinductor_root/ts/ctsirzfzzd3q6hzmst3ijql2wxprbyku6agjaau5y4tork4ec7an.py":85:50)
#loc91 = loc("/tmp/torchinductor_root/ts/ctsirzfzzd3q6hzmst3ijql2wxprbyku6agjaau5y4tork4ec7an.py":86:29)
#loc92 = loc("/tmp/torchinductor_root/ts/ctsirzfzzd3q6hzmst3ijql2wxprbyku6agjaau5y4tork4ec7an.py":86:53)
#loc93 = loc("/tmp/torchinductor_root/ts/ctsirzfzzd3q6hzmst3ijql2wxprbyku6agjaau5y4tork4ec7an.py":86:8)
#loc94 = loc("/usr/local/lib/python3.10/dist-packages/torch/_inductor/runtime/triton_helpers.py":110:29)
#loc96 = loc("/tmp/torchinductor_root/ts/ctsirzfzzd3q6hzmst3ijql2wxprbyku6agjaau5y4tork4ec7an.py":87:43)
#loc97 = loc("/usr/local/lib/python3.10/dist-packages/torch/_inductor/runtime/triton_helpers.py":115:29)
#loc99 = loc("/tmp/torchinductor_root/ts/ctsirzfzzd3q6hzmst3ijql2wxprbyku6agjaau5y4tork4ec7an.py":88:43)
#loc100 = loc("/tmp/torchinductor_root/ts/ctsirzfzzd3q6hzmst3ijql2wxprbyku6agjaau5y4tork4ec7an.py":89:25)
#loc101 = loc("/tmp/torchinductor_root/ts/ctsirzfzzd3q6hzmst3ijql2wxprbyku6agjaau5y4tork4ec7an.py":89:37)
#loc102 = loc("/tmp/torchinductor_root/ts/ctsirzfzzd3q6hzmst3ijql2wxprbyku6agjaau5y4tork4ec7an.py":90:25)
#loc103 = loc("/tmp/torchinductor_root/ts/ctsirzfzzd3q6hzmst3ijql2wxprbyku6agjaau5y4tork4ec7an.py":90:37)
#loc104 = loc("/tmp/torchinductor_root/ts/ctsirzfzzd3q6hzmst3ijql2wxprbyku6agjaau5y4tork4ec7an.py":91:25)
#loc105 = loc("/tmp/torchinductor_root/ts/ctsirzfzzd3q6hzmst3ijql2wxprbyku6agjaau5y4tork4ec7an.py":91:37)
#loc106 = loc("/tmp/torchinductor_root/ts/ctsirzfzzd3q6hzmst3ijql2wxprbyku6agjaau5y4tork4ec7an.py":92:25)
#loc107 = loc("/tmp/torchinductor_root/ts/ctsirzfzzd3q6hzmst3ijql2wxprbyku6agjaau5y4tork4ec7an.py":92:37)
#loc108 = loc("/tmp/torchinductor_root/ts/ctsirzfzzd3q6hzmst3ijql2wxprbyku6agjaau5y4tork4ec7an.py":93:25)
#loc109 = loc("/tmp/torchinductor_root/ts/ctsirzfzzd3q6hzmst3ijql2wxprbyku6agjaau5y4tork4ec7an.py":93:37)
#loc110 = loc("/tmp/torchinductor_root/ts/ctsirzfzzd3q6hzmst3ijql2wxprbyku6agjaau5y4tork4ec7an.py":94:25)
#loc111 = loc("/tmp/torchinductor_root/ts/ctsirzfzzd3q6hzmst3ijql2wxprbyku6agjaau5y4tork4ec7an.py":94:37)
#loc112 = loc("/tmp/torchinductor_root/ts/ctsirzfzzd3q6hzmst3ijql2wxprbyku6agjaau5y4tork4ec7an.py":95:25)
#loc113 = loc("/tmp/torchinductor_root/ts/ctsirzfzzd3q6hzmst3ijql2wxprbyku6agjaau5y4tork4ec7an.py":95:37)
#loc114 = loc("/tmp/torchinductor_root/ts/ctsirzfzzd3q6hzmst3ijql2wxprbyku6agjaau5y4tork4ec7an.py":96:26)
#loc115 = loc("/tmp/torchinductor_root/ts/ctsirzfzzd3q6hzmst3ijql2wxprbyku6agjaau5y4tork4ec7an.py":96:38)
#loc116 = loc("/tmp/torchinductor_root/ts/ctsirzfzzd3q6hzmst3ijql2wxprbyku6agjaau5y4tork4ec7an.py":97:40)
#loc117 = loc("/tmp/torchinductor_root/ts/ctsirzfzzd3q6hzmst3ijql2wxprbyku6agjaau5y4tork4ec7an.py":98:31)
#loc118 = loc("/tmp/torchinductor_root/ts/ctsirzfzzd3q6hzmst3ijql2wxprbyku6agjaau5y4tork4ec7an.py":99:29)
#loc119 = loc("/tmp/torchinductor_root/ts/ctsirzfzzd3q6hzmst3ijql2wxprbyku6agjaau5y4tork4ec7an.py":103:48)
#loc120 = loc("/tmp/torchinductor_root/ts/ctsirzfzzd3q6hzmst3ijql2wxprbyku6agjaau5y4tork4ec7an.py":103:43)
#loc121 = loc("/tmp/torchinductor_root/ts/ctsirzfzzd3q6hzmst3ijql2wxprbyku6agjaau5y4tork4ec7an.py":103:36)
#loc122 = loc("/tmp/torchinductor_root/ts/ctsirzfzzd3q6hzmst3ijql2wxprbyku6agjaau5y4tork4ec7an.py":103:63)
#loc123 = loc("/tmp/torchinductor_root/ts/ctsirzfzzd3q6hzmst3ijql2wxprbyku6agjaau5y4tork4ec7an.py":103:53)
#loc124 = loc("/tmp/torchinductor_root/ts/ctsirzfzzd3q6hzmst3ijql2wxprbyku6agjaau5y4tork4ec7an.py":103:115)
#loc125 = loc("/tmp/torchinductor_root/ts/ctsirzfzzd3q6hzmst3ijql2wxprbyku6agjaau5y4tork4ec7an.py":105:46)
#loc126 = loc("/tmp/torchinductor_root/ts/ctsirzfzzd3q6hzmst3ijql2wxprbyku6agjaau5y4tork4ec7an.py":106:17)
#loc127 = loc("/tmp/torchinductor_root/ts/ctsirzfzzd3q6hzmst3ijql2wxprbyku6agjaau5y4tork4ec7an.py":107:46)
#loc128 = loc("/tmp/torchinductor_root/ts/ctsirzfzzd3q6hzmst3ijql2wxprbyku6agjaau5y4tork4ec7an.py":108:46)
#loc129 = loc("/tmp/torchinductor_root/ts/ctsirzfzzd3q6hzmst3ijql2wxprbyku6agjaau5y4tork4ec7an.py":110:24)
#loc130 = loc("/tmp/torchinductor_root/ts/ctsirzfzzd3q6hzmst3ijql2wxprbyku6agjaau5y4tork4ec7an.py":113:46)
#loc131 = loc("/tmp/torchinductor_root/ts/ctsirzfzzd3q6hzmst3ijql2wxprbyku6agjaau5y4tork4ec7an.py":116:25)
#loc132 = loc("/tmp/torchinductor_root/ts/ctsirzfzzd3q6hzmst3ijql2wxprbyku6agjaau5y4tork4ec7an.py":119:24)
#loc133 = loc("/tmp/torchinductor_root/ts/ctsirzfzzd3q6hzmst3ijql2wxprbyku6agjaau5y4tork4ec7an.py":120:36)
#loc134 = loc("/tmp/torchinductor_root/ts/ctsirzfzzd3q6hzmst3ijql2wxprbyku6agjaau5y4tork4ec7an.py":123:46)
#loc135 = loc("/tmp/torchinductor_root/ts/ctsirzfzzd3q6hzmst3ijql2wxprbyku6agjaau5y4tork4ec7an.py":125:46)
#loc136 = loc("/tmp/torchinductor_root/ts/ctsirzfzzd3q6hzmst3ijql2wxprbyku6agjaau5y4tork4ec7an.py":127:25)
#loc137 = loc("/tmp/torchinductor_root/ts/ctsirzfzzd3q6hzmst3ijql2wxprbyku6agjaau5y4tork4ec7an.py":128:30)
#loc138 = loc("/tmp/torchinductor_root/ts/ctsirzfzzd3q6hzmst3ijql2wxprbyku6agjaau5y4tork4ec7an.py":128:54)
#loc139 = loc("/tmp/torchinductor_root/ts/ctsirzfzzd3q6hzmst3ijql2wxprbyku6agjaau5y4tork4ec7an.py":129:30)
#loc140 = loc("/tmp/torchinductor_root/ts/ctsirzfzzd3q6hzmst3ijql2wxprbyku6agjaau5y4tork4ec7an.py":129:54)
#loc141 = loc("/tmp/torchinductor_root/ts/ctsirzfzzd3q6hzmst3ijql2wxprbyku6agjaau5y4tork4ec7an.py":130:30)
#loc142 = loc("/tmp/torchinductor_root/ts/ctsirzfzzd3q6hzmst3ijql2wxprbyku6agjaau5y4tork4ec7an.py":130:54)
#loc143 = loc("/tmp/torchinductor_root/ts/ctsirzfzzd3q6hzmst3ijql2wxprbyku6agjaau5y4tork4ec7an.py":131:30)
#loc144 = loc("/tmp/torchinductor_root/ts/ctsirzfzzd3q6hzmst3ijql2wxprbyku6agjaau5y4tork4ec7an.py":131:54)
#loc145 = loc("/tmp/torchinductor_root/ts/ctsirzfzzd3q6hzmst3ijql2wxprbyku6agjaau5y4tork4ec7an.py":97:4)
#loc146 = loc(callsite(#loc19 at #loc20))
#loc147 = loc(callsite(#loc21 at #loc20))
#loc148 = loc(callsite(#loc22 at #loc20))
#loc149 = loc(callsite(#loc23 at #loc20))
#loc150 = loc(callsite(#loc24 at #loc20))
#loc151 = loc(callsite(#loc25 at #loc20))
#loc152 = loc(callsite(#loc26 at #loc20))
#loc153 = loc(callsite(#loc27 at #loc20))
#loc154 = loc(callsite(#loc28 at #loc20))
#loc155 = loc(callsite(#loc33 at #loc34))
#loc157 = loc(callsite(#loc35 at #loc33))
#loc158 = loc(callsite(#loc36 at #loc33))
#loc159 = loc(callsite(#loc37 at #loc33))
#loc160 = loc(callsite(#loc38 at #loc33))
#loc161 = loc(callsite(#loc39 at #loc33))
#loc162 = loc(callsite(#loc40 at #loc33))
#loc163 = loc(callsite(#loc41 at #loc33))
#loc164 = loc(callsite(#loc42 at #loc33))
#loc165 = loc(callsite(#loc43 at #loc33))
#loc166 = loc(callsite(#loc44 at #loc33))
#loc167 = loc(callsite(#loc45 at #loc33))
#loc168 = loc(callsite(#loc46 at #loc33))
#loc169 = loc(callsite(#loc79 at #loc80))
#loc170 = loc(callsite(#loc81 at #loc80))
#loc171 = loc(callsite(#loc82 at #loc80))
#loc172 = loc(callsite(#loc83 at #loc80))
#loc173 = loc(callsite(#loc85 at #loc86))
#loc174 = loc(callsite(#loc87 at #loc86))
#loc175 = loc(callsite(#loc88 at #loc86))
#loc176 = loc(callsite(#loc89 at #loc86))
#loc177 = loc(callsite(#loc94 at #loc95))
#loc179 = loc(callsite(#loc79 at #loc94))
#loc180 = loc(callsite(#loc81 at #loc94))
#loc181 = loc(callsite(#loc82 at #loc94))
#loc182 = loc(callsite(#loc83 at #loc94))
#loc183 = loc(callsite(#loc97 at #loc98))
#loc185 = loc(callsite(#loc85 at #loc97))
#loc186 = loc(callsite(#loc87 at #loc97))
#loc187 = loc(callsite(#loc88 at #loc97))
#loc188 = loc(callsite(#loc89 at #loc97))
#loc189 = loc(callsite(#loc79 at #loc125))
#loc190 = loc(callsite(#loc81 at #loc125))
#loc191 = loc(callsite(#loc82 at #loc125))
#loc192 = loc(callsite(#loc83 at #loc125))
#loc193 = loc(callsite(#loc85 at #loc127))
#loc194 = loc(callsite(#loc87 at #loc127))
#loc195 = loc(callsite(#loc88 at #loc127))
#loc196 = loc(callsite(#loc89 at #loc127))
#loc197 = loc(callsite(#loc85 at #loc128))
#loc198 = loc(callsite(#loc87 at #loc128))
#loc199 = loc(callsite(#loc88 at #loc128))
#loc200 = loc(callsite(#loc89 at #loc128))
#loc201 = loc(callsite(#loc85 at #loc130))
#loc202 = loc(callsite(#loc87 at #loc130))
#loc203 = loc(callsite(#loc88 at #loc130))
#loc204 = loc(callsite(#loc89 at #loc130))
#loc205 = loc(callsite(#loc85 at #loc134))
#loc206 = loc(callsite(#loc87 at #loc134))
#loc207 = loc(callsite(#loc88 at #loc134))
#loc208 = loc(callsite(#loc89 at #loc134))
#loc209 = loc(callsite(#loc79 at #loc135))
#loc210 = loc(callsite(#loc81 at #loc135))
#loc211 = loc(callsite(#loc82 at #loc135))
#loc212 = loc(callsite(#loc83 at #loc135))
#loc213 = loc(callsite(#loc157 at #loc34))
#loc214 = loc(callsite(#loc158 at #loc34))
#loc215 = loc(callsite(#loc159 at #loc34))
#loc216 = loc(callsite(#loc160 at #loc34))
#loc217 = loc(callsite(#loc161 at #loc34))
#loc218 = loc(callsite(#loc162 at #loc34))
#loc219 = loc(callsite(#loc163 at #loc34))
#loc220 = loc(callsite(#loc164 at #loc34))
#loc221 = loc(callsite(#loc165 at #loc34))
#loc222 = loc(callsite(#loc166 at #loc34))
#loc223 = loc(callsite(#loc167 at #loc34))
#loc224 = loc(callsite(#loc168 at #loc34))
#loc225 = loc(callsite(#loc179 at #loc95))
#loc226 = loc(callsite(#loc180 at #loc95))
#loc227 = loc(callsite(#loc181 at #loc95))
#loc228 = loc(callsite(#loc182 at #loc95))
#loc229 = loc(callsite(#loc185 at #loc98))
#loc230 = loc(callsite(#loc186 at #loc98))
#loc231 = loc(callsite(#loc187 at #loc98))
#loc232 = loc(callsite(#loc188 at #loc98))
