#loc = loc("/tmp/torchinductor_root/6j/c6jz2tfjq7rd6ogu5yxamgykgpshk6rn4e3clm3uyylvwqzpi5m4.py":18:0)
module {
  tt.func public @triton_poi_fused__scaled_dot_product_flash_attention__to_copy_add_cat_mul_10(%arg0: !tt.ptr<bf16> {tt.divisibility = 16 : i32} loc("/tmp/torchinductor_root/6j/c6jz2tfjq7rd6ogu5yxamgykgpshk6rn4e3clm3uyylvwqzpi5m4.py":18:0), %arg1: !tt.ptr<bf16> {tt.divisibility = 16 : i32} loc("/tmp/torchinductor_root/6j/c6jz2tfjq7rd6ogu5yxamgykgpshk6rn4e3clm3uyylvwqzpi5m4.py":18:0), %arg2: !tt.ptr<bf16> {tt.divisibility = 16 : i32} loc("/tmp/torchinductor_root/6j/c6jz2tfjq7rd6ogu5yxamgykgpshk6rn4e3clm3uyylvwqzpi5m4.py":18:0), %arg3: i32 {tt.divisibility = 16 : i32} loc("/tmp/torchinductor_root/6j/c6jz2tfjq7rd6ogu5yxamgykgpshk6rn4e3clm3uyylvwqzpi5m4.py":18:0)) attributes {noinline = false} {
    %cst = arith.constant dense<0.000000e+00> : tensor<512xbf16> loc(#loc1)
    %cst_0 = arith.constant dense<-512> : tensor<512xi32> loc(#loc1)
    %cst_1 = arith.constant dense<9216> : tensor<512xi32> loc(#loc1)
    %cst_2 = arith.constant dense<6144> : tensor<512xi32> loc(#loc1)
    %cst_3 = arith.constant dense<512> : tensor<512xi64> loc(#loc1)
    %cst_4 = arith.constant dense<526336> : tensor<512xi32> loc(#loc1)
    %cst_5 = arith.constant dense<4112> : tensor<512xi32> loc(#loc1)
    %cst_6 = arith.constant dense<128> : tensor<512xi32> loc(#loc1)
    %c512_i32 = arith.constant 512 : i32 loc(#loc1)
    %0 = tt.get_program_id x : i32 loc(#loc2)
    %1 = arith.muli %0, %c512_i32 : i32 loc(#loc3)
    %2 = tt.make_range {end = 512 : i32, start = 0 : i32} : tensor<512xi32> loc(#loc4)
    %3 = tt.splat %1 : i32 -> tensor<512xi32> loc(#loc5)
    %4 = arith.addi %3, %2 : tensor<512xi32> loc(#loc5)
    %5 = arith.divsi %4, %cst_6 : tensor<512xi32> loc(#loc6)
    %6 = arith.remsi %5, %cst_5 : tensor<512xi32> loc(#loc7)
    %7 = arith.remsi %4, %cst_6 : tensor<512xi32> loc(#loc8)
    %8 = arith.divsi %4, %cst_4 : tensor<512xi32> loc(#loc9)
    %9 = arith.extsi %6 : tensor<512xi32> to tensor<512xi64> loc(#loc10)
    %10 = arith.cmpi slt, %9, %cst_3 : tensor<512xi64> loc(#loc10)
    %11 = arith.addi %7, %cst_2 : tensor<512xi32> loc(#loc11)
    %12 = arith.muli %8, %cst_6 : tensor<512xi32> loc(#loc12)
    %13 = arith.addi %11, %12 : tensor<512xi32> loc(#loc13)
    %14 = arith.muli %6, %cst_1 : tensor<512xi32> loc(#loc14)
    %15 = arith.addi %13, %14 : tensor<512xi32> loc(#loc15)
    %16 = tt.splat %arg0 : !tt.ptr<bf16> -> tensor<512x!tt.ptr<bf16>> loc(#loc16)
    %17 = tt.addptr %16, %15 : tensor<512x!tt.ptr<bf16>>, tensor<512xi32> loc(#loc16)
    %18 = tt.load %17, %10, %cst : tensor<512x!tt.ptr<bf16>> loc(#loc17)
    %19 = arith.extf %18 : tensor<512xbf16> to tensor<512xf32> loc(#loc18)
    %20 = arith.cmpi sge, %9, %cst_3 : tensor<512xi64> loc(#loc19)
    %21 = arith.addi %6, %cst_0 : tensor<512xi32> loc(#loc20)
    %22 = arith.muli %21, %cst_1 : tensor<512xi32> loc(#loc21)
    %23 = arith.addi %13, %22 : tensor<512xi32> loc(#loc22)
    %24 = tt.splat %arg1 : !tt.ptr<bf16> -> tensor<512x!tt.ptr<bf16>> loc(#loc23)
    %25 = tt.addptr %24, %23 : tensor<512x!tt.ptr<bf16>>, tensor<512xi32> loc(#loc23)
    %26 = tt.load %25, %20, %cst : tensor<512x!tt.ptr<bf16>> loc(#loc24)
    %27 = arith.extf %26 : tensor<512xbf16> to tensor<512xf32> loc(#loc25)
    %28 = arith.select %10, %19, %27 : tensor<512xi1>, tensor<512xf32> loc(#loc26)
    %29 = tt.splat %arg2 : !tt.ptr<bf16> -> tensor<512x!tt.ptr<bf16>> loc(#loc27)
    %30 = tt.addptr %29, %4 : tensor<512x!tt.ptr<bf16>>, tensor<512xi32> loc(#loc27)
    %31 = arith.truncf %28 : tensor<512xf32> to tensor<512xbf16> loc(#loc28)
    tt.store %30, %31 : tensor<512x!tt.ptr<bf16>> loc(#loc28)
    tt.return loc(#loc29)
  } loc(#loc)
} loc(#loc)
#loc1 = loc(unknown)
#loc2 = loc("/tmp/torchinductor_root/6j/c6jz2tfjq7rd6ogu5yxamgykgpshk6rn4e3clm3uyylvwqzpi5m4.py":20:28)
#loc3 = loc("/tmp/torchinductor_root/6j/c6jz2tfjq7rd6ogu5yxamgykgpshk6rn4e3clm3uyylvwqzpi5m4.py":20:33)
#loc4 = loc("/tmp/torchinductor_root/6j/c6jz2tfjq7rd6ogu5yxamgykgpshk6rn4e3clm3uyylvwqzpi5m4.py":21:36)
#loc5 = loc("/tmp/torchinductor_root/6j/c6jz2tfjq7rd6ogu5yxamgykgpshk6rn4e3clm3uyylvwqzpi5m4.py":21:23)
#loc6 = loc("/tmp/torchinductor_root/6j/c6jz2tfjq7rd6ogu5yxamgykgpshk6rn4e3clm3uyylvwqzpi5m4.py":23:21)
#loc7 = loc("/tmp/torchinductor_root/6j/c6jz2tfjq7rd6ogu5yxamgykgpshk6rn4e3clm3uyylvwqzpi5m4.py":23:28)
#loc8 = loc("/tmp/torchinductor_root/6j/c6jz2tfjq7rd6ogu5yxamgykgpshk6rn4e3clm3uyylvwqzpi5m4.py":24:19)
#loc9 = loc("/tmp/torchinductor_root/6j/c6jz2tfjq7rd6ogu5yxamgykgpshk6rn4e3clm3uyylvwqzpi5m4.py":25:19)
#loc10 = loc("/tmp/torchinductor_root/6j/c6jz2tfjq7rd6ogu5yxamgykgpshk6rn4e3clm3uyylvwqzpi5m4.py":31:18)
#loc11 = loc("/tmp/torchinductor_root/6j/c6jz2tfjq7rd6ogu5yxamgykgpshk6rn4e3clm3uyylvwqzpi5m4.py":32:37)
#loc12 = loc("/tmp/torchinductor_root/6j/c6jz2tfjq7rd6ogu5yxamgykgpshk6rn4e3clm3uyylvwqzpi5m4.py":32:46)
#loc13 = loc("/tmp/torchinductor_root/6j/c6jz2tfjq7rd6ogu5yxamgykgpshk6rn4e3clm3uyylvwqzpi5m4.py":32:42)
#loc14 = loc("/tmp/torchinductor_root/6j/c6jz2tfjq7rd6ogu5yxamgykgpshk6rn4e3clm3uyylvwqzpi5m4.py":32:57)
#loc15 = loc("/tmp/torchinductor_root/6j/c6jz2tfjq7rd6ogu5yxamgykgpshk6rn4e3clm3uyylvwqzpi5m4.py":32:51)
#loc16 = loc("/tmp/torchinductor_root/6j/c6jz2tfjq7rd6ogu5yxamgykgpshk6rn4e3clm3uyylvwqzpi5m4.py":32:30)
#loc17 = loc("/tmp/torchinductor_root/6j/c6jz2tfjq7rd6ogu5yxamgykgpshk6rn4e3clm3uyylvwqzpi5m4.py":32:63)
#loc18 = loc("/tmp/torchinductor_root/6j/c6jz2tfjq7rd6ogu5yxamgykgpshk6rn4e3clm3uyylvwqzpi5m4.py":32:83)
#loc19 = loc("/tmp/torchinductor_root/6j/c6jz2tfjq7rd6ogu5yxamgykgpshk6rn4e3clm3uyylvwqzpi5m4.py":33:19)
#loc20 = loc("/tmp/torchinductor_root/6j/c6jz2tfjq7rd6ogu5yxamgykgpshk6rn4e3clm3uyylvwqzpi5m4.py":36:66)
#loc21 = loc("/tmp/torchinductor_root/6j/c6jz2tfjq7rd6ogu5yxamgykgpshk6rn4e3clm3uyylvwqzpi5m4.py":36:57)
#loc22 = loc("/tmp/torchinductor_root/6j/c6jz2tfjq7rd6ogu5yxamgykgpshk6rn4e3clm3uyylvwqzpi5m4.py":36:51)
#loc23 = loc("/tmp/torchinductor_root/6j/c6jz2tfjq7rd6ogu5yxamgykgpshk6rn4e3clm3uyylvwqzpi5m4.py":36:30)
#loc24 = loc("/tmp/torchinductor_root/6j/c6jz2tfjq7rd6ogu5yxamgykgpshk6rn4e3clm3uyylvwqzpi5m4.py":36:72)
#loc25 = loc("/tmp/torchinductor_root/6j/c6jz2tfjq7rd6ogu5yxamgykgpshk6rn4e3clm3uyylvwqzpi5m4.py":36:92)
#loc26 = loc("/tmp/torchinductor_root/6j/c6jz2tfjq7rd6ogu5yxamgykgpshk6rn4e3clm3uyylvwqzpi5m4.py":37:33)
#loc27 = loc("/tmp/torchinductor_root/6j/c6jz2tfjq7rd6ogu5yxamgykgpshk6rn4e3clm3uyylvwqzpi5m4.py":38:25)
#loc28 = loc("/tmp/torchinductor_root/6j/c6jz2tfjq7rd6ogu5yxamgykgpshk6rn4e3clm3uyylvwqzpi5m4.py":38:37)
#loc29 = loc("/tmp/torchinductor_root/6j/c6jz2tfjq7rd6ogu5yxamgykgpshk6rn4e3clm3uyylvwqzpi5m4.py":38:4)
