#loc = loc("/tmp/torchinductor_root/eu/ceucrtf5ivdgfzo7n4dvz3cdtr6weam3t6puoirxlejz3mdo7zts.py":18:0)
module {
  tt.func public @triton_poi_fused_add_mul_15(%arg0: !tt.ptr<bf16> {tt.divisibility = 16 : i32} loc("/tmp/torchinductor_root/eu/ceucrtf5ivdgfzo7n4dvz3cdtr6weam3t6puoirxlejz3mdo7zts.py":18:0), %arg1: !tt.ptr<bf16> {tt.divisibility = 16 : i32} loc("/tmp/torchinductor_root/eu/ceucrtf5ivdgfzo7n4dvz3cdtr6weam3t6puoirxlejz3mdo7zts.py":18:0), %arg2: !tt.ptr<bf16> {tt.divisibility = 16 : i32} loc("/tmp/torchinductor_root/eu/ceucrtf5ivdgfzo7n4dvz3cdtr6weam3t6puoirxlejz3mdo7zts.py":18:0), %arg3: !tt.ptr<bf16> {tt.divisibility = 16 : i32} loc("/tmp/torchinductor_root/eu/ceucrtf5ivdgfzo7n4dvz3cdtr6weam3t6puoirxlejz3mdo7zts.py":18:0), %arg4: !tt.ptr<bf16> {tt.divisibility = 16 : i32} loc("/tmp/torchinductor_root/eu/ceucrtf5ivdgfzo7n4dvz3cdtr6weam3t6puoirxlejz3mdo7zts.py":18:0), %arg5: i32 {tt.divisibility = 16 : i32} loc("/tmp/torchinductor_root/eu/ceucrtf5ivdgfzo7n4dvz3cdtr6weam3t6puoirxlejz3mdo7zts.py":18:0)) attributes {noinline = false} {
    %cst = arith.constant dense<15360> : tensor<512xi32> loc(#loc1)
    %cst_0 = arith.constant dense<3072> : tensor<512xi32> loc(#loc1)
    %c512_i32 = arith.constant 512 : i32 loc(#loc1)
    %0 = tt.get_program_id x : i32 loc(#loc2)
    %1 = arith.muli %0, %c512_i32 : i32 loc(#loc3)
    %2 = tt.make_range {end = 512 : i32, start = 0 : i32} : tensor<512xi32> loc(#loc4)
    %3 = tt.splat %1 : i32 -> tensor<512xi32> loc(#loc5)
    %4 = arith.addi %3, %2 : tensor<512xi32> loc(#loc5)
    %5 = arith.remsi %4, %cst_0 : tensor<512xi32> loc(#loc6)
    %6 = tt.splat %arg0 : !tt.ptr<bf16> -> tensor<512x!tt.ptr<bf16>> loc(#loc7)
    %7 = tt.addptr %6, %4 : tensor<512x!tt.ptr<bf16>>, tensor<512xi32> loc(#loc7)
    %8 = tt.load %7 : tensor<512x!tt.ptr<bf16>> loc(#loc8)
    %9 = arith.extf %8 : tensor<512xbf16> to tensor<512xf32> loc(#loc9)
    %10 = arith.addi %5, %cst : tensor<512xi32> loc(#loc10)
    %11 = tt.splat %arg1 : !tt.ptr<bf16> -> tensor<512x!tt.ptr<bf16>> loc(#loc11)
    %12 = tt.addptr %11, %10 : tensor<512x!tt.ptr<bf16>>, tensor<512xi32> loc(#loc11)
    %13 = tt.load %12 evictionPolicy = evict_last : tensor<512x!tt.ptr<bf16>> loc(#loc12)
    %14 = arith.extf %13 : tensor<512xbf16> to tensor<512xf32> loc(#loc13)
    %15 = tt.splat %arg2 : !tt.ptr<bf16> -> tensor<512x!tt.ptr<bf16>> loc(#loc14)
    %16 = tt.addptr %15, %10 : tensor<512x!tt.ptr<bf16>>, tensor<512xi32> loc(#loc14)
    %17 = tt.load %16 evictionPolicy = evict_last : tensor<512x!tt.ptr<bf16>> loc(#loc15)
    %18 = arith.extf %17 : tensor<512xbf16> to tensor<512xf32> loc(#loc16)
    %19 = tt.splat %arg3 : !tt.ptr<bf16> -> tensor<512x!tt.ptr<bf16>> loc(#loc17)
    %20 = tt.addptr %19, %4 : tensor<512x!tt.ptr<bf16>>, tensor<512xi32> loc(#loc17)
    %21 = tt.load %20 : tensor<512x!tt.ptr<bf16>> loc(#loc18)
    %22 = arith.extf %21 : tensor<512xbf16> to tensor<512xf32> loc(#loc19)
    %23 = tt.splat %arg4 : !tt.ptr<bf16> -> tensor<512x!tt.ptr<bf16>> loc(#loc20)
    %24 = tt.addptr %23, %5 : tensor<512x!tt.ptr<bf16>>, tensor<512xi32> loc(#loc20)
    %25 = tt.load %24 evictionPolicy = evict_last : tensor<512x!tt.ptr<bf16>> loc(#loc21)
    %26 = arith.extf %25 : tensor<512xbf16> to tensor<512xf32> loc(#loc22)
    %27 = arith.addf %14, %18 : tensor<512xf32> loc(#loc23)
    %28 = arith.addf %22, %26 : tensor<512xf32> loc(#loc24)
    %29 = arith.mulf %27, %28 : tensor<512xf32> loc(#loc25)
    %30 = arith.addf %9, %29 : tensor<512xf32> loc(#loc26)
    %31 = arith.truncf %30 : tensor<512xf32> to tensor<512xbf16> loc(#loc27)
    tt.store %7, %31 : tensor<512x!tt.ptr<bf16>> loc(#loc27)
    tt.return loc(#loc28)
  } loc(#loc)
} loc(#loc)
#loc1 = loc(unknown)
#loc2 = loc("/tmp/torchinductor_root/eu/ceucrtf5ivdgfzo7n4dvz3cdtr6weam3t6puoirxlejz3mdo7zts.py":20:28)
#loc3 = loc("/tmp/torchinductor_root/eu/ceucrtf5ivdgfzo7n4dvz3cdtr6weam3t6puoirxlejz3mdo7zts.py":20:33)
#loc4 = loc("/tmp/torchinductor_root/eu/ceucrtf5ivdgfzo7n4dvz3cdtr6weam3t6puoirxlejz3mdo7zts.py":21:36)
#loc5 = loc("/tmp/torchinductor_root/eu/ceucrtf5ivdgfzo7n4dvz3cdtr6weam3t6puoirxlejz3mdo7zts.py":21:23)
#loc6 = loc("/tmp/torchinductor_root/eu/ceucrtf5ivdgfzo7n4dvz3cdtr6weam3t6puoirxlejz3mdo7zts.py":24:19)
#loc7 = loc("/tmp/torchinductor_root/eu/ceucrtf5ivdgfzo7n4dvz3cdtr6weam3t6puoirxlejz3mdo7zts.py":25:34)
#loc8 = loc("/tmp/torchinductor_root/eu/ceucrtf5ivdgfzo7n4dvz3cdtr6weam3t6puoirxlejz3mdo7zts.py":25:39)
#loc9 = loc("/tmp/torchinductor_root/eu/ceucrtf5ivdgfzo7n4dvz3cdtr6weam3t6puoirxlejz3mdo7zts.py":25:48)
#loc10 = loc("/tmp/torchinductor_root/eu/ceucrtf5ivdgfzo7n4dvz3cdtr6weam3t6puoirxlejz3mdo7zts.py":26:38)
#loc11 = loc("/tmp/torchinductor_root/eu/ceucrtf5ivdgfzo7n4dvz3cdtr6weam3t6puoirxlejz3mdo7zts.py":26:30)
#loc12 = loc("/tmp/torchinductor_root/eu/ceucrtf5ivdgfzo7n4dvz3cdtr6weam3t6puoirxlejz3mdo7zts.py":26:43)
#loc13 = loc("/tmp/torchinductor_root/eu/ceucrtf5ivdgfzo7n4dvz3cdtr6weam3t6puoirxlejz3mdo7zts.py":26:82)
#loc14 = loc("/tmp/torchinductor_root/eu/ceucrtf5ivdgfzo7n4dvz3cdtr6weam3t6puoirxlejz3mdo7zts.py":27:30)
#loc15 = loc("/tmp/torchinductor_root/eu/ceucrtf5ivdgfzo7n4dvz3cdtr6weam3t6puoirxlejz3mdo7zts.py":27:43)
#loc16 = loc("/tmp/torchinductor_root/eu/ceucrtf5ivdgfzo7n4dvz3cdtr6weam3t6puoirxlejz3mdo7zts.py":27:82)
#loc17 = loc("/tmp/torchinductor_root/eu/ceucrtf5ivdgfzo7n4dvz3cdtr6weam3t6puoirxlejz3mdo7zts.py":28:30)
#loc18 = loc("/tmp/torchinductor_root/eu/ceucrtf5ivdgfzo7n4dvz3cdtr6weam3t6puoirxlejz3mdo7zts.py":28:35)
#loc19 = loc("/tmp/torchinductor_root/eu/ceucrtf5ivdgfzo7n4dvz3cdtr6weam3t6puoirxlejz3mdo7zts.py":28:44)
#loc20 = loc("/tmp/torchinductor_root/eu/ceucrtf5ivdgfzo7n4dvz3cdtr6weam3t6puoirxlejz3mdo7zts.py":29:30)
#loc21 = loc("/tmp/torchinductor_root/eu/ceucrtf5ivdgfzo7n4dvz3cdtr6weam3t6puoirxlejz3mdo7zts.py":29:35)
#loc22 = loc("/tmp/torchinductor_root/eu/ceucrtf5ivdgfzo7n4dvz3cdtr6weam3t6puoirxlejz3mdo7zts.py":29:74)
#loc23 = loc("/tmp/torchinductor_root/eu/ceucrtf5ivdgfzo7n4dvz3cdtr6weam3t6puoirxlejz3mdo7zts.py":30:18)
#loc24 = loc("/tmp/torchinductor_root/eu/ceucrtf5ivdgfzo7n4dvz3cdtr6weam3t6puoirxlejz3mdo7zts.py":31:18)
#loc25 = loc("/tmp/torchinductor_root/eu/ceucrtf5ivdgfzo7n4dvz3cdtr6weam3t6puoirxlejz3mdo7zts.py":32:18)
#loc26 = loc("/tmp/torchinductor_root/eu/ceucrtf5ivdgfzo7n4dvz3cdtr6weam3t6puoirxlejz3mdo7zts.py":33:18)
#loc27 = loc("/tmp/torchinductor_root/eu/ceucrtf5ivdgfzo7n4dvz3cdtr6weam3t6puoirxlejz3mdo7zts.py":34:39)
#loc28 = loc("/tmp/torchinductor_root/eu/ceucrtf5ivdgfzo7n4dvz3cdtr6weam3t6puoirxlejz3mdo7zts.py":34:4)
