#loc = loc("/tmp/torchinductor_root/tu/ctukkjgi3ilus5xqhbuvomraszqcwuo43btmyeda555wzrbb4pe6.py":18:0)
#loc1 = loc(unknown)
#loc22 = loc("/tmp/torchinductor_root/tu/ctukkjgi3ilus5xqhbuvomraszqcwuo43btmyeda555wzrbb4pe6.py":44:25)
#loc32 = loc(callsite(#loc1 at #loc22))
module {
  tt.func public @triton_red_fused__to_copy_mean_pow_7(%arg0: !tt.ptr<bf16> {tt.divisibility = 16 : i32} loc("/tmp/torchinductor_root/tu/ctukkjgi3ilus5xqhbuvomraszqcwuo43btmyeda555wzrbb4pe6.py":18:0), %arg1: !tt.ptr<f32> {tt.divisibility = 16 : i32} loc("/tmp/torchinductor_root/tu/ctukkjgi3ilus5xqhbuvomraszqcwuo43btmyeda555wzrbb4pe6.py":18:0), %arg2: i32 {tt.divisibility = 16 : i32} loc("/tmp/torchinductor_root/tu/ctukkjgi3ilus5xqhbuvomraszqcwuo43btmyeda555wzrbb4pe6.py":18:0), %arg3: i32 {tt.divisibility = 16 : i32} loc("/tmp/torchinductor_root/tu/ctukkjgi3ilus5xqhbuvomraszqcwuo43btmyeda555wzrbb4pe6.py":18:0)) attributes {noinline = false} {
    %c9216_i32 = arith.constant 9216 : i32 loc(#loc1)
    %c128_i32 = arith.constant 128 : i32 loc(#loc1)
    %c24_i32 = arith.constant 24 : i32 loc(#loc1)
    %c86400_i32 = arith.constant 86400 : i32 loc(#loc1)
    %cst = arith.constant dense<0.000000e+00> : tensor<1x128xbf16> loc(#loc1)
    %cst_0 = arith.constant dense<3072> : tensor<1x128xi32> loc(#loc1)
    %cst_1 = arith.constant dense<128> : tensor<1x128xi32> loc(#loc1)
    %cst_2 = arith.constant dense<0.000000e+00> : tensor<1x128xf32> loc(#loc1)
    %0 = tt.get_program_id x : i32 loc(#loc2)
    %1 = arith.cmpi slt, %0, %c86400_i32 : i32 loc(#loc3)
    %2 = tt.splat %1 : i1 -> tensor<1x1xi1> loc(#loc3)
    %3 = tt.make_range {end = 128 : i32, start = 0 : i32} : tensor<128xi32> loc(#loc4)
    %4 = tt.expand_dims %3 {axis = 0 : i32} : tensor<128xi32> -> tensor<1x128xi32> loc(#loc5)
    %5 = arith.remsi %0, %c24_i32 : i32 loc(#loc6)
    %6 = arith.divsi %0, %c24_i32 : i32 loc(#loc7)
    %7 = arith.cmpi slt, %4, %cst_1 : tensor<1x128xi32> loc(#loc8)
    %8 = arith.addi %4, %cst_0 : tensor<1x128xi32> loc(#loc9)
    %9 = arith.muli %5, %c128_i32 : i32 loc(#loc10)
    %10 = tt.splat %9 : i32 -> tensor<1x128xi32> loc(#loc28)
    %11 = arith.addi %8, %10 : tensor<1x128xi32> loc(#loc11)
    %12 = arith.muli %6, %c9216_i32 : i32 loc(#loc12)
    %13 = tt.splat %12 : i32 -> tensor<1x128xi32> loc(#loc29)
    %14 = arith.addi %11, %13 : tensor<1x128xi32> loc(#loc13)
    %15 = tt.splat %arg0 : !tt.ptr<bf16> -> tensor<1x128x!tt.ptr<bf16>> loc(#loc14)
    %16 = tt.addptr %15, %14 : tensor<1x128x!tt.ptr<bf16>>, tensor<1x128xi32> loc(#loc14)
    %17 = tt.splat %1 : i1 -> tensor<1x128xi1> loc(#loc30)
    %18 = arith.andi %7, %17 : tensor<1x128xi1> loc(#loc15)
    %19 = tt.load %16, %18, %cst evictionPolicy = evict_first : tensor<1x128x!tt.ptr<bf16>> loc(#loc16)
    %20 = arith.extf %19 : tensor<1x128xbf16> to tensor<1x128xf32> loc(#loc17)
    %21 = arith.mulf %20, %20 : tensor<1x128xf32> loc(#loc18)
    %22 = arith.addf %21, %cst_2 : tensor<1x128xf32> loc(#loc19)
    %23 = arith.select %18, %22, %cst_2 : tensor<1x128xi1>, tensor<1x128xf32> loc(#loc20)
    %24 = "tt.reduce"(%23) <{axis = 1 : i32}> ({
    ^bb0(%arg4: f32 loc(callsite(#loc1 at #loc22)), %arg5: f32 loc(callsite(#loc1 at #loc22))):
      %28 = arith.addf %arg4, %arg5 : f32 loc(#loc34)
      tt.reduce.return %28 : f32 loc(#loc31)
    }) : (tensor<1x128xf32>) -> tensor<1xf32> loc(#loc31)
    %25 = tt.expand_dims %24 {axis = 1 : i32} : tensor<1xf32> -> tensor<1x1xf32> loc(#loc24)
    %26 = tt.addptr %arg1, %0 : !tt.ptr<f32>, i32 loc(#loc25)
    %27 = tt.splat %26 : !tt.ptr<f32> -> tensor<1x1x!tt.ptr<f32>> loc(#loc25)
    tt.store %27, %25, %2 : tensor<1x1x!tt.ptr<f32>> loc(#loc26)
    tt.return loc(#loc27)
  } loc(#loc)
} loc(#loc)
#loc2 = loc("/tmp/torchinductor_root/tu/ctukkjgi3ilus5xqhbuvomraszqcwuo43btmyeda555wzrbb4pe6.py":23:28)
#loc3 = loc("/tmp/torchinductor_root/tu/ctukkjgi3ilus5xqhbuvomraszqcwuo43btmyeda555wzrbb4pe6.py":25:21)
#loc4 = loc("/tmp/torchinductor_root/tu/ctukkjgi3ilus5xqhbuvomraszqcwuo43btmyeda555wzrbb4pe6.py":26:27)
#loc5 = loc("/tmp/torchinductor_root/tu/ctukkjgi3ilus5xqhbuvomraszqcwuo43btmyeda555wzrbb4pe6.py":26:37)
#loc6 = loc("/tmp/torchinductor_root/tu/ctukkjgi3ilus5xqhbuvomraszqcwuo43btmyeda555wzrbb4pe6.py":28:19)
#loc7 = loc("/tmp/torchinductor_root/tu/ctukkjgi3ilus5xqhbuvomraszqcwuo43btmyeda555wzrbb4pe6.py":29:19)
#loc8 = loc("/tmp/torchinductor_root/tu/ctukkjgi3ilus5xqhbuvomraszqcwuo43btmyeda555wzrbb4pe6.py":34:29)
#loc9 = loc("/tmp/torchinductor_root/tu/ctukkjgi3ilus5xqhbuvomraszqcwuo43btmyeda555wzrbb4pe6.py":38:41)
#loc10 = loc("/tmp/torchinductor_root/tu/ctukkjgi3ilus5xqhbuvomraszqcwuo43btmyeda555wzrbb4pe6.py":38:52)
#loc11 = loc("/tmp/torchinductor_root/tu/ctukkjgi3ilus5xqhbuvomraszqcwuo43btmyeda555wzrbb4pe6.py":38:48)
#loc12 = loc("/tmp/torchinductor_root/tu/ctukkjgi3ilus5xqhbuvomraszqcwuo43btmyeda555wzrbb4pe6.py":38:62)
#loc13 = loc("/tmp/torchinductor_root/tu/ctukkjgi3ilus5xqhbuvomraszqcwuo43btmyeda555wzrbb4pe6.py":38:57)
#loc14 = loc("/tmp/torchinductor_root/tu/ctukkjgi3ilus5xqhbuvomraszqcwuo43btmyeda555wzrbb4pe6.py":38:34)
#loc15 = loc("/tmp/torchinductor_root/tu/ctukkjgi3ilus5xqhbuvomraszqcwuo43btmyeda555wzrbb4pe6.py":38:77)
#loc16 = loc("/tmp/torchinductor_root/tu/ctukkjgi3ilus5xqhbuvomraszqcwuo43btmyeda555wzrbb4pe6.py":38:67)
#loc17 = loc("/tmp/torchinductor_root/tu/ctukkjgi3ilus5xqhbuvomraszqcwuo43btmyeda555wzrbb4pe6.py":38:129)
#loc18 = loc("/tmp/torchinductor_root/tu/ctukkjgi3ilus5xqhbuvomraszqcwuo43btmyeda555wzrbb4pe6.py":40:22)
#loc19 = loc("/tmp/torchinductor_root/tu/ctukkjgi3ilus5xqhbuvomraszqcwuo43btmyeda555wzrbb4pe6.py":42:23)
#loc20 = loc("/tmp/torchinductor_root/tu/ctukkjgi3ilus5xqhbuvomraszqcwuo43btmyeda555wzrbb4pe6.py":43:48)
#loc21 = loc("/usr/local/lib/python3.10/dist-packages/triton/language/standard.py":286:36)
#loc23 = loc("/usr/local/lib/python3.10/dist-packages/triton/language/standard.py":256:15)
#loc24 = loc("/tmp/torchinductor_root/tu/ctukkjgi3ilus5xqhbuvomraszqcwuo43btmyeda555wzrbb4pe6.py":44:28)
#loc25 = loc("/tmp/torchinductor_root/tu/ctukkjgi3ilus5xqhbuvomraszqcwuo43btmyeda555wzrbb4pe6.py":45:25)
#loc26 = loc("/tmp/torchinductor_root/tu/ctukkjgi3ilus5xqhbuvomraszqcwuo43btmyeda555wzrbb4pe6.py":45:36)
#loc27 = loc("/tmp/torchinductor_root/tu/ctukkjgi3ilus5xqhbuvomraszqcwuo43btmyeda555wzrbb4pe6.py":45:4)
#loc28 = loc(fused[#loc11, #loc10])
#loc29 = loc(fused[#loc13, #loc12])
#loc30 = loc(fused[#loc15, #loc3])
#loc31 = loc(callsite(#loc21 at #loc22))
#loc33 = loc(callsite(#loc23 at #loc21))
#loc34 = loc(callsite(#loc33 at #loc22))
