#loc = loc("/tmp/torchinductor_root/iq/ciqx4umnpxfbcu2l6rryhc34knavpax5uagm3mqzm7aatf72hatl.py":18:0)
#loc1 = loc(unknown)
#loc38 = loc("/tmp/torchinductor_root/iq/ciqx4umnpxfbcu2l6rryhc34knavpax5uagm3mqzm7aatf72hatl.py":43:38)
#loc41 = loc("/tmp/torchinductor_root/iq/ciqx4umnpxfbcu2l6rryhc34knavpax5uagm3mqzm7aatf72hatl.py":44:38)
#loc87 = loc(callsite(#loc1 at #loc38))
#loc93 = loc(callsite(#loc1 at #loc41))
module {
  tt.func public @triton_red_fused__to_copy_add_amax_amin_clamp_mul_reciprocal_9(%arg0: !tt.ptr<bf16> {tt.divisibility = 16 : i32} loc("/tmp/torchinductor_root/iq/ciqx4umnpxfbcu2l6rryhc34knavpax5uagm3mqzm7aatf72hatl.py":18:0), %arg1: !tt.ptr<bf16> {tt.divisibility = 16 : i32} loc("/tmp/torchinductor_root/iq/ciqx4umnpxfbcu2l6rryhc34knavpax5uagm3mqzm7aatf72hatl.py":18:0), %arg2: !tt.ptr<bf16> {tt.divisibility = 16 : i32} loc("/tmp/torchinductor_root/iq/ciqx4umnpxfbcu2l6rryhc34knavpax5uagm3mqzm7aatf72hatl.py":18:0), %arg3: !tt.ptr<i8> {tt.divisibility = 16 : i32} loc("/tmp/torchinductor_root/iq/ciqx4umnpxfbcu2l6rryhc34knavpax5uagm3mqzm7aatf72hatl.py":18:0), %arg4: i32 {tt.divisibility = 16 : i32} loc("/tmp/torchinductor_root/iq/ciqx4umnpxfbcu2l6rryhc34knavpax5uagm3mqzm7aatf72hatl.py":18:0), %arg5: i32 {tt.divisibility = 16 : i32} loc("/tmp/torchinductor_root/iq/ciqx4umnpxfbcu2l6rryhc34knavpax5uagm3mqzm7aatf72hatl.py":18:0)) attributes {noinline = false} {
    %cst = arith.constant dense<1.270000e+02> : tensor<64x4xf32> loc(#loc1)
    %cst_0 = arith.constant dense<-1.270000e+02> : tensor<64x4xf32> loc(#loc1)
    %cst_1 = arith.constant dense<9.99999974E-6> : tensor<64x1xf32> loc(#loc1)
    %cst_2 = arith.constant dense<1.000000e+00> : tensor<64x1xf32> loc(#loc1)
    %cst_3 = arith.constant dense<0.000000e+00> : tensor<64x4xbf16> loc(#loc1)
    %c4_i32 = arith.constant 4 : i32 loc(#loc1)
    %c3072_i32 = arith.constant 3072 : i32 loc(#loc1)
    %c0_i32 = arith.constant 0 : i32 loc(#loc1)
    %cst_4 = arith.constant dense<3072> : tensor<64x1xi32> loc(#loc1)
    %cst_5 = arith.constant dense<0.00787401571> : tensor<64x1xf32> loc(#loc1)
    %cst_6 = arith.constant dense<0.000000e+00> : tensor<64x1xf32> loc(#loc1)
    %cst_7 = arith.constant dense<526336> : tensor<1x4xi32> loc(#loc1)
    %cst_8 = arith.constant dense<128> : tensor<1x4xi32> loc(#loc1)
    %cst_9 = arith.constant dense<65536> : tensor<64x1xi32> loc(#loc1)
    %cst_10 = arith.constant dense<128> : tensor<64x1xi32> loc(#loc1)
    %cst_11 = arith.constant dense<3072> : tensor<1x4xi32> loc(#loc1)
    %cst_12 = arith.constant dense<0xFF800000> : tensor<64x4xf32> loc(#loc1)
    %cst_13 = arith.constant dense<0x7F800000> : tensor<64x4xf32> loc(#loc1)
    %cst_14 = arith.constant dense<3600> : tensor<64x1xi32> loc(#loc1)
    %c64_i32 = arith.constant 64 : i32 loc(#loc1)
    %0 = tt.get_program_id x : i32 loc(#loc2)
    %1 = arith.muli %0, %c64_i32 : i32 loc(#loc3)
    %2 = tt.make_range {end = 64 : i32, start = 0 : i32} : tensor<64xi32> loc(#loc4)
    %3 = tt.expand_dims %2 {axis = 1 : i32} : tensor<64xi32> -> tensor<64x1xi32> loc(#loc5)
    %4 = tt.splat %1 : i32 -> tensor<64x1xi32> loc(#loc6)
    %5 = arith.addi %4, %3 : tensor<64x1xi32> loc(#loc6)
    %6 = arith.cmpi slt, %5, %cst_14 : tensor<64x1xi32> loc(#loc7)
    %7 = tt.make_range {end = 4 : i32, start = 0 : i32} : tensor<4xi32> loc(#loc8)
    %8 = tt.expand_dims %7 {axis = 0 : i32} : tensor<4xi32> -> tensor<1x4xi32> loc(#loc9)
    %9:2 = scf.for %arg6 = %c0_i32 to %c3072_i32 step %c4_i32 iter_args(%arg7 = %cst_13, %arg8 = %cst_12) -> (tensor<64x4xf32>, tensor<64x4xf32>)  : i32 {
      %20 = tt.splat %arg6 : i32 -> tensor<1x4xi32> loc(#loc11)
      %21 = arith.addi %20, %8 : tensor<1x4xi32> loc(#loc11)
      %22 = arith.cmpi slt, %21, %cst_11 : tensor<1x4xi32> loc(#loc12)
      %23 = arith.muli %5, %cst_10 : tensor<64x1xi32> loc(#loc13)
      %24 = arith.addi %23, %cst_9 : tensor<64x1xi32> loc(#loc14)
      %25 = arith.divsi %21, %cst_8 : tensor<1x4xi32> loc(#loc15)
      %26 = arith.muli %25, %cst_7 : tensor<1x4xi32> loc(#loc16)
      %27 = tt.broadcast %24 : tensor<64x1xi32> -> tensor<64x4xi32> loc(#loc17)
      %28 = tt.broadcast %26 : tensor<1x4xi32> -> tensor<64x4xi32> loc(#loc17)
      %29 = arith.addi %27, %28 : tensor<64x4xi32> loc(#loc17)
      %30 = arith.remsi %21, %cst_8 : tensor<1x4xi32> loc(#loc18)
      %31 = tt.broadcast %30 : tensor<1x4xi32> -> tensor<64x4xi32> loc(#loc19)
      %32 = arith.addi %29, %31 : tensor<64x4xi32> loc(#loc19)
      %33 = tt.splat %arg0 : !tt.ptr<bf16> -> tensor<64x4x!tt.ptr<bf16>> loc(#loc20)
      %34 = tt.addptr %33, %32 : tensor<64x4x!tt.ptr<bf16>>, tensor<64x4xi32> loc(#loc20)
      %35 = tt.broadcast %6 : tensor<64x1xi1> -> tensor<64x4xi1> loc(#loc21)
      %36 = tt.broadcast %22 : tensor<1x4xi1> -> tensor<64x4xi1> loc(#loc21)
      %37 = arith.andi %35, %36 : tensor<64x4xi1> loc(#loc21)
      %38 = tt.load %34, %37, %cst_3 evictionPolicy = evict_last : tensor<64x4x!tt.ptr<bf16>> loc(#loc22)
      %39 = arith.extf %38 : tensor<64x4xbf16> to tensor<64x4xf32> loc(#loc23)
      %40 = arith.cmpf olt, %arg7, %39 : tensor<64x4xf32> loc(#loc78)
      %41 = arith.cmpf une, %arg7, %arg7 : tensor<64x4xf32> loc(#loc79)
      %42 = arith.ori %40, %41 : tensor<64x4xi1> loc(#loc80)
      %43 = arith.select %42, %arg7, %39 : tensor<64x4xi1>, tensor<64x4xf32> loc(#loc81)
      %44 = arith.select %37, %43, %arg7 : tensor<64x4xi1>, tensor<64x4xf32> loc(#loc29)
      %45 = arith.cmpf ogt, %arg8, %39 : tensor<64x4xf32> loc(#loc82)
      %46 = arith.cmpf une, %arg8, %arg8 : tensor<64x4xf32> loc(#loc83)
      %47 = arith.ori %45, %46 : tensor<64x4xi1> loc(#loc84)
      %48 = arith.select %47, %arg8, %39 : tensor<64x4xi1>, tensor<64x4xf32> loc(#loc85)
      %49 = arith.select %37, %48, %arg8 : tensor<64x4xi1>, tensor<64x4xf32> loc(#loc35)
      scf.yield %44, %49 : tensor<64x4xf32>, tensor<64x4xf32> loc(#loc36)
    } loc(#loc10)
    %10 = "tt.reduce"(%9#0) <{axis = 1 : i32}> ({
    ^bb0(%arg6: f32 loc(callsite(#loc1 at #loc38)), %arg7: f32 loc(callsite(#loc1 at #loc38))):
      %20 = arith.cmpf olt, %arg6, %arg7 : f32 loc(#loc122)
      %21 = arith.cmpf une, %arg6, %arg6 : f32 loc(#loc123)
      %22 = arith.ori %20, %21 : i1 loc(#loc124)
      %23 = arith.select %22, %arg6, %arg7 : f32 loc(#loc125)
      tt.reduce.return %23 : f32 loc(#loc86)
    }) : (tensor<64x4xf32>) -> tensor<64xf32> loc(#loc86)
    %11 = tt.expand_dims %10 {axis = 1 : i32} : tensor<64xf32> -> tensor<64x1xf32> loc(#loc39)
    %12 = "tt.reduce"(%9#1) <{axis = 1 : i32}> ({
    ^bb0(%arg6: f32 loc(callsite(#loc1 at #loc41)), %arg7: f32 loc(callsite(#loc1 at #loc41))):
      %20 = arith.cmpf ogt, %arg6, %arg7 : f32 loc(#loc126)
      %21 = arith.cmpf une, %arg6, %arg6 : f32 loc(#loc127)
      %22 = arith.ori %20, %21 : i1 loc(#loc128)
      %23 = arith.select %22, %arg6, %arg7 : f32 loc(#loc129)
      tt.reduce.return %23 : f32 loc(#loc92)
    }) : (tensor<64x4xf32>) -> tensor<64xf32> loc(#loc92)
    %13 = tt.expand_dims %12 {axis = 1 : i32} : tensor<64xf32> -> tensor<64x1xf32> loc(#loc42)
    %14 = tt.splat %arg1 : !tt.ptr<bf16> -> tensor<64x1x!tt.ptr<bf16>> loc(#loc43)
    %15 = tt.addptr %14, %5 : tensor<64x1x!tt.ptr<bf16>>, tensor<64x1xi32> loc(#loc43)
    %16 = arith.truncf %11 : tensor<64x1xf32> to tensor<64x1xbf16> loc(#loc44)
    tt.store %15, %16, %6 : tensor<64x1x!tt.ptr<bf16>> loc(#loc44)
    %17 = tt.splat %arg2 : !tt.ptr<bf16> -> tensor<64x1x!tt.ptr<bf16>> loc(#loc45)
    %18 = tt.addptr %17, %5 : tensor<64x1x!tt.ptr<bf16>>, tensor<64x1xi32> loc(#loc45)
    %19 = arith.truncf %13 : tensor<64x1xf32> to tensor<64x1xbf16> loc(#loc46)
    tt.store %18, %19, %6 : tensor<64x1x!tt.ptr<bf16>> loc(#loc46)
    scf.for %arg6 = %c0_i32 to %c3072_i32 step %c4_i32  : i32 {
      %20 = tt.splat %arg6 : i32 -> tensor<1x4xi32> loc(#loc48)
      %21 = arith.addi %20, %8 : tensor<1x4xi32> loc(#loc48)
      %22 = arith.cmpi slt, %21, %cst_11 : tensor<1x4xi32> loc(#loc49)
      %23 = arith.muli %5, %cst_10 : tensor<64x1xi32> loc(#loc50)
      %24 = arith.addi %23, %cst_9 : tensor<64x1xi32> loc(#loc51)
      %25 = arith.divsi %21, %cst_8 : tensor<1x4xi32> loc(#loc52)
      %26 = arith.muli %25, %cst_7 : tensor<1x4xi32> loc(#loc53)
      %27 = tt.broadcast %24 : tensor<64x1xi32> -> tensor<64x4xi32> loc(#loc54)
      %28 = tt.broadcast %26 : tensor<1x4xi32> -> tensor<64x4xi32> loc(#loc54)
      %29 = arith.addi %27, %28 : tensor<64x4xi32> loc(#loc54)
      %30 = arith.remsi %21, %cst_8 : tensor<1x4xi32> loc(#loc55)
      %31 = tt.broadcast %30 : tensor<1x4xi32> -> tensor<64x4xi32> loc(#loc56)
      %32 = arith.addi %29, %31 : tensor<64x4xi32> loc(#loc56)
      %33 = tt.splat %arg0 : !tt.ptr<bf16> -> tensor<64x4x!tt.ptr<bf16>> loc(#loc57)
      %34 = tt.addptr %33, %32 : tensor<64x4x!tt.ptr<bf16>>, tensor<64x4xi32> loc(#loc57)
      %35 = tt.broadcast %6 : tensor<64x1xi1> -> tensor<64x4xi1> loc(#loc58)
      %36 = tt.broadcast %22 : tensor<1x4xi1> -> tensor<64x4xi1> loc(#loc58)
      %37 = arith.andi %35, %36 : tensor<64x4xi1> loc(#loc58)
      %38 = tt.load %34, %37, %cst_3 evictionPolicy = evict_first : tensor<64x4x!tt.ptr<bf16>> loc(#loc59)
      %39 = arith.extf %38 : tensor<64x4xbf16> to tensor<64x4xf32> loc(#loc60)
      %40 = arith.cmpf olt, %11, %cst_6 : tensor<64x1xf32> loc(#loc98)
      %41 = arith.cmpf une, %11, %11 : tensor<64x1xf32> loc(#loc99)
      %42 = arith.ori %40, %41 : tensor<64x1xi1> loc(#loc100)
      %43 = arith.select %42, %11, %cst_6 : tensor<64x1xi1>, tensor<64x1xf32> loc(#loc101)
      %44 = arith.subf %cst_6, %43 : tensor<64x1xf32> loc(#loc62)
      %45 = arith.cmpf ogt, %13, %cst_6 : tensor<64x1xf32> loc(#loc102)
      %46 = arith.cmpf une, %13, %13 : tensor<64x1xf32> loc(#loc103)
      %47 = arith.ori %45, %46 : tensor<64x1xi1> loc(#loc104)
      %48 = arith.select %47, %13, %cst_6 : tensor<64x1xi1>, tensor<64x1xf32> loc(#loc105)
      %49 = arith.cmpf ogt, %44, %48 : tensor<64x1xf32> loc(#loc106)
      %50 = arith.cmpf une, %44, %44 : tensor<64x1xf32> loc(#loc107)
      %51 = arith.ori %49, %50 : tensor<64x1xi1> loc(#loc108)
      %52 = arith.select %51, %44, %48 : tensor<64x1xi1>, tensor<64x1xf32> loc(#loc109)
      %53 = arith.mulf %52, %cst_5 : tensor<64x1xf32> loc(#loc65)
      %54 = arith.cmpf ogt, %53, %cst_1 : tensor<64x1xf32> loc(#loc110)
      %55 = arith.cmpf une, %53, %53 : tensor<64x1xf32> loc(#loc111)
      %56 = arith.ori %54, %55 : tensor<64x1xi1> loc(#loc112)
      %57 = arith.select %56, %53, %cst_1 : tensor<64x1xi1>, tensor<64x1xf32> loc(#loc113)
      %58 = arith.divf %cst_2, %57 : tensor<64x1xf32> loc(#loc67)
      %59 = tt.broadcast %58 : tensor<64x1xf32> -> tensor<64x4xf32> loc(#loc68)
      %60 = arith.mulf %39, %59 : tensor<64x4xf32> loc(#loc68)
      %61 = tt.extern_elementwise %60 {libname = "", libpath = "", pure = true, symbol = "__nv_nearbyintf"} : (tensor<64x4xf32>) -> tensor<64x4xf32> loc(#loc69)
      %62 = arith.cmpf ogt, %61, %cst_0 : tensor<64x4xf32> loc(#loc114)
      %63 = arith.cmpf une, %61, %61 : tensor<64x4xf32> loc(#loc115)
      %64 = arith.ori %62, %63 : tensor<64x4xi1> loc(#loc116)
      %65 = arith.select %64, %61, %cst_0 : tensor<64x4xi1>, tensor<64x4xf32> loc(#loc117)
      %66 = arith.cmpf olt, %65, %cst : tensor<64x4xf32> loc(#loc118)
      %67 = arith.cmpf une, %65, %65 : tensor<64x4xf32> loc(#loc119)
      %68 = arith.ori %66, %67 : tensor<64x4xi1> loc(#loc120)
      %69 = arith.select %68, %65, %cst : tensor<64x4xi1>, tensor<64x4xf32> loc(#loc121)
      %70 = arith.fptosi %69 : tensor<64x4xf32> to tensor<64x4xi8> loc(#loc72)
      %71 = arith.muli %5, %cst_4 : tensor<64x1xi32> loc(#loc73)
      %72 = tt.broadcast %21 : tensor<1x4xi32> -> tensor<64x4xi32> loc(#loc74)
      %73 = tt.broadcast %71 : tensor<64x1xi32> -> tensor<64x4xi32> loc(#loc74)
      %74 = arith.addi %72, %73 : tensor<64x4xi32> loc(#loc74)
      %75 = tt.splat %arg3 : !tt.ptr<i8> -> tensor<64x4x!tt.ptr<i8>> loc(#loc75)
      %76 = tt.addptr %75, %74 : tensor<64x4x!tt.ptr<i8>>, tensor<64x4xi32> loc(#loc75)
      tt.store %76, %70, %37 : tensor<64x4x!tt.ptr<i8>> loc(#loc76)
    } loc(#loc47)
    tt.return loc(#loc77)
  } loc(#loc)
} loc(#loc)
#loc2 = loc("/tmp/torchinductor_root/iq/ciqx4umnpxfbcu2l6rryhc34knavpax5uagm3mqzm7aatf72hatl.py":23:28)
#loc3 = loc("/tmp/torchinductor_root/iq/ciqx4umnpxfbcu2l6rryhc34knavpax5uagm3mqzm7aatf72hatl.py":23:33)
#loc4 = loc("/tmp/torchinductor_root/iq/ciqx4umnpxfbcu2l6rryhc34knavpax5uagm3mqzm7aatf72hatl.py":24:36)
#loc5 = loc("/tmp/torchinductor_root/iq/ciqx4umnpxfbcu2l6rryhc34knavpax5uagm3mqzm7aatf72hatl.py":24:44)
#loc6 = loc("/tmp/torchinductor_root/iq/ciqx4umnpxfbcu2l6rryhc34knavpax5uagm3mqzm7aatf72hatl.py":24:23)
#loc7 = loc("/tmp/torchinductor_root/iq/ciqx4umnpxfbcu2l6rryhc34knavpax5uagm3mqzm7aatf72hatl.py":25:21)
#loc8 = loc("/tmp/torchinductor_root/iq/ciqx4umnpxfbcu2l6rryhc34knavpax5uagm3mqzm7aatf72hatl.py":26:27)
#loc9 = loc("/tmp/torchinductor_root/iq/ciqx4umnpxfbcu2l6rryhc34knavpax5uagm3mqzm7aatf72hatl.py":26:37)
#loc10 = loc("/tmp/torchinductor_root/iq/ciqx4umnpxfbcu2l6rryhc34knavpax5uagm3mqzm7aatf72hatl.py":31:40)
#loc11 = loc("/tmp/torchinductor_root/iq/ciqx4umnpxfbcu2l6rryhc34knavpax5uagm3mqzm7aatf72hatl.py":32:31)
#loc12 = loc("/tmp/torchinductor_root/iq/ciqx4umnpxfbcu2l6rryhc34knavpax5uagm3mqzm7aatf72hatl.py":33:29)
#loc13 = loc("/tmp/torchinductor_root/iq/ciqx4umnpxfbcu2l6rryhc34knavpax5uagm3mqzm7aatf72hatl.py":37:46)
#loc14 = loc("/tmp/torchinductor_root/iq/ciqx4umnpxfbcu2l6rryhc34knavpax5uagm3mqzm7aatf72hatl.py":37:42)
#loc15 = loc("/tmp/torchinductor_root/iq/ciqx4umnpxfbcu2l6rryhc34knavpax5uagm3mqzm7aatf72hatl.py":37:67)
#loc16 = loc("/tmp/torchinductor_root/iq/ciqx4umnpxfbcu2l6rryhc34knavpax5uagm3mqzm7aatf72hatl.py":37:59)
#loc17 = loc("/tmp/torchinductor_root/iq/ciqx4umnpxfbcu2l6rryhc34knavpax5uagm3mqzm7aatf72hatl.py":37:51)
#loc18 = loc("/tmp/torchinductor_root/iq/ciqx4umnpxfbcu2l6rryhc34knavpax5uagm3mqzm7aatf72hatl.py":37:83)
#loc19 = loc("/tmp/torchinductor_root/iq/ciqx4umnpxfbcu2l6rryhc34knavpax5uagm3mqzm7aatf72hatl.py":37:76)
#loc20 = loc("/tmp/torchinductor_root/iq/ciqx4umnpxfbcu2l6rryhc34knavpax5uagm3mqzm7aatf72hatl.py":37:34)
#loc21 = loc("/tmp/torchinductor_root/iq/ciqx4umnpxfbcu2l6rryhc34knavpax5uagm3mqzm7aatf72hatl.py":37:99)
#loc22 = loc("/tmp/torchinductor_root/iq/ciqx4umnpxfbcu2l6rryhc34knavpax5uagm3mqzm7aatf72hatl.py":37:91)
#loc23 = loc("/tmp/torchinductor_root/iq/ciqx4umnpxfbcu2l6rryhc34knavpax5uagm3mqzm7aatf72hatl.py":37:152)
#loc24 = loc("/usr/local/lib/python3.10/dist-packages/torch/_inductor/runtime/triton_helpers.py":94:15)
#loc25 = loc("/tmp/torchinductor_root/iq/ciqx4umnpxfbcu2l6rryhc34knavpax5uagm3mqzm7aatf72hatl.py":39:45)
#loc26 = loc("/usr/local/lib/python3.10/dist-packages/torch/_inductor/runtime/triton_helpers.py":96:21)
#loc27 = loc("/usr/local/lib/python3.10/dist-packages/torch/_inductor/runtime/triton_helpers.py":96:16)
#loc28 = loc("/usr/local/lib/python3.10/dist-packages/torch/_inductor/runtime/triton_helpers.py":97:29)
#loc29 = loc("/tmp/torchinductor_root/iq/ciqx4umnpxfbcu2l6rryhc34knavpax5uagm3mqzm7aatf72hatl.py":40:48)
#loc30 = loc("/usr/local/lib/python3.10/dist-packages/torch/_inductor/runtime/triton_helpers.py":102:15)
#loc31 = loc("/tmp/torchinductor_root/iq/ciqx4umnpxfbcu2l6rryhc34knavpax5uagm3mqzm7aatf72hatl.py":41:45)
#loc32 = loc("/usr/local/lib/python3.10/dist-packages/torch/_inductor/runtime/triton_helpers.py":104:21)
#loc33 = loc("/usr/local/lib/python3.10/dist-packages/torch/_inductor/runtime/triton_helpers.py":104:16)
#loc34 = loc("/usr/local/lib/python3.10/dist-packages/torch/_inductor/runtime/triton_helpers.py":105:29)
#loc35 = loc("/tmp/torchinductor_root/iq/ciqx4umnpxfbcu2l6rryhc34knavpax5uagm3mqzm7aatf72hatl.py":42:48)
#loc36 = loc("/tmp/torchinductor_root/iq/ciqx4umnpxfbcu2l6rryhc34knavpax5uagm3mqzm7aatf72hatl.py":42:8)
#loc37 = loc("/usr/local/lib/python3.10/dist-packages/torch/_inductor/runtime/triton_helpers.py":110:29)
#loc39 = loc("/tmp/torchinductor_root/iq/ciqx4umnpxfbcu2l6rryhc34knavpax5uagm3mqzm7aatf72hatl.py":43:41)
#loc40 = loc("/usr/local/lib/python3.10/dist-packages/torch/_inductor/runtime/triton_helpers.py":115:29)
#loc42 = loc("/tmp/torchinductor_root/iq/ciqx4umnpxfbcu2l6rryhc34knavpax5uagm3mqzm7aatf72hatl.py":44:41)
#loc43 = loc("/tmp/torchinductor_root/iq/ciqx4umnpxfbcu2l6rryhc34knavpax5uagm3mqzm7aatf72hatl.py":45:25)
#loc44 = loc("/tmp/torchinductor_root/iq/ciqx4umnpxfbcu2l6rryhc34knavpax5uagm3mqzm7aatf72hatl.py":45:36)
#loc45 = loc("/tmp/torchinductor_root/iq/ciqx4umnpxfbcu2l6rryhc34knavpax5uagm3mqzm7aatf72hatl.py":46:25)
#loc46 = loc("/tmp/torchinductor_root/iq/ciqx4umnpxfbcu2l6rryhc34knavpax5uagm3mqzm7aatf72hatl.py":46:36)
#loc47 = loc("/tmp/torchinductor_root/iq/ciqx4umnpxfbcu2l6rryhc34knavpax5uagm3mqzm7aatf72hatl.py":47:40)
#loc48 = loc("/tmp/torchinductor_root/iq/ciqx4umnpxfbcu2l6rryhc34knavpax5uagm3mqzm7aatf72hatl.py":48:31)
#loc49 = loc("/tmp/torchinductor_root/iq/ciqx4umnpxfbcu2l6rryhc34knavpax5uagm3mqzm7aatf72hatl.py":49:29)
#loc50 = loc("/tmp/torchinductor_root/iq/ciqx4umnpxfbcu2l6rryhc34knavpax5uagm3mqzm7aatf72hatl.py":53:46)
#loc51 = loc("/tmp/torchinductor_root/iq/ciqx4umnpxfbcu2l6rryhc34knavpax5uagm3mqzm7aatf72hatl.py":53:42)
#loc52 = loc("/tmp/torchinductor_root/iq/ciqx4umnpxfbcu2l6rryhc34knavpax5uagm3mqzm7aatf72hatl.py":53:67)
#loc53 = loc("/tmp/torchinductor_root/iq/ciqx4umnpxfbcu2l6rryhc34knavpax5uagm3mqzm7aatf72hatl.py":53:59)
#loc54 = loc("/tmp/torchinductor_root/iq/ciqx4umnpxfbcu2l6rryhc34knavpax5uagm3mqzm7aatf72hatl.py":53:51)
#loc55 = loc("/tmp/torchinductor_root/iq/ciqx4umnpxfbcu2l6rryhc34knavpax5uagm3mqzm7aatf72hatl.py":53:83)
#loc56 = loc("/tmp/torchinductor_root/iq/ciqx4umnpxfbcu2l6rryhc34knavpax5uagm3mqzm7aatf72hatl.py":53:76)
#loc57 = loc("/tmp/torchinductor_root/iq/ciqx4umnpxfbcu2l6rryhc34knavpax5uagm3mqzm7aatf72hatl.py":53:34)
#loc58 = loc("/tmp/torchinductor_root/iq/ciqx4umnpxfbcu2l6rryhc34knavpax5uagm3mqzm7aatf72hatl.py":53:99)
#loc59 = loc("/tmp/torchinductor_root/iq/ciqx4umnpxfbcu2l6rryhc34knavpax5uagm3mqzm7aatf72hatl.py":53:91)
#loc60 = loc("/tmp/torchinductor_root/iq/ciqx4umnpxfbcu2l6rryhc34knavpax5uagm3mqzm7aatf72hatl.py":53:153)
#loc61 = loc("/tmp/torchinductor_root/iq/ciqx4umnpxfbcu2l6rryhc34knavpax5uagm3mqzm7aatf72hatl.py":55:44)
#loc62 = loc("/tmp/torchinductor_root/iq/ciqx4umnpxfbcu2l6rryhc34knavpax5uagm3mqzm7aatf72hatl.py":56:16)
#loc63 = loc("/tmp/torchinductor_root/iq/ciqx4umnpxfbcu2l6rryhc34knavpax5uagm3mqzm7aatf72hatl.py":57:45)
#loc64 = loc("/tmp/torchinductor_root/iq/ciqx4umnpxfbcu2l6rryhc34knavpax5uagm3mqzm7aatf72hatl.py":58:45)
#loc65 = loc("/tmp/torchinductor_root/iq/ciqx4umnpxfbcu2l6rryhc34knavpax5uagm3mqzm7aatf72hatl.py":60:24)
#loc66 = loc("/tmp/torchinductor_root/iq/ciqx4umnpxfbcu2l6rryhc34knavpax5uagm3mqzm7aatf72hatl.py":63:46)
#loc67 = loc("/tmp/torchinductor_root/iq/ciqx4umnpxfbcu2l6rryhc34knavpax5uagm3mqzm7aatf72hatl.py":66:25)
#loc68 = loc("/tmp/torchinductor_root/iq/ciqx4umnpxfbcu2l6rryhc34knavpax5uagm3mqzm7aatf72hatl.py":69:23)
#loc69 = loc("/tmp/torchinductor_root/iq/ciqx4umnpxfbcu2l6rryhc34knavpax5uagm3mqzm7aatf72hatl.py":70:36)
#loc70 = loc("/tmp/torchinductor_root/iq/ciqx4umnpxfbcu2l6rryhc34knavpax5uagm3mqzm7aatf72hatl.py":73:46)
#loc71 = loc("/tmp/torchinductor_root/iq/ciqx4umnpxfbcu2l6rryhc34knavpax5uagm3mqzm7aatf72hatl.py":75:46)
#loc72 = loc("/tmp/torchinductor_root/iq/ciqx4umnpxfbcu2l6rryhc34knavpax5uagm3mqzm7aatf72hatl.py":77:25)
#loc73 = loc("/tmp/torchinductor_root/iq/ciqx4umnpxfbcu2l6rryhc34knavpax5uagm3mqzm7aatf72hatl.py":78:41)
#loc74 = loc("/tmp/torchinductor_root/iq/ciqx4umnpxfbcu2l6rryhc34knavpax5uagm3mqzm7aatf72hatl.py":78:36)
#loc75 = loc("/tmp/torchinductor_root/iq/ciqx4umnpxfbcu2l6rryhc34knavpax5uagm3mqzm7aatf72hatl.py":78:29)
#loc76 = loc("/tmp/torchinductor_root/iq/ciqx4umnpxfbcu2l6rryhc34knavpax5uagm3mqzm7aatf72hatl.py":78:53)
#loc77 = loc("/tmp/torchinductor_root/iq/ciqx4umnpxfbcu2l6rryhc34knavpax5uagm3mqzm7aatf72hatl.py":47:4)
#loc78 = loc(callsite(#loc24 at #loc25))
#loc79 = loc(callsite(#loc26 at #loc25))
#loc80 = loc(callsite(#loc27 at #loc25))
#loc81 = loc(callsite(#loc28 at #loc25))
#loc82 = loc(callsite(#loc30 at #loc31))
#loc83 = loc(callsite(#loc32 at #loc31))
#loc84 = loc(callsite(#loc33 at #loc31))
#loc85 = loc(callsite(#loc34 at #loc31))
#loc86 = loc(callsite(#loc37 at #loc38))
#loc88 = loc(callsite(#loc24 at #loc37))
#loc89 = loc(callsite(#loc26 at #loc37))
#loc90 = loc(callsite(#loc27 at #loc37))
#loc91 = loc(callsite(#loc28 at #loc37))
#loc92 = loc(callsite(#loc40 at #loc41))
#loc94 = loc(callsite(#loc30 at #loc40))
#loc95 = loc(callsite(#loc32 at #loc40))
#loc96 = loc(callsite(#loc33 at #loc40))
#loc97 = loc(callsite(#loc34 at #loc40))
#loc98 = loc(callsite(#loc24 at #loc61))
#loc99 = loc(callsite(#loc26 at #loc61))
#loc100 = loc(callsite(#loc27 at #loc61))
#loc101 = loc(callsite(#loc28 at #loc61))
#loc102 = loc(callsite(#loc30 at #loc63))
#loc103 = loc(callsite(#loc32 at #loc63))
#loc104 = loc(callsite(#loc33 at #loc63))
#loc105 = loc(callsite(#loc34 at #loc63))
#loc106 = loc(callsite(#loc30 at #loc64))
#loc107 = loc(callsite(#loc32 at #loc64))
#loc108 = loc(callsite(#loc33 at #loc64))
#loc109 = loc(callsite(#loc34 at #loc64))
#loc110 = loc(callsite(#loc30 at #loc66))
#loc111 = loc(callsite(#loc32 at #loc66))
#loc112 = loc(callsite(#loc33 at #loc66))
#loc113 = loc(callsite(#loc34 at #loc66))
#loc114 = loc(callsite(#loc30 at #loc70))
#loc115 = loc(callsite(#loc32 at #loc70))
#loc116 = loc(callsite(#loc33 at #loc70))
#loc117 = loc(callsite(#loc34 at #loc70))
#loc118 = loc(callsite(#loc24 at #loc71))
#loc119 = loc(callsite(#loc26 at #loc71))
#loc120 = loc(callsite(#loc27 at #loc71))
#loc121 = loc(callsite(#loc28 at #loc71))
#loc122 = loc(callsite(#loc88 at #loc38))
#loc123 = loc(callsite(#loc89 at #loc38))
#loc124 = loc(callsite(#loc90 at #loc38))
#loc125 = loc(callsite(#loc91 at #loc38))
#loc126 = loc(callsite(#loc94 at #loc41))
#loc127 = loc(callsite(#loc95 at #loc41))
#loc128 = loc(callsite(#loc96 at #loc41))
#loc129 = loc(callsite(#loc97 at #loc41))
