#loc = loc("/tmp/torchinductor_root/ts/ctsirzfzzd3q6hzmst3ijql2wxprbyku6agjaau5y4tork4ec7an.py":18:0)
#loc1 = loc(unknown)
#loc35 = loc("/tmp/torchinductor_root/ts/ctsirzfzzd3q6hzmst3ijql2wxprbyku6agjaau5y4tork4ec7an.py":47:79)
#loc96 = loc("/tmp/torchinductor_root/ts/ctsirzfzzd3q6hzmst3ijql2wxprbyku6agjaau5y4tork4ec7an.py":87:40)
#loc99 = loc("/tmp/torchinductor_root/ts/ctsirzfzzd3q6hzmst3ijql2wxprbyku6agjaau5y4tork4ec7an.py":88:40)
#loc157 = loc(callsite(#loc1 at #loc35))
#loc179 = loc(callsite(#loc1 at #loc96))
#loc185 = loc(callsite(#loc1 at #loc99))
module {
  tt.func public @triton_red_fused__to_copy_add_amax_amin_clamp_mul_native_layer_norm_reciprocal_1(%arg0: !tt.ptr<bf16> {tt.divisibility = 16 : i32} loc("/tmp/torchinductor_root/ts/ctsirzfzzd3q6hzmst3ijql2wxprbyku6agjaau5y4tork4ec7an.py":18:0), %arg1: !tt.ptr<f32> {tt.divisibility = 16 : i32} loc("/tmp/torchinductor_root/ts/ctsirzfzzd3q6hzmst3ijql2wxprbyku6agjaau5y4tork4ec7an.py":18:0), %arg2: !tt.ptr<bf16> {tt.divisibility = 16 : i32} loc("/tmp/torchinductor_root/ts/ctsirzfzzd3q6hzmst3ijql2wxprbyku6agjaau5y4tork4ec7an.py":18:0), %arg3: !tt.ptr<bf16> {tt.divisibility = 16 : i32} loc("/tmp/torchinductor_root/ts/ctsirzfzzd3q6hzmst3ijql2wxprbyku6agjaau5y4tork4ec7an.py":18:0), %arg4: !tt.ptr<bf16> {tt.divisibility = 16 : i32} loc("/tmp/torchinductor_root/ts/ctsirzfzzd3q6hzmst3ijql2wxprbyku6agjaau5y4tork4ec7an.py":18:0), %arg5: !tt.ptr<bf16> {tt.divisibility = 16 : i32} loc("/tmp/torchinductor_root/ts/ctsirzfzzd3q6hzmst3ijql2wxprbyku6agjaau5y4tork4ec7an.py":18:0), %arg6: !tt.ptr<bf16> {tt.divisibility = 16 : i32} loc("/tmp/torchinductor_root/ts/ctsirzfzzd3q6hzmst3ijql2wxprbyku6agjaau5y4tork4ec7an.py":18:0), %arg7: !tt.ptr<bf16> {tt.divisibility = 16 : i32} loc("/tmp/torchinductor_root/ts/ctsirzfzzd3q6hzmst3ijql2wxprbyku6agjaau5y4tork4ec7an.py":18:0), %arg8: !tt.ptr<bf16> {tt.divisibility = 16 : i32} loc("/tmp/torchinductor_root/ts/ctsirzfzzd3q6hzmst3ijql2wxprbyku6agjaau5y4tork4ec7an.py":18:0), %arg9: !tt.ptr<bf16> {tt.divisibility = 16 : i32} loc("/tmp/torchinductor_root/ts/ctsirzfzzd3q6hzmst3ijql2wxprbyku6agjaau5y4tork4ec7an.py":18:0), %arg10: !tt.ptr<bf16> {tt.divisibility = 16 : i32} loc("/tmp/torchinductor_root/ts/ctsirzfzzd3q6hzmst3ijql2wxprbyku6agjaau5y4tork4ec7an.py":18:0), %arg11: !tt.ptr<bf16> {tt.divisibility = 16 : i32} loc("/tmp/torchinductor_root/ts/ctsirzfzzd3q6hzmst3ijql2wxprbyku6agjaau5y4tork4ec7an.py":18:0), %arg12: !tt.ptr<i8> {tt.divisibility = 16 : i32} loc("/tmp/torchinductor_root/ts/ctsirzfzzd3q6hzmst3ijql2wxprbyku6agjaau5y4tork4ec7an.py":18:0), %arg13: !tt.ptr<i8> {tt.divisibility = 16 : i32} loc("/tmp/torchinductor_root/ts/ctsirzfzzd3q6hzmst3ijql2wxprbyku6agjaau5y4tork4ec7an.py":18:0), %arg14: !tt.ptr<i8> {tt.divisibility = 16 : i32} loc("/tmp/torchinductor_root/ts/ctsirzfzzd3q6hzmst3ijql2wxprbyku6agjaau5y4tork4ec7an.py":18:0), %arg15: !tt.ptr<i8> {tt.divisibility = 16 : i32} loc("/tmp/torchinductor_root/ts/ctsirzfzzd3q6hzmst3ijql2wxprbyku6agjaau5y4tork4ec7an.py":18:0), %arg16: i32 {tt.divisibility = 16 : i32} loc("/tmp/torchinductor_root/ts/ctsirzfzzd3q6hzmst3ijql2wxprbyku6agjaau5y4tork4ec7an.py":18:0), %arg17: i32 {tt.divisibility = 16 : i32} loc("/tmp/torchinductor_root/ts/ctsirzfzzd3q6hzmst3ijql2wxprbyku6agjaau5y4tork4ec7an.py":18:0)) attributes {noinline = false} {
    %cst = arith.constant dense<1.270000e+02> : tensor<2x1024xf32> loc(#loc1)
    %cst_0 = arith.constant dense<-1.270000e+02> : tensor<2x1024xf32> loc(#loc1)
    %cst_1 = arith.constant dense<9.99999974E-6> : tensor<2x1xf32> loc(#loc1)
    %cst_2 = arith.constant dense<1.000000e+00> : tensor<2x1024xf32> loc(#loc1)
    %cst_3 = arith.constant dense<0.000000e+00> : tensor<2x1024xf32> loc(#loc1)
    %cst_4 = arith.constant dense<1.000000e+00> : tensor<2x1xf32> loc(#loc1)
    %cst_5 = arith.constant dense<0.000000e+00> : tensor<1x1024xbf16> loc(#loc1)
    %cst_6 = arith.constant dense<0.000000e+00> : tensor<2x1024xbf16> loc(#loc1)
    %c1024_i32 = arith.constant 1024 : i32 loc(#loc1)
    %c3072_i32 = arith.constant 3072 : i32 loc(#loc1)
    %cst_7 = arith.constant dense<0.00787401571> : tensor<2x1xf32> loc(#loc1)
    %cst_8 = arith.constant dense<0.000000e+00> : tensor<2x1xf32> loc(#loc1)
    %cst_9 = arith.constant dense<1.000000e+00> : tensor<1x1024xf32> loc(#loc1)
    %cst_10 = arith.constant dense<9.99999997E-7> : tensor<2x1xf32> loc(#loc1)
    %cst_11 = arith.constant dense<3.072000e+03> : tensor<2x1xf32> loc(#loc1)
    %cst_12 = arith.constant dense<0.000000e+00> : tensor<1x1024xf32> loc(#loc1)
    %cst_13 = arith.constant dense<0xFF800000> : tensor<2x1024xf32> loc(#loc1)
    %cst_14 = arith.constant dense<0x7F800000> : tensor<2x1024xf32> loc(#loc1)
    %cst_15 = arith.constant 0.000000e+00 : f32 loc(#loc1)
    %cst_16 = arith.constant dense<3072> : tensor<2x1xi32> loc(#loc1)
    %cst_17 = arith.constant dense<3072> : tensor<1x1024xi32> loc(#loc1)
    %c0_i32 = arith.constant 0 : i32 loc(#loc1)
    %cst_18 = arith.constant dense<4112> : tensor<2x1xi32> loc(#loc1)
    %c2_i32 = arith.constant 2 : i32 loc(#loc1)
    %0 = tt.get_program_id x : i32 loc(#loc2)
    %1 = arith.muli %0, %c2_i32 : i32 loc(#loc3)
    %2 = tt.make_range {end = 2 : i32, start = 0 : i32} : tensor<2xi32> loc(#loc4)
    %3 = tt.expand_dims %2 {axis = 1 : i32} : tensor<2xi32> -> tensor<2x1xi32> loc(#loc5)
    %4 = tt.splat %1 : i32 -> tensor<2x1xi32> loc(#loc6)
    %5 = arith.addi %4, %3 : tensor<2x1xi32> loc(#loc6)
    %6 = arith.cmpi slt, %5, %cst_18 : tensor<2x1xi32> loc(#loc7)
    %7 = tt.make_range {end = 1024 : i32, start = 0 : i32} : tensor<1024xi32> loc(#loc8)
    %8 = tt.expand_dims %7 {axis = 0 : i32} : tensor<1024xi32> -> tensor<1x1024xi32> loc(#loc9)
    %9:3 = scf.for %arg18 = %c0_i32 to %c3072_i32 step %c1024_i32 iter_args(%arg19 = %cst_3, %arg20 = %cst_3, %arg21 = %cst_3) -> (tensor<2x1024xf32>, tensor<2x1024xf32>, tensor<2x1024xf32>)  : i32 {
      %36 = tt.splat %arg18 : i32 -> tensor<1x1024xi32> loc(#loc11)
      %37 = arith.addi %36, %8 : tensor<1x1024xi32> loc(#loc11)
      %38 = arith.cmpi slt, %37, %cst_17 : tensor<1x1024xi32> loc(#loc12)
      %39 = arith.muli %5, %cst_16 : tensor<2x1xi32> loc(#loc13)
      %40 = tt.broadcast %37 : tensor<1x1024xi32> -> tensor<2x1024xi32> loc(#loc14)
      %41 = tt.broadcast %39 : tensor<2x1xi32> -> tensor<2x1024xi32> loc(#loc14)
      %42 = arith.addi %40, %41 : tensor<2x1024xi32> loc(#loc14)
      %43 = tt.splat %arg0 : !tt.ptr<bf16> -> tensor<2x1024x!tt.ptr<bf16>> loc(#loc15)
      %44 = tt.addptr %43, %42 : tensor<2x1024x!tt.ptr<bf16>>, tensor<2x1024xi32> loc(#loc15)
      %45 = tt.broadcast %38 : tensor<1x1024xi1> -> tensor<2x1024xi1> loc(#loc16)
      %46 = tt.broadcast %6 : tensor<2x1xi1> -> tensor<2x1024xi1> loc(#loc16)
      %47 = arith.andi %45, %46 : tensor<2x1024xi1> loc(#loc16)
      %48 = tt.load %44, %47, %cst_6 evictionPolicy = evict_last : tensor<2x1024x!tt.ptr<bf16>> loc(#loc17)
      %49 = arith.extf %48 : tensor<2x1024xbf16> to tensor<2x1024xf32> loc(#loc18)
      %50 = arith.cmpi eq, %arg18, %c0_i32 : i32 loc(#loc19)
      %51:3 = scf.if %50 -> (tensor<2x1024xf32>, tensor<2x1024xf32>, tensor<2x1024xf32>) {
        scf.yield %cst_3, %49, %cst_2 : tensor<2x1024xf32>, tensor<2x1024xf32>, tensor<2x1024xf32> loc(#loc148)
      } else {
        %55 = arith.subf %49, %arg19 : tensor<2x1024xf32> loc(#loc149)
        %56 = arith.addf %arg21, %cst_2 : tensor<2x1024xf32> loc(#loc150)
        %57 = arith.divf %55, %56 : tensor<2x1024xf32> loc(#loc151)
        %58 = arith.addf %arg19, %57 : tensor<2x1024xf32> loc(#loc152)
        %59 = arith.subf %49, %58 : tensor<2x1024xf32> loc(#loc153)
        %60 = arith.mulf %55, %59 : tensor<2x1024xf32> loc(#loc154)
        %61 = arith.addf %arg20, %60 : tensor<2x1024xf32> loc(#loc155)
        scf.yield %61, %58, %56 : tensor<2x1024xf32>, tensor<2x1024xf32>, tensor<2x1024xf32> loc(#loc155)
      } loc(#loc147)
      %52 = arith.select %47, %51#1, %arg19 : tensor<2x1024xi1>, tensor<2x1024xf32> loc(#loc30)
      %53 = arith.select %47, %51#0, %arg20 : tensor<2x1024xi1>, tensor<2x1024xf32> loc(#loc31)
      %54 = arith.select %47, %51#2, %arg21 : tensor<2x1024xi1>, tensor<2x1024xf32> loc(#loc32)
      scf.yield %52, %53, %54 : tensor<2x1024xf32>, tensor<2x1024xf32>, tensor<2x1024xf32> loc(#loc33)
    } loc(#loc10)
    %10:3 = "tt.reduce"(%9#0, %9#1, %9#2) <{axis = 1 : i32}> ({
    ^bb0(%arg18: f32 loc(callsite(#loc1 at #loc35)), %arg19: f32 loc(callsite(#loc1 at #loc35)), %arg20: f32 loc(callsite(#loc1 at #loc35)), %arg21: f32 loc(callsite(#loc1 at #loc35)), %arg22: f32 loc(callsite(#loc1 at #loc35)), %arg23: f32 loc(callsite(#loc1 at #loc35))):
      %36 = arith.subf %arg21, %arg18 : f32 loc(#loc214)
      %37 = arith.addf %arg20, %arg23 : f32 loc(#loc215)
      %38 = arith.cmpf oeq, %37, %cst_15 : f32 loc(#loc216)
      %39 = arith.divf %arg23, %37 : f32 loc(#loc217)
      %40 = arith.select %38, %cst_15, %39 : f32 loc(#loc218)
      %41 = arith.mulf %36, %40 : f32 loc(#loc219)
      %42 = arith.addf %arg18, %41 : f32 loc(#loc220)
      %43 = arith.addf %arg19, %arg22 : f32 loc(#loc221)
      %44 = arith.mulf %36, %36 : f32 loc(#loc222)
      %45 = arith.mulf %44, %arg20 : f32 loc(#loc223)
      %46 = arith.mulf %45, %40 : f32 loc(#loc224)
      %47 = arith.addf %43, %46 : f32 loc(#loc225)
      tt.reduce.return %42, %47, %37 : f32, f32, f32 loc(#loc156)
    }) : (tensor<2x1024xf32>, tensor<2x1024xf32>, tensor<2x1024xf32>) -> (tensor<2xf32>, tensor<2xf32>, tensor<2xf32>) loc(#loc156)
    %11 = tt.expand_dims %10#0 {axis = 1 : i32} : tensor<2xf32> -> tensor<2x1xf32> loc(#loc48)
    %12 = tt.expand_dims %10#1 {axis = 1 : i32} : tensor<2xf32> -> tensor<2x1xf32> loc(#loc49)
    %13:2 = scf.for %arg18 = %c0_i32 to %c3072_i32 step %c1024_i32 iter_args(%arg19 = %cst_14, %arg20 = %cst_13) -> (tensor<2x1024xf32>, tensor<2x1024xf32>)  : i32 {
      %36 = tt.splat %arg18 : i32 -> tensor<1x1024xi32> loc(#loc51)
      %37 = arith.addi %36, %8 : tensor<1x1024xi32> loc(#loc51)
      %38 = arith.cmpi slt, %37, %cst_17 : tensor<1x1024xi32> loc(#loc52)
      %39 = arith.muli %5, %cst_16 : tensor<2x1xi32> loc(#loc53)
      %40 = tt.broadcast %37 : tensor<1x1024xi32> -> tensor<2x1024xi32> loc(#loc54)
      %41 = tt.broadcast %39 : tensor<2x1xi32> -> tensor<2x1024xi32> loc(#loc54)
      %42 = arith.addi %40, %41 : tensor<2x1024xi32> loc(#loc54)
      %43 = tt.splat %arg0 : !tt.ptr<bf16> -> tensor<2x1024x!tt.ptr<bf16>> loc(#loc55)
      %44 = tt.addptr %43, %42 : tensor<2x1024x!tt.ptr<bf16>>, tensor<2x1024xi32> loc(#loc55)
      %45 = tt.broadcast %38 : tensor<1x1024xi1> -> tensor<2x1024xi1> loc(#loc56)
      %46 = tt.broadcast %6 : tensor<2x1xi1> -> tensor<2x1024xi1> loc(#loc56)
      %47 = arith.andi %45, %46 : tensor<2x1024xi1> loc(#loc56)
      %48 = tt.load %44, %47, %cst_6 evictionPolicy = evict_first : tensor<2x1024x!tt.ptr<bf16>> loc(#loc57)
      %49 = arith.extf %48 : tensor<2x1024xbf16> to tensor<2x1024xf32> loc(#loc58)
      %50 = arith.addi %37, %cst_17 : tensor<1x1024xi32> loc(#loc59)
      %51 = tt.splat %arg1 : !tt.ptr<f32> -> tensor<1x1024x!tt.ptr<f32>> loc(#loc60)
      %52 = tt.addptr %51, %50 : tensor<1x1024x!tt.ptr<f32>>, tensor<1x1024xi32> loc(#loc60)
      %53 = tt.load %52, %38, %cst_12 evictionPolicy = evict_last : tensor<1x1024x!tt.ptr<f32>> loc(#loc61)
      %54 = tt.splat %arg2 : !tt.ptr<bf16> -> tensor<1x1024x!tt.ptr<bf16>> loc(#loc62)
      %55 = tt.addptr %54, %50 : tensor<1x1024x!tt.ptr<bf16>>, tensor<1x1024xi32> loc(#loc62)
      %56 = tt.load %55, %38, %cst_5 evictionPolicy = evict_last : tensor<1x1024x!tt.ptr<bf16>> loc(#loc63)
      %57 = arith.extf %56 : tensor<1x1024xbf16> to tensor<1x1024xf32> loc(#loc64)
      %58 = tt.addptr %51, %37 : tensor<1x1024x!tt.ptr<f32>>, tensor<1x1024xi32> loc(#loc65)
      %59 = tt.load %58, %38, %cst_12 evictionPolicy = evict_last : tensor<1x1024x!tt.ptr<f32>> loc(#loc66)
      %60 = tt.addptr %54, %37 : tensor<1x1024x!tt.ptr<bf16>>, tensor<1x1024xi32> loc(#loc67)
      %61 = tt.load %60, %38, %cst_5 evictionPolicy = evict_last : tensor<1x1024x!tt.ptr<bf16>> loc(#loc68)
      %62 = arith.extf %61 : tensor<1x1024xbf16> to tensor<1x1024xf32> loc(#loc69)
      %63 = tt.broadcast %11 : tensor<2x1xf32> -> tensor<2x1024xf32> loc(#loc70)
      %64 = arith.subf %49, %63 : tensor<2x1024xf32> loc(#loc70)
      %65 = arith.divf %12, %cst_11 : tensor<2x1xf32> loc(#loc71)
      %66 = arith.addf %65, %cst_10 : tensor<2x1xf32> loc(#loc72)
      %67 = tt.extern_elementwise %66 {libname = "", libpath = "", pure = true, symbol = "__nv_rsqrtf"} : (tensor<2x1xf32>) -> tensor<2x1xf32> loc(#loc73)
      %68 = tt.broadcast %67 : tensor<2x1xf32> -> tensor<2x1024xf32> loc(#loc74)
      %69 = arith.mulf %64, %68 : tensor<2x1024xf32> loc(#loc74)
      %70 = arith.addf %53, %57 : tensor<1x1024xf32> loc(#loc75)
      %71 = arith.addf %70, %cst_9 : tensor<1x1024xf32> loc(#loc76)
      %72 = tt.broadcast %71 : tensor<1x1024xf32> -> tensor<2x1024xf32> loc(#loc77)
      %73 = arith.mulf %69, %72 : tensor<2x1024xf32> loc(#loc77)
      %74 = arith.addf %59, %62 : tensor<1x1024xf32> loc(#loc78)
      %75 = tt.broadcast %74 : tensor<1x1024xf32> -> tensor<2x1024xf32> loc(#loc79)
      %76 = arith.addf %73, %75 : tensor<2x1024xf32> loc(#loc79)
      %77 = arith.cmpf olt, %arg19, %76 : tensor<2x1024xf32> loc(#loc170)
      %78 = arith.cmpf une, %arg19, %arg19 : tensor<2x1024xf32> loc(#loc171)
      %79 = arith.ori %77, %78 : tensor<2x1024xi1> loc(#loc172)
      %80 = arith.select %79, %arg19, %76 : tensor<2x1024xi1>, tensor<2x1024xf32> loc(#loc173)
      %81 = arith.select %47, %80, %arg19 : tensor<2x1024xi1>, tensor<2x1024xf32> loc(#loc85)
      %82 = arith.cmpf ogt, %arg20, %76 : tensor<2x1024xf32> loc(#loc174)
      %83 = arith.cmpf une, %arg20, %arg20 : tensor<2x1024xf32> loc(#loc175)
      %84 = arith.ori %82, %83 : tensor<2x1024xi1> loc(#loc176)
      %85 = arith.select %84, %arg20, %76 : tensor<2x1024xi1>, tensor<2x1024xf32> loc(#loc177)
      %86 = arith.select %47, %85, %arg20 : tensor<2x1024xi1>, tensor<2x1024xf32> loc(#loc91)
      %87 = tt.splat %arg3 : !tt.ptr<bf16> -> tensor<2x1024x!tt.ptr<bf16>> loc(#loc92)
      %88 = tt.addptr %87, %42 : tensor<2x1024x!tt.ptr<bf16>>, tensor<2x1024xi32> loc(#loc92)
      %89 = arith.truncf %76 : tensor<2x1024xf32> to tensor<2x1024xbf16> loc(#loc93)
      tt.store %88, %89, %47 : tensor<2x1024x!tt.ptr<bf16>> loc(#loc93)
      scf.yield %81, %86 : tensor<2x1024xf32>, tensor<2x1024xf32> loc(#loc94)
    } loc(#loc50)
    %14 = "tt.reduce"(%13#0) <{axis = 1 : i32}> ({
    ^bb0(%arg18: f32 loc(callsite(#loc1 at #loc96)), %arg19: f32 loc(callsite(#loc1 at #loc96))):
      %36 = arith.cmpf olt, %arg18, %arg19 : f32 loc(#loc226)
      %37 = arith.cmpf une, %arg18, %arg18 : f32 loc(#loc227)
      %38 = arith.ori %36, %37 : i1 loc(#loc228)
      %39 = arith.select %38, %arg18, %arg19 : f32 loc(#loc229)
      tt.reduce.return %39 : f32 loc(#loc178)
    }) : (tensor<2x1024xf32>) -> tensor<2xf32> loc(#loc178)
    %15 = tt.expand_dims %14 {axis = 1 : i32} : tensor<2xf32> -> tensor<2x1xf32> loc(#loc97)
    %16 = "tt.reduce"(%13#1) <{axis = 1 : i32}> ({
    ^bb0(%arg18: f32 loc(callsite(#loc1 at #loc99)), %arg19: f32 loc(callsite(#loc1 at #loc99))):
      %36 = arith.cmpf ogt, %arg18, %arg19 : f32 loc(#loc230)
      %37 = arith.cmpf une, %arg18, %arg18 : f32 loc(#loc231)
      %38 = arith.ori %36, %37 : i1 loc(#loc232)
      %39 = arith.select %38, %arg18, %arg19 : f32 loc(#loc233)
      tt.reduce.return %39 : f32 loc(#loc184)
    }) : (tensor<2x1024xf32>) -> tensor<2xf32> loc(#loc184)
    %17 = tt.expand_dims %16 {axis = 1 : i32} : tensor<2xf32> -> tensor<2x1xf32> loc(#loc100)
    %18 = tt.splat %arg4 : !tt.ptr<bf16> -> tensor<2x1x!tt.ptr<bf16>> loc(#loc101)
    %19 = tt.addptr %18, %5 : tensor<2x1x!tt.ptr<bf16>>, tensor<2x1xi32> loc(#loc101)
    %20 = arith.truncf %15 : tensor<2x1xf32> to tensor<2x1xbf16> loc(#loc102)
    tt.store %19, %20, %6 : tensor<2x1x!tt.ptr<bf16>> loc(#loc102)
    %21 = tt.splat %arg5 : !tt.ptr<bf16> -> tensor<2x1x!tt.ptr<bf16>> loc(#loc103)
    %22 = tt.addptr %21, %5 : tensor<2x1x!tt.ptr<bf16>>, tensor<2x1xi32> loc(#loc103)
    %23 = arith.truncf %17 : tensor<2x1xf32> to tensor<2x1xbf16> loc(#loc104)
    tt.store %22, %23, %6 : tensor<2x1x!tt.ptr<bf16>> loc(#loc104)
    %24 = tt.splat %arg6 : !tt.ptr<bf16> -> tensor<2x1x!tt.ptr<bf16>> loc(#loc105)
    %25 = tt.addptr %24, %5 : tensor<2x1x!tt.ptr<bf16>>, tensor<2x1xi32> loc(#loc105)
    tt.store %25, %20, %6 : tensor<2x1x!tt.ptr<bf16>> loc(#loc106)
    %26 = tt.splat %arg7 : !tt.ptr<bf16> -> tensor<2x1x!tt.ptr<bf16>> loc(#loc107)
    %27 = tt.addptr %26, %5 : tensor<2x1x!tt.ptr<bf16>>, tensor<2x1xi32> loc(#loc107)
    tt.store %27, %23, %6 : tensor<2x1x!tt.ptr<bf16>> loc(#loc108)
    %28 = tt.splat %arg8 : !tt.ptr<bf16> -> tensor<2x1x!tt.ptr<bf16>> loc(#loc109)
    %29 = tt.addptr %28, %5 : tensor<2x1x!tt.ptr<bf16>>, tensor<2x1xi32> loc(#loc109)
    tt.store %29, %20, %6 : tensor<2x1x!tt.ptr<bf16>> loc(#loc110)
    %30 = tt.splat %arg9 : !tt.ptr<bf16> -> tensor<2x1x!tt.ptr<bf16>> loc(#loc111)
    %31 = tt.addptr %30, %5 : tensor<2x1x!tt.ptr<bf16>>, tensor<2x1xi32> loc(#loc111)
    tt.store %31, %23, %6 : tensor<2x1x!tt.ptr<bf16>> loc(#loc112)
    %32 = tt.splat %arg10 : !tt.ptr<bf16> -> tensor<2x1x!tt.ptr<bf16>> loc(#loc113)
    %33 = tt.addptr %32, %5 : tensor<2x1x!tt.ptr<bf16>>, tensor<2x1xi32> loc(#loc113)
    tt.store %33, %20, %6 : tensor<2x1x!tt.ptr<bf16>> loc(#loc114)
    %34 = tt.splat %arg11 : !tt.ptr<bf16> -> tensor<2x1x!tt.ptr<bf16>> loc(#loc115)
    %35 = tt.addptr %34, %5 : tensor<2x1x!tt.ptr<bf16>>, tensor<2x1xi32> loc(#loc115)
    tt.store %35, %23, %6 : tensor<2x1x!tt.ptr<bf16>> loc(#loc116)
    scf.for %arg18 = %c0_i32 to %c3072_i32 step %c1024_i32  : i32 {
      %36 = tt.splat %arg18 : i32 -> tensor<1x1024xi32> loc(#loc118)
      %37 = arith.addi %36, %8 : tensor<1x1024xi32> loc(#loc118)
      %38 = arith.cmpi slt, %37, %cst_17 : tensor<1x1024xi32> loc(#loc119)
      %39 = arith.muli %5, %cst_16 : tensor<2x1xi32> loc(#loc120)
      %40 = tt.broadcast %37 : tensor<1x1024xi32> -> tensor<2x1024xi32> loc(#loc121)
      %41 = tt.broadcast %39 : tensor<2x1xi32> -> tensor<2x1024xi32> loc(#loc121)
      %42 = arith.addi %40, %41 : tensor<2x1024xi32> loc(#loc121)
      %43 = tt.splat %arg3 : !tt.ptr<bf16> -> tensor<2x1024x!tt.ptr<bf16>> loc(#loc122)
      %44 = tt.addptr %43, %42 : tensor<2x1024x!tt.ptr<bf16>>, tensor<2x1024xi32> loc(#loc122)
      %45 = tt.broadcast %38 : tensor<1x1024xi1> -> tensor<2x1024xi1> loc(#loc123)
      %46 = tt.broadcast %6 : tensor<2x1xi1> -> tensor<2x1024xi1> loc(#loc123)
      %47 = arith.andi %45, %46 : tensor<2x1024xi1> loc(#loc123)
      %48 = tt.load %44, %47, %cst_6 evictionPolicy = evict_first : tensor<2x1024x!tt.ptr<bf16>> loc(#loc124)
      %49 = arith.extf %48 : tensor<2x1024xbf16> to tensor<2x1024xf32> loc(#loc125)
      %50 = arith.cmpf olt, %15, %cst_8 : tensor<2x1xf32> loc(#loc190)
      %51 = arith.cmpf une, %15, %15 : tensor<2x1xf32> loc(#loc191)
      %52 = arith.ori %50, %51 : tensor<2x1xi1> loc(#loc192)
      %53 = arith.select %52, %15, %cst_8 : tensor<2x1xi1>, tensor<2x1xf32> loc(#loc193)
      %54 = arith.subf %cst_8, %53 : tensor<2x1xf32> loc(#loc127)
      %55 = arith.cmpf ogt, %17, %cst_8 : tensor<2x1xf32> loc(#loc194)
      %56 = arith.cmpf une, %17, %17 : tensor<2x1xf32> loc(#loc195)
      %57 = arith.ori %55, %56 : tensor<2x1xi1> loc(#loc196)
      %58 = arith.select %57, %17, %cst_8 : tensor<2x1xi1>, tensor<2x1xf32> loc(#loc197)
      %59 = arith.cmpf ogt, %54, %58 : tensor<2x1xf32> loc(#loc198)
      %60 = arith.cmpf une, %54, %54 : tensor<2x1xf32> loc(#loc199)
      %61 = arith.ori %59, %60 : tensor<2x1xi1> loc(#loc200)
      %62 = arith.select %61, %54, %58 : tensor<2x1xi1>, tensor<2x1xf32> loc(#loc201)
      %63 = arith.mulf %62, %cst_7 : tensor<2x1xf32> loc(#loc130)
      %64 = arith.cmpf ogt, %63, %cst_1 : tensor<2x1xf32> loc(#loc202)
      %65 = arith.cmpf une, %63, %63 : tensor<2x1xf32> loc(#loc203)
      %66 = arith.ori %64, %65 : tensor<2x1xi1> loc(#loc204)
      %67 = arith.select %66, %63, %cst_1 : tensor<2x1xi1>, tensor<2x1xf32> loc(#loc205)
      %68 = arith.divf %cst_4, %67 : tensor<2x1xf32> loc(#loc132)
      %69 = tt.broadcast %68 : tensor<2x1xf32> -> tensor<2x1024xf32> loc(#loc133)
      %70 = arith.mulf %49, %69 : tensor<2x1024xf32> loc(#loc133)
      %71 = tt.extern_elementwise %70 {libname = "", libpath = "", pure = true, symbol = "__nv_nearbyintf"} : (tensor<2x1024xf32>) -> tensor<2x1024xf32> loc(#loc134)
      %72 = arith.cmpf ogt, %71, %cst_0 : tensor<2x1024xf32> loc(#loc206)
      %73 = arith.cmpf une, %71, %71 : tensor<2x1024xf32> loc(#loc207)
      %74 = arith.ori %72, %73 : tensor<2x1024xi1> loc(#loc208)
      %75 = arith.select %74, %71, %cst_0 : tensor<2x1024xi1>, tensor<2x1024xf32> loc(#loc209)
      %76 = arith.cmpf olt, %75, %cst : tensor<2x1024xf32> loc(#loc210)
      %77 = arith.cmpf une, %75, %75 : tensor<2x1024xf32> loc(#loc211)
      %78 = arith.ori %76, %77 : tensor<2x1024xi1> loc(#loc212)
      %79 = arith.select %78, %75, %cst : tensor<2x1024xi1>, tensor<2x1024xf32> loc(#loc213)
      %80 = arith.fptosi %79 : tensor<2x1024xf32> to tensor<2x1024xi8> loc(#loc137)
      %81 = tt.splat %arg12 : !tt.ptr<i8> -> tensor<2x1024x!tt.ptr<i8>> loc(#loc138)
      %82 = tt.addptr %81, %42 : tensor<2x1024x!tt.ptr<i8>>, tensor<2x1024xi32> loc(#loc138)
      tt.store %82, %80, %47 : tensor<2x1024x!tt.ptr<i8>> loc(#loc139)
      %83 = tt.splat %arg13 : !tt.ptr<i8> -> tensor<2x1024x!tt.ptr<i8>> loc(#loc140)
      %84 = tt.addptr %83, %42 : tensor<2x1024x!tt.ptr<i8>>, tensor<2x1024xi32> loc(#loc140)
      tt.store %84, %80, %47 : tensor<2x1024x!tt.ptr<i8>> loc(#loc141)
      %85 = tt.splat %arg14 : !tt.ptr<i8> -> tensor<2x1024x!tt.ptr<i8>> loc(#loc142)
      %86 = tt.addptr %85, %42 : tensor<2x1024x!tt.ptr<i8>>, tensor<2x1024xi32> loc(#loc142)
      tt.store %86, %80, %47 : tensor<2x1024x!tt.ptr<i8>> loc(#loc143)
      %87 = tt.splat %arg15 : !tt.ptr<i8> -> tensor<2x1024x!tt.ptr<i8>> loc(#loc144)
      %88 = tt.addptr %87, %42 : tensor<2x1024x!tt.ptr<i8>>, tensor<2x1024xi32> loc(#loc144)
      tt.store %88, %80, %47 : tensor<2x1024x!tt.ptr<i8>> loc(#loc145)
    } loc(#loc117)
    tt.return loc(#loc146)
  } loc(#loc)
} loc(#loc)
#loc2 = loc("/tmp/torchinductor_root/ts/ctsirzfzzd3q6hzmst3ijql2wxprbyku6agjaau5y4tork4ec7an.py":23:28)
#loc3 = loc("/tmp/torchinductor_root/ts/ctsirzfzzd3q6hzmst3ijql2wxprbyku6agjaau5y4tork4ec7an.py":23:33)
#loc4 = loc("/tmp/torchinductor_root/ts/ctsirzfzzd3q6hzmst3ijql2wxprbyku6agjaau5y4tork4ec7an.py":24:36)
#loc5 = loc("/tmp/torchinductor_root/ts/ctsirzfzzd3q6hzmst3ijql2wxprbyku6agjaau5y4tork4ec7an.py":24:44)
#loc6 = loc("/tmp/torchinductor_root/ts/ctsirzfzzd3q6hzmst3ijql2wxprbyku6agjaau5y4tork4ec7an.py":24:23)
#loc7 = loc("/tmp/torchinductor_root/ts/ctsirzfzzd3q6hzmst3ijql2wxprbyku6agjaau5y4tork4ec7an.py":25:21)
#loc8 = loc("/tmp/torchinductor_root/ts/ctsirzfzzd3q6hzmst3ijql2wxprbyku6agjaau5y4tork4ec7an.py":26:27)
#loc9 = loc("/tmp/torchinductor_root/ts/ctsirzfzzd3q6hzmst3ijql2wxprbyku6agjaau5y4tork4ec7an.py":26:37)
#loc10 = loc("/tmp/torchinductor_root/ts/ctsirzfzzd3q6hzmst3ijql2wxprbyku6agjaau5y4tork4ec7an.py":32:40)
#loc11 = loc("/tmp/torchinductor_root/ts/ctsirzfzzd3q6hzmst3ijql2wxprbyku6agjaau5y4tork4ec7an.py":33:31)
#loc12 = loc("/tmp/torchinductor_root/ts/ctsirzfzzd3q6hzmst3ijql2wxprbyku6agjaau5y4tork4ec7an.py":34:29)
#loc13 = loc("/tmp/torchinductor_root/ts/ctsirzfzzd3q6hzmst3ijql2wxprbyku6agjaau5y4tork4ec7an.py":38:46)
#loc14 = loc("/tmp/torchinductor_root/ts/ctsirzfzzd3q6hzmst3ijql2wxprbyku6agjaau5y4tork4ec7an.py":38:41)
#loc15 = loc("/tmp/torchinductor_root/ts/ctsirzfzzd3q6hzmst3ijql2wxprbyku6agjaau5y4tork4ec7an.py":38:34)
#loc16 = loc("/tmp/torchinductor_root/ts/ctsirzfzzd3q6hzmst3ijql2wxprbyku6agjaau5y4tork4ec7an.py":38:61)
#loc17 = loc("/tmp/torchinductor_root/ts/ctsirzfzzd3q6hzmst3ijql2wxprbyku6agjaau5y4tork4ec7an.py":38:51)
#loc18 = loc("/tmp/torchinductor_root/ts/ctsirzfzzd3q6hzmst3ijql2wxprbyku6agjaau5y4tork4ec7an.py":38:112)
#loc19 = loc("/tmp/torchinductor_root/ts/ctsirzfzzd3q6hzmst3ijql2wxprbyku6agjaau5y4tork4ec7an.py":42:62)
#loc20 = loc("/usr/local/lib/python3.10/dist-packages/torch/_inductor/runtime/triton_helpers.py":203:7)
#loc21 = loc("/tmp/torchinductor_root/ts/ctsirzfzzd3q6hzmst3ijql2wxprbyku6agjaau5y4tork4ec7an.py":42:51)
#loc22 = loc("/usr/local/lib/python3.10/dist-packages/torch/_inductor/runtime/triton_helpers.py":206:31)
#loc23 = loc("/usr/local/lib/python3.10/dist-packages/torch/_inductor/runtime/triton_helpers.py":208:24)
#loc24 = loc("/usr/local/lib/python3.10/dist-packages/torch/_inductor/runtime/triton_helpers.py":209:30)
#loc25 = loc("/usr/local/lib/python3.10/dist-packages/torch/_inductor/runtime/triton_helpers.py":210:34)
#loc26 = loc("/usr/local/lib/python3.10/dist-packages/torch/_inductor/runtime/triton_helpers.py":210:26)
#loc27 = loc("/usr/local/lib/python3.10/dist-packages/torch/_inductor/runtime/triton_helpers.py":211:39)
#loc28 = loc("/usr/local/lib/python3.10/dist-packages/torch/_inductor/runtime/triton_helpers.py":211:31)
#loc29 = loc("/usr/local/lib/python3.10/dist-packages/torch/_inductor/runtime/triton_helpers.py":211:22)
#loc30 = loc("/tmp/torchinductor_root/ts/ctsirzfzzd3q6hzmst3ijql2wxprbyku6agjaau5y4tork4ec7an.py":44:62)
#loc31 = loc("/tmp/torchinductor_root/ts/ctsirzfzzd3q6hzmst3ijql2wxprbyku6agjaau5y4tork4ec7an.py":45:58)
#loc32 = loc("/tmp/torchinductor_root/ts/ctsirzfzzd3q6hzmst3ijql2wxprbyku6agjaau5y4tork4ec7an.py":46:66)
#loc33 = loc("/tmp/torchinductor_root/ts/ctsirzfzzd3q6hzmst3ijql2wxprbyku6agjaau5y4tork4ec7an.py":46:8)
#loc34 = loc("/usr/local/lib/python3.10/dist-packages/torch/_inductor/runtime/triton_helpers.py":229:46)
#loc36 = loc("/usr/local/lib/python3.10/dist-packages/torch/_inductor/runtime/triton_helpers.py":217:21)
#loc37 = loc("/usr/local/lib/python3.10/dist-packages/torch/_inductor/runtime/triton_helpers.py":218:28)
#loc38 = loc("/usr/local/lib/python3.10/dist-packages/torch/_inductor/runtime/triton_helpers.py":219:39)
#loc39 = loc("/usr/local/lib/python3.10/dist-packages/torch/_inductor/runtime/triton_helpers.py":219:60)
#loc40 = loc("/usr/local/lib/python3.10/dist-packages/torch/_inductor/runtime/triton_helpers.py":219:49)
#loc41 = loc("/usr/local/lib/python3.10/dist-packages/torch/_inductor/runtime/triton_helpers.py":221:25)
#loc42 = loc("/usr/local/lib/python3.10/dist-packages/torch/_inductor/runtime/triton_helpers.py":221:17)
#loc43 = loc("/usr/local/lib/python3.10/dist-packages/torch/_inductor/runtime/triton_helpers.py":222:15)
#loc44 = loc("/usr/local/lib/python3.10/dist-packages/torch/_inductor/runtime/triton_helpers.py":222:30)
#loc45 = loc("/usr/local/lib/python3.10/dist-packages/torch/_inductor/runtime/triton_helpers.py":222:38)
#loc46 = loc("/usr/local/lib/python3.10/dist-packages/torch/_inductor/runtime/triton_helpers.py":222:49)
#loc47 = loc("/usr/local/lib/python3.10/dist-packages/torch/_inductor/runtime/triton_helpers.py":222:22)
#loc48 = loc("/tmp/torchinductor_root/ts/ctsirzfzzd3q6hzmst3ijql2wxprbyku6agjaau5y4tork4ec7an.py":48:16)
#loc49 = loc("/tmp/torchinductor_root/ts/ctsirzfzzd3q6hzmst3ijql2wxprbyku6agjaau5y4tork4ec7an.py":49:16)
#loc50 = loc("/tmp/torchinductor_root/ts/ctsirzfzzd3q6hzmst3ijql2wxprbyku6agjaau5y4tork4ec7an.py":53:40)
#loc51 = loc("/tmp/torchinductor_root/ts/ctsirzfzzd3q6hzmst3ijql2wxprbyku6agjaau5y4tork4ec7an.py":54:31)
#loc52 = loc("/tmp/torchinductor_root/ts/ctsirzfzzd3q6hzmst3ijql2wxprbyku6agjaau5y4tork4ec7an.py":55:29)
#loc53 = loc("/tmp/torchinductor_root/ts/ctsirzfzzd3q6hzmst3ijql2wxprbyku6agjaau5y4tork4ec7an.py":59:46)
#loc54 = loc("/tmp/torchinductor_root/ts/ctsirzfzzd3q6hzmst3ijql2wxprbyku6agjaau5y4tork4ec7an.py":59:41)
#loc55 = loc("/tmp/torchinductor_root/ts/ctsirzfzzd3q6hzmst3ijql2wxprbyku6agjaau5y4tork4ec7an.py":59:34)
#loc56 = loc("/tmp/torchinductor_root/ts/ctsirzfzzd3q6hzmst3ijql2wxprbyku6agjaau5y4tork4ec7an.py":59:61)
#loc57 = loc("/tmp/torchinductor_root/ts/ctsirzfzzd3q6hzmst3ijql2wxprbyku6agjaau5y4tork4ec7an.py":59:51)
#loc58 = loc("/tmp/torchinductor_root/ts/ctsirzfzzd3q6hzmst3ijql2wxprbyku6agjaau5y4tork4ec7an.py":59:113)
#loc59 = loc("/tmp/torchinductor_root/ts/ctsirzfzzd3q6hzmst3ijql2wxprbyku6agjaau5y4tork4ec7an.py":60:42)
#loc60 = loc("/tmp/torchinductor_root/ts/ctsirzfzzd3q6hzmst3ijql2wxprbyku6agjaau5y4tork4ec7an.py":60:35)
#loc61 = loc("/tmp/torchinductor_root/ts/ctsirzfzzd3q6hzmst3ijql2wxprbyku6agjaau5y4tork4ec7an.py":60:49)
#loc62 = loc("/tmp/torchinductor_root/ts/ctsirzfzzd3q6hzmst3ijql2wxprbyku6agjaau5y4tork4ec7an.py":61:35)
#loc63 = loc("/tmp/torchinductor_root/ts/ctsirzfzzd3q6hzmst3ijql2wxprbyku6agjaau5y4tork4ec7an.py":61:49)
#loc64 = loc("/tmp/torchinductor_root/ts/ctsirzfzzd3q6hzmst3ijql2wxprbyku6agjaau5y4tork4ec7an.py":61:102)
#loc65 = loc("/tmp/torchinductor_root/ts/ctsirzfzzd3q6hzmst3ijql2wxprbyku6agjaau5y4tork4ec7an.py":62:35)
#loc66 = loc("/tmp/torchinductor_root/ts/ctsirzfzzd3q6hzmst3ijql2wxprbyku6agjaau5y4tork4ec7an.py":62:42)
#loc67 = loc("/tmp/torchinductor_root/ts/ctsirzfzzd3q6hzmst3ijql2wxprbyku6agjaau5y4tork4ec7an.py":63:35)
#loc68 = loc("/tmp/torchinductor_root/ts/ctsirzfzzd3q6hzmst3ijql2wxprbyku6agjaau5y4tork4ec7an.py":63:42)
#loc69 = loc("/tmp/torchinductor_root/ts/ctsirzfzzd3q6hzmst3ijql2wxprbyku6agjaau5y4tork4ec7an.py":63:95)
#loc70 = loc("/tmp/torchinductor_root/ts/ctsirzfzzd3q6hzmst3ijql2wxprbyku6agjaau5y4tork4ec7an.py":65:24)
#loc71 = loc("/tmp/torchinductor_root/ts/ctsirzfzzd3q6hzmst3ijql2wxprbyku6agjaau5y4tork4ec7an.py":67:24)
#loc72 = loc("/tmp/torchinductor_root/ts/ctsirzfzzd3q6hzmst3ijql2wxprbyku6agjaau5y4tork4ec7an.py":69:24)
#loc73 = loc("/tmp/torchinductor_root/ts/ctsirzfzzd3q6hzmst3ijql2wxprbyku6agjaau5y4tork4ec7an.py":70:32)
#loc74 = loc("/tmp/torchinductor_root/ts/ctsirzfzzd3q6hzmst3ijql2wxprbyku6agjaau5y4tork4ec7an.py":71:24)
#loc75 = loc("/tmp/torchinductor_root/ts/ctsirzfzzd3q6hzmst3ijql2wxprbyku6agjaau5y4tork4ec7an.py":74:24)
#loc76 = loc("/tmp/torchinductor_root/ts/ctsirzfzzd3q6hzmst3ijql2wxprbyku6agjaau5y4tork4ec7an.py":76:24)
#loc77 = loc("/tmp/torchinductor_root/ts/ctsirzfzzd3q6hzmst3ijql2wxprbyku6agjaau5y4tork4ec7an.py":77:24)
#loc78 = loc("/tmp/torchinductor_root/ts/ctsirzfzzd3q6hzmst3ijql2wxprbyku6agjaau5y4tork4ec7an.py":79:24)
#loc79 = loc("/tmp/torchinductor_root/ts/ctsirzfzzd3q6hzmst3ijql2wxprbyku6agjaau5y4tork4ec7an.py":80:24)
#loc80 = loc("/usr/local/lib/python3.10/dist-packages/torch/_inductor/runtime/triton_helpers.py":94:15)
#loc81 = loc("/tmp/torchinductor_root/ts/ctsirzfzzd3q6hzmst3ijql2wxprbyku6agjaau5y4tork4ec7an.py":82:47)
#loc82 = loc("/usr/local/lib/python3.10/dist-packages/torch/_inductor/runtime/triton_helpers.py":96:21)
#loc83 = loc("/usr/local/lib/python3.10/dist-packages/torch/_inductor/runtime/triton_helpers.py":96:16)
#loc84 = loc("/usr/local/lib/python3.10/dist-packages/torch/_inductor/runtime/triton_helpers.py":97:29)
#loc85 = loc("/tmp/torchinductor_root/ts/ctsirzfzzd3q6hzmst3ijql2wxprbyku6agjaau5y4tork4ec7an.py":83:50)
#loc86 = loc("/usr/local/lib/python3.10/dist-packages/torch/_inductor/runtime/triton_helpers.py":102:15)
#loc87 = loc("/tmp/torchinductor_root/ts/ctsirzfzzd3q6hzmst3ijql2wxprbyku6agjaau5y4tork4ec7an.py":84:47)
#loc88 = loc("/usr/local/lib/python3.10/dist-packages/torch/_inductor/runtime/triton_helpers.py":104:21)
#loc89 = loc("/usr/local/lib/python3.10/dist-packages/torch/_inductor/runtime/triton_helpers.py":104:16)
#loc90 = loc("/usr/local/lib/python3.10/dist-packages/torch/_inductor/runtime/triton_helpers.py":105:29)
#loc91 = loc("/tmp/torchinductor_root/ts/ctsirzfzzd3q6hzmst3ijql2wxprbyku6agjaau5y4tork4ec7an.py":85:50)
#loc92 = loc("/tmp/torchinductor_root/ts/ctsirzfzzd3q6hzmst3ijql2wxprbyku6agjaau5y4tork4ec7an.py":86:29)
#loc93 = loc("/tmp/torchinductor_root/ts/ctsirzfzzd3q6hzmst3ijql2wxprbyku6agjaau5y4tork4ec7an.py":86:53)
#loc94 = loc("/tmp/torchinductor_root/ts/ctsirzfzzd3q6hzmst3ijql2wxprbyku6agjaau5y4tork4ec7an.py":86:8)
#loc95 = loc("/usr/local/lib/python3.10/dist-packages/torch/_inductor/runtime/triton_helpers.py":110:29)
#loc97 = loc("/tmp/torchinductor_root/ts/ctsirzfzzd3q6hzmst3ijql2wxprbyku6agjaau5y4tork4ec7an.py":87:43)
#loc98 = loc("/usr/local/lib/python3.10/dist-packages/torch/_inductor/runtime/triton_helpers.py":115:29)
#loc100 = loc("/tmp/torchinductor_root/ts/ctsirzfzzd3q6hzmst3ijql2wxprbyku6agjaau5y4tork4ec7an.py":88:43)
#loc101 = loc("/tmp/torchinductor_root/ts/ctsirzfzzd3q6hzmst3ijql2wxprbyku6agjaau5y4tork4ec7an.py":89:25)
#loc102 = loc("/tmp/torchinductor_root/ts/ctsirzfzzd3q6hzmst3ijql2wxprbyku6agjaau5y4tork4ec7an.py":89:37)
#loc103 = loc("/tmp/torchinductor_root/ts/ctsirzfzzd3q6hzmst3ijql2wxprbyku6agjaau5y4tork4ec7an.py":90:25)
#loc104 = loc("/tmp/torchinductor_root/ts/ctsirzfzzd3q6hzmst3ijql2wxprbyku6agjaau5y4tork4ec7an.py":90:37)
#loc105 = loc("/tmp/torchinductor_root/ts/ctsirzfzzd3q6hzmst3ijql2wxprbyku6agjaau5y4tork4ec7an.py":91:25)
#loc106 = loc("/tmp/torchinductor_root/ts/ctsirzfzzd3q6hzmst3ijql2wxprbyku6agjaau5y4tork4ec7an.py":91:37)
#loc107 = loc("/tmp/torchinductor_root/ts/ctsirzfzzd3q6hzmst3ijql2wxprbyku6agjaau5y4tork4ec7an.py":92:25)
#loc108 = loc("/tmp/torchinductor_root/ts/ctsirzfzzd3q6hzmst3ijql2wxprbyku6agjaau5y4tork4ec7an.py":92:37)
#loc109 = loc("/tmp/torchinductor_root/ts/ctsirzfzzd3q6hzmst3ijql2wxprbyku6agjaau5y4tork4ec7an.py":93:25)
#loc110 = loc("/tmp/torchinductor_root/ts/ctsirzfzzd3q6hzmst3ijql2wxprbyku6agjaau5y4tork4ec7an.py":93:37)
#loc111 = loc("/tmp/torchinductor_root/ts/ctsirzfzzd3q6hzmst3ijql2wxprbyku6agjaau5y4tork4ec7an.py":94:25)
#loc112 = loc("/tmp/torchinductor_root/ts/ctsirzfzzd3q6hzmst3ijql2wxprbyku6agjaau5y4tork4ec7an.py":94:37)
#loc113 = loc("/tmp/torchinductor_root/ts/ctsirzfzzd3q6hzmst3ijql2wxprbyku6agjaau5y4tork4ec7an.py":95:25)
#loc114 = loc("/tmp/torchinductor_root/ts/ctsirzfzzd3q6hzmst3ijql2wxprbyku6agjaau5y4tork4ec7an.py":95:37)
#loc115 = loc("/tmp/torchinductor_root/ts/ctsirzfzzd3q6hzmst3ijql2wxprbyku6agjaau5y4tork4ec7an.py":96:26)
#loc116 = loc("/tmp/torchinductor_root/ts/ctsirzfzzd3q6hzmst3ijql2wxprbyku6agjaau5y4tork4ec7an.py":96:38)
#loc117 = loc("/tmp/torchinductor_root/ts/ctsirzfzzd3q6hzmst3ijql2wxprbyku6agjaau5y4tork4ec7an.py":97:40)
#loc118 = loc("/tmp/torchinductor_root/ts/ctsirzfzzd3q6hzmst3ijql2wxprbyku6agjaau5y4tork4ec7an.py":98:31)
#loc119 = loc("/tmp/torchinductor_root/ts/ctsirzfzzd3q6hzmst3ijql2wxprbyku6agjaau5y4tork4ec7an.py":99:29)
#loc120 = loc("/tmp/torchinductor_root/ts/ctsirzfzzd3q6hzmst3ijql2wxprbyku6agjaau5y4tork4ec7an.py":103:48)
#loc121 = loc("/tmp/torchinductor_root/ts/ctsirzfzzd3q6hzmst3ijql2wxprbyku6agjaau5y4tork4ec7an.py":103:43)
#loc122 = loc("/tmp/torchinductor_root/ts/ctsirzfzzd3q6hzmst3ijql2wxprbyku6agjaau5y4tork4ec7an.py":103:36)
#loc123 = loc("/tmp/torchinductor_root/ts/ctsirzfzzd3q6hzmst3ijql2wxprbyku6agjaau5y4tork4ec7an.py":103:63)
#loc124 = loc("/tmp/torchinductor_root/ts/ctsirzfzzd3q6hzmst3ijql2wxprbyku6agjaau5y4tork4ec7an.py":103:53)
#loc125 = loc("/tmp/torchinductor_root/ts/ctsirzfzzd3q6hzmst3ijql2wxprbyku6agjaau5y4tork4ec7an.py":103:115)
#loc126 = loc("/tmp/torchinductor_root/ts/ctsirzfzzd3q6hzmst3ijql2wxprbyku6agjaau5y4tork4ec7an.py":105:46)
#loc127 = loc("/tmp/torchinductor_root/ts/ctsirzfzzd3q6hzmst3ijql2wxprbyku6agjaau5y4tork4ec7an.py":106:17)
#loc128 = loc("/tmp/torchinductor_root/ts/ctsirzfzzd3q6hzmst3ijql2wxprbyku6agjaau5y4tork4ec7an.py":107:46)
#loc129 = loc("/tmp/torchinductor_root/ts/ctsirzfzzd3q6hzmst3ijql2wxprbyku6agjaau5y4tork4ec7an.py":108:46)
#loc130 = loc("/tmp/torchinductor_root/ts/ctsirzfzzd3q6hzmst3ijql2wxprbyku6agjaau5y4tork4ec7an.py":110:24)
#loc131 = loc("/tmp/torchinductor_root/ts/ctsirzfzzd3q6hzmst3ijql2wxprbyku6agjaau5y4tork4ec7an.py":113:46)
#loc132 = loc("/tmp/torchinductor_root/ts/ctsirzfzzd3q6hzmst3ijql2wxprbyku6agjaau5y4tork4ec7an.py":116:25)
#loc133 = loc("/tmp/torchinductor_root/ts/ctsirzfzzd3q6hzmst3ijql2wxprbyku6agjaau5y4tork4ec7an.py":119:24)
#loc134 = loc("/tmp/torchinductor_root/ts/ctsirzfzzd3q6hzmst3ijql2wxprbyku6agjaau5y4tork4ec7an.py":120:36)
#loc135 = loc("/tmp/torchinductor_root/ts/ctsirzfzzd3q6hzmst3ijql2wxprbyku6agjaau5y4tork4ec7an.py":123:46)
#loc136 = loc("/tmp/torchinductor_root/ts/ctsirzfzzd3q6hzmst3ijql2wxprbyku6agjaau5y4tork4ec7an.py":125:46)
#loc137 = loc("/tmp/torchinductor_root/ts/ctsirzfzzd3q6hzmst3ijql2wxprbyku6agjaau5y4tork4ec7an.py":127:25)
#loc138 = loc("/tmp/torchinductor_root/ts/ctsirzfzzd3q6hzmst3ijql2wxprbyku6agjaau5y4tork4ec7an.py":128:30)
#loc139 = loc("/tmp/torchinductor_root/ts/ctsirzfzzd3q6hzmst3ijql2wxprbyku6agjaau5y4tork4ec7an.py":128:54)
#loc140 = loc("/tmp/torchinductor_root/ts/ctsirzfzzd3q6hzmst3ijql2wxprbyku6agjaau5y4tork4ec7an.py":129:30)
#loc141 = loc("/tmp/torchinductor_root/ts/ctsirzfzzd3q6hzmst3ijql2wxprbyku6agjaau5y4tork4ec7an.py":129:54)
#loc142 = loc("/tmp/torchinductor_root/ts/ctsirzfzzd3q6hzmst3ijql2wxprbyku6agjaau5y4tork4ec7an.py":130:30)
#loc143 = loc("/tmp/torchinductor_root/ts/ctsirzfzzd3q6hzmst3ijql2wxprbyku6agjaau5y4tork4ec7an.py":130:54)
#loc144 = loc("/tmp/torchinductor_root/ts/ctsirzfzzd3q6hzmst3ijql2wxprbyku6agjaau5y4tork4ec7an.py":131:30)
#loc145 = loc("/tmp/torchinductor_root/ts/ctsirzfzzd3q6hzmst3ijql2wxprbyku6agjaau5y4tork4ec7an.py":131:54)
#loc146 = loc("/tmp/torchinductor_root/ts/ctsirzfzzd3q6hzmst3ijql2wxprbyku6agjaau5y4tork4ec7an.py":97:4)
#loc147 = loc(callsite(#loc20 at #loc21))
#loc148 = loc(callsite(#loc22 at #loc21))
#loc149 = loc(callsite(#loc23 at #loc21))
#loc150 = loc(callsite(#loc24 at #loc21))
#loc151 = loc(callsite(#loc25 at #loc21))
#loc152 = loc(callsite(#loc26 at #loc21))
#loc153 = loc(callsite(#loc27 at #loc21))
#loc154 = loc(callsite(#loc28 at #loc21))
#loc155 = loc(callsite(#loc29 at #loc21))
#loc156 = loc(callsite(#loc34 at #loc35))
#loc158 = loc(callsite(#loc36 at #loc34))
#loc159 = loc(callsite(#loc37 at #loc34))
#loc160 = loc(callsite(#loc38 at #loc34))
#loc161 = loc(callsite(#loc39 at #loc34))
#loc162 = loc(callsite(#loc40 at #loc34))
#loc163 = loc(callsite(#loc41 at #loc34))
#loc164 = loc(callsite(#loc42 at #loc34))
#loc165 = loc(callsite(#loc43 at #loc34))
#loc166 = loc(callsite(#loc44 at #loc34))
#loc167 = loc(callsite(#loc45 at #loc34))
#loc168 = loc(callsite(#loc46 at #loc34))
#loc169 = loc(callsite(#loc47 at #loc34))
#loc170 = loc(callsite(#loc80 at #loc81))
#loc171 = loc(callsite(#loc82 at #loc81))
#loc172 = loc(callsite(#loc83 at #loc81))
#loc173 = loc(callsite(#loc84 at #loc81))
#loc174 = loc(callsite(#loc86 at #loc87))
#loc175 = loc(callsite(#loc88 at #loc87))
#loc176 = loc(callsite(#loc89 at #loc87))
#loc177 = loc(callsite(#loc90 at #loc87))
#loc178 = loc(callsite(#loc95 at #loc96))
#loc180 = loc(callsite(#loc80 at #loc95))
#loc181 = loc(callsite(#loc82 at #loc95))
#loc182 = loc(callsite(#loc83 at #loc95))
#loc183 = loc(callsite(#loc84 at #loc95))
#loc184 = loc(callsite(#loc98 at #loc99))
#loc186 = loc(callsite(#loc86 at #loc98))
#loc187 = loc(callsite(#loc88 at #loc98))
#loc188 = loc(callsite(#loc89 at #loc98))
#loc189 = loc(callsite(#loc90 at #loc98))
#loc190 = loc(callsite(#loc80 at #loc126))
#loc191 = loc(callsite(#loc82 at #loc126))
#loc192 = loc(callsite(#loc83 at #loc126))
#loc193 = loc(callsite(#loc84 at #loc126))
#loc194 = loc(callsite(#loc86 at #loc128))
#loc195 = loc(callsite(#loc88 at #loc128))
#loc196 = loc(callsite(#loc89 at #loc128))
#loc197 = loc(callsite(#loc90 at #loc128))
#loc198 = loc(callsite(#loc86 at #loc129))
#loc199 = loc(callsite(#loc88 at #loc129))
#loc200 = loc(callsite(#loc89 at #loc129))
#loc201 = loc(callsite(#loc90 at #loc129))
#loc202 = loc(callsite(#loc86 at #loc131))
#loc203 = loc(callsite(#loc88 at #loc131))
#loc204 = loc(callsite(#loc89 at #loc131))
#loc205 = loc(callsite(#loc90 at #loc131))
#loc206 = loc(callsite(#loc86 at #loc135))
#loc207 = loc(callsite(#loc88 at #loc135))
#loc208 = loc(callsite(#loc89 at #loc135))
#loc209 = loc(callsite(#loc90 at #loc135))
#loc210 = loc(callsite(#loc80 at #loc136))
#loc211 = loc(callsite(#loc82 at #loc136))
#loc212 = loc(callsite(#loc83 at #loc136))
#loc213 = loc(callsite(#loc84 at #loc136))
#loc214 = loc(callsite(#loc158 at #loc35))
#loc215 = loc(callsite(#loc159 at #loc35))
#loc216 = loc(callsite(#loc160 at #loc35))
#loc217 = loc(callsite(#loc161 at #loc35))
#loc218 = loc(callsite(#loc162 at #loc35))
#loc219 = loc(callsite(#loc163 at #loc35))
#loc220 = loc(callsite(#loc164 at #loc35))
#loc221 = loc(callsite(#loc165 at #loc35))
#loc222 = loc(callsite(#loc166 at #loc35))
#loc223 = loc(callsite(#loc167 at #loc35))
#loc224 = loc(callsite(#loc168 at #loc35))
#loc225 = loc(callsite(#loc169 at #loc35))
#loc226 = loc(callsite(#loc180 at #loc96))
#loc227 = loc(callsite(#loc181 at #loc96))
#loc228 = loc(callsite(#loc182 at #loc96))
#loc229 = loc(callsite(#loc183 at #loc96))
#loc230 = loc(callsite(#loc186 at #loc99))
#loc231 = loc(callsite(#loc187 at #loc99))
#loc232 = loc(callsite(#loc188 at #loc99))
#loc233 = loc(callsite(#loc189 at #loc99))
