#loc = loc("/tmp/torchinductor_root/5o/c5ohe7dwzkh25qttowotybn7r4bdjicpkl2pfz3a6d55m7ybszmd.py":18:0)
module {
  tt.func public @triton_poi_fused_clone_2(%arg0: !tt.ptr<bf16> {tt.divisibility = 16 : i32} loc("/tmp/torchinductor_root/5o/c5ohe7dwzkh25qttowotybn7r4bdjicpkl2pfz3a6d55m7ybszmd.py":18:0), %arg1: !tt.ptr<bf16> {tt.divisibility = 16 : i32} loc("/tmp/torchinductor_root/5o/c5ohe7dwzkh25qttowotybn7r4bdjicpkl2pfz3a6d55m7ybszmd.py":18:0), %arg2: i32 {tt.divisibility = 16 : i32} loc("/tmp/torchinductor_root/5o/c5ohe7dwzkh25qttowotybn7r4bdjicpkl2pfz3a6d55m7ybszmd.py":18:0)) attributes {noinline = false} {
    %cst = arith.constant dense<32768> : tensor<512xi32> loc(#loc1)
    %cst_0 = arith.constant dense<4096> : tensor<512xi32> loc(#loc1)
    %cst_1 = arith.constant dense<64> : tensor<512xi32> loc(#loc1)
    %c512_i32 = arith.constant 512 : i32 loc(#loc1)
    %0 = tt.get_program_id x : i32 loc(#loc2)
    %1 = arith.muli %0, %c512_i32 : i32 loc(#loc3)
    %2 = tt.make_range {end = 512 : i32, start = 0 : i32} : tensor<512xi32> loc(#loc4)
    %3 = tt.splat %1 : i32 -> tensor<512xi32> loc(#loc5)
    %4 = arith.addi %3, %2 : tensor<512xi32> loc(#loc5)
    %5 = arith.remsi %4, %cst_1 : tensor<512xi32> loc(#loc6)
    %6 = arith.divsi %4, %cst_1 : tensor<512xi32> loc(#loc7)
    %7 = arith.remsi %6, %cst_1 : tensor<512xi32> loc(#loc8)
    %8 = arith.divsi %4, %cst_0 : tensor<512xi32> loc(#loc9)
    %9 = arith.muli %8, %cst_1 : tensor<512xi32> loc(#loc10)
    %10 = arith.addi %5, %9 : tensor<512xi32> loc(#loc11)
    %11 = arith.muli %7, %cst : tensor<512xi32> loc(#loc12)
    %12 = arith.addi %10, %11 : tensor<512xi32> loc(#loc13)
    %13 = tt.splat %arg0 : !tt.ptr<bf16> -> tensor<512x!tt.ptr<bf16>> loc(#loc14)
    %14 = tt.addptr %13, %12 : tensor<512x!tt.ptr<bf16>>, tensor<512xi32> loc(#loc14)
    %15 = tt.load %14 : tensor<512x!tt.ptr<bf16>> loc(#loc15)
    %16 = arith.extf %15 : tensor<512xbf16> to tensor<512xf32> loc(#loc16)
    %17 = tt.splat %arg1 : !tt.ptr<bf16> -> tensor<512x!tt.ptr<bf16>> loc(#loc17)
    %18 = tt.addptr %17, %4 : tensor<512x!tt.ptr<bf16>>, tensor<512xi32> loc(#loc17)
    %19 = arith.truncf %16 : tensor<512xf32> to tensor<512xbf16> loc(#loc18)
    tt.store %18, %19 : tensor<512x!tt.ptr<bf16>> loc(#loc18)
    tt.return loc(#loc19)
  } loc(#loc)
} loc(#loc)
#loc1 = loc(unknown)
#loc2 = loc("/tmp/torchinductor_root/5o/c5ohe7dwzkh25qttowotybn7r4bdjicpkl2pfz3a6d55m7ybszmd.py":20:28)
#loc3 = loc("/tmp/torchinductor_root/5o/c5ohe7dwzkh25qttowotybn7r4bdjicpkl2pfz3a6d55m7ybszmd.py":20:33)
#loc4 = loc("/tmp/torchinductor_root/5o/c5ohe7dwzkh25qttowotybn7r4bdjicpkl2pfz3a6d55m7ybszmd.py":21:36)
#loc5 = loc("/tmp/torchinductor_root/5o/c5ohe7dwzkh25qttowotybn7r4bdjicpkl2pfz3a6d55m7ybszmd.py":21:23)
#loc6 = loc("/tmp/torchinductor_root/5o/c5ohe7dwzkh25qttowotybn7r4bdjicpkl2pfz3a6d55m7ybszmd.py":23:19)
#loc7 = loc("/tmp/torchinductor_root/5o/c5ohe7dwzkh25qttowotybn7r4bdjicpkl2pfz3a6d55m7ybszmd.py":24:21)
#loc8 = loc("/tmp/torchinductor_root/5o/c5ohe7dwzkh25qttowotybn7r4bdjicpkl2pfz3a6d55m7ybszmd.py":24:27)
#loc9 = loc("/tmp/torchinductor_root/5o/c5ohe7dwzkh25qttowotybn7r4bdjicpkl2pfz3a6d55m7ybszmd.py":25:19)
#loc10 = loc("/tmp/torchinductor_root/5o/c5ohe7dwzkh25qttowotybn7r4bdjicpkl2pfz3a6d55m7ybszmd.py":27:38)
#loc11 = loc("/tmp/torchinductor_root/5o/c5ohe7dwzkh25qttowotybn7r4bdjicpkl2pfz3a6d55m7ybszmd.py":27:35)
#loc12 = loc("/tmp/torchinductor_root/5o/c5ohe7dwzkh25qttowotybn7r4bdjicpkl2pfz3a6d55m7ybszmd.py":27:49)
#loc13 = loc("/tmp/torchinductor_root/5o/c5ohe7dwzkh25qttowotybn7r4bdjicpkl2pfz3a6d55m7ybszmd.py":27:43)
#loc14 = loc("/tmp/torchinductor_root/5o/c5ohe7dwzkh25qttowotybn7r4bdjicpkl2pfz3a6d55m7ybszmd.py":27:30)
#loc15 = loc("/tmp/torchinductor_root/5o/c5ohe7dwzkh25qttowotybn7r4bdjicpkl2pfz3a6d55m7ybszmd.py":27:54)
#loc16 = loc("/tmp/torchinductor_root/5o/c5ohe7dwzkh25qttowotybn7r4bdjicpkl2pfz3a6d55m7ybszmd.py":27:63)
#loc17 = loc("/tmp/torchinductor_root/5o/c5ohe7dwzkh25qttowotybn7r4bdjicpkl2pfz3a6d55m7ybszmd.py":28:25)
#loc18 = loc("/tmp/torchinductor_root/5o/c5ohe7dwzkh25qttowotybn7r4bdjicpkl2pfz3a6d55m7ybszmd.py":28:36)
#loc19 = loc("/tmp/torchinductor_root/5o/c5ohe7dwzkh25qttowotybn7r4bdjicpkl2pfz3a6d55m7ybszmd.py":28:4)
