#loc = loc("/tmp/torchinductor_root/2g/c2gwnlzz3yw2w4v2fclln27bc4q3ibtwiverhso5d4r4efwirqgk.py":18:0)
module {
  tt.func public @triton_poi_fused_index_9(%arg0: !tt.ptr<i64> {tt.divisibility = 16 : i32} loc("/tmp/torchinductor_root/2g/c2gwnlzz3yw2w4v2fclln27bc4q3ibtwiverhso5d4r4efwirqgk.py":18:0), %arg1: !tt.ptr<bf16> {tt.divisibility = 16 : i32} loc("/tmp/torchinductor_root/2g/c2gwnlzz3yw2w4v2fclln27bc4q3ibtwiverhso5d4r4efwirqgk.py":18:0), %arg2: !tt.ptr<bf16> {tt.divisibility = 16 : i32} loc("/tmp/torchinductor_root/2g/c2gwnlzz3yw2w4v2fclln27bc4q3ibtwiverhso5d4r4efwirqgk.py":18:0), %arg3: i32 {tt.divisibility = 16 : i32} loc("/tmp/torchinductor_root/2g/c2gwnlzz3yw2w4v2fclln27bc4q3ibtwiverhso5d4r4efwirqgk.py":18:0)) attributes {noinline = false} {
    %c768_i64 = arith.constant 768 : i64 loc(#loc1)
    %c0_i64 = arith.constant 0 : i64 loc(#loc1)
    %c77_i64 = arith.constant 77 : i64 loc(#loc1)
    %cst = arith.constant dense<768> : tensor<128xi32> loc(#loc1)
    %c128_i32 = arith.constant 128 : i32 loc(#loc1)
    %0 = tt.get_program_id x : i32 loc(#loc2)
    %1 = arith.muli %0, %c128_i32 : i32 loc(#loc3)
    %2 = tt.make_range {end = 128 : i32, start = 0 : i32} : tensor<128xi32> loc(#loc4)
    %3 = tt.splat %1 : i32 -> tensor<128xi32> loc(#loc5)
    %4 = arith.addi %3, %2 : tensor<128xi32> loc(#loc5)
    %5 = arith.cmpi slt, %4, %cst : tensor<128xi32> loc(#loc6)
    %6 = tt.load %arg0 : !tt.ptr<i64> loc(#loc7)
    %7 = arith.addi %6, %c77_i64 : i64 loc(#loc8)
    %8 = arith.cmpi slt, %6, %c0_i64 : i64 loc(#loc9)
    %9 = arith.select %8, %7, %6 : i64 loc(#loc10)
    %10 = arith.cmpi sge, %9, %c0_i64 : i64 loc(#loc11)
    %11 = arith.cmpi slt, %9, %c77_i64 : i64 loc(#loc12)
    %12 = arith.andi %10, %11 : i1 loc(#loc13)
    %13 = tt.splat %12 : i1 -> tensor<128xi1> loc(#loc13)
    tt.assert %13, "index out of bounds: 0 <= tmp5 < 77" : tensor<128xi1> loc(#loc14)
    %14 = arith.muli %9, %c768_i64 : i64 loc(#loc15)
    %15 = tt.splat %14 : i64 -> tensor<128xi64> loc(#loc15)
    %16 = arith.extsi %4 : tensor<128xi32> to tensor<128xi64> loc(#loc16)
    %17 = arith.addi %16, %15 : tensor<128xi64> loc(#loc16)
    %18 = tt.splat %arg1 : !tt.ptr<bf16> -> tensor<128x!tt.ptr<bf16>> loc(#loc17)
    %19 = tt.addptr %18, %17 : tensor<128x!tt.ptr<bf16>>, tensor<128xi64> loc(#loc17)
    %20 = tt.load %19, %5 : tensor<128x!tt.ptr<bf16>> loc(#loc18)
    %21 = arith.extf %20 : tensor<128xbf16> to tensor<128xf32> loc(#loc19)
    %22 = tt.splat %arg2 : !tt.ptr<bf16> -> tensor<128x!tt.ptr<bf16>> loc(#loc20)
    %23 = tt.addptr %22, %4 : tensor<128x!tt.ptr<bf16>>, tensor<128xi32> loc(#loc20)
    %24 = arith.truncf %21 : tensor<128xf32> to tensor<128xbf16> loc(#loc21)
    tt.store %23, %24, %5 : tensor<128x!tt.ptr<bf16>> loc(#loc21)
    tt.return loc(#loc22)
  } loc(#loc)
} loc(#loc)
#loc1 = loc(unknown)
#loc2 = loc("/tmp/torchinductor_root/2g/c2gwnlzz3yw2w4v2fclln27bc4q3ibtwiverhso5d4r4efwirqgk.py":20:28)
#loc3 = loc("/tmp/torchinductor_root/2g/c2gwnlzz3yw2w4v2fclln27bc4q3ibtwiverhso5d4r4efwirqgk.py":20:33)
#loc4 = loc("/tmp/torchinductor_root/2g/c2gwnlzz3yw2w4v2fclln27bc4q3ibtwiverhso5d4r4efwirqgk.py":21:36)
#loc5 = loc("/tmp/torchinductor_root/2g/c2gwnlzz3yw2w4v2fclln27bc4q3ibtwiverhso5d4r4efwirqgk.py":21:23)
#loc6 = loc("/tmp/torchinductor_root/2g/c2gwnlzz3yw2w4v2fclln27bc4q3ibtwiverhso5d4r4efwirqgk.py":22:21)
#loc7 = loc("/tmp/torchinductor_root/2g/c2gwnlzz3yw2w4v2fclln27bc4q3ibtwiverhso5d4r4efwirqgk.py":24:19)
#loc8 = loc("/tmp/torchinductor_root/2g/c2gwnlzz3yw2w4v2fclln27bc4q3ibtwiverhso5d4r4efwirqgk.py":27:18)
#loc9 = loc("/tmp/torchinductor_root/2g/c2gwnlzz3yw2w4v2fclln27bc4q3ibtwiverhso5d4r4efwirqgk.py":28:18)
#loc10 = loc("/tmp/torchinductor_root/2g/c2gwnlzz3yw2w4v2fclln27bc4q3ibtwiverhso5d4r4efwirqgk.py":29:32)
#loc11 = loc("/tmp/torchinductor_root/2g/c2gwnlzz3yw2w4v2fclln27bc4q3ibtwiverhso5d4r4efwirqgk.py":30:27)
#loc12 = loc("/tmp/torchinductor_root/2g/c2gwnlzz3yw2w4v2fclln27bc4q3ibtwiverhso5d4r4efwirqgk.py":30:43)
#loc13 = loc("/tmp/torchinductor_root/2g/c2gwnlzz3yw2w4v2fclln27bc4q3ibtwiverhso5d4r4efwirqgk.py":30:36)
#loc14 = loc("/tmp/torchinductor_root/2g/c2gwnlzz3yw2w4v2fclln27bc4q3ibtwiverhso5d4r4efwirqgk.py":30:48)
#loc15 = loc("/tmp/torchinductor_root/2g/c2gwnlzz3yw2w4v2fclln27bc4q3ibtwiverhso5d4r4efwirqgk.py":31:39)
#loc16 = loc("/tmp/torchinductor_root/2g/c2gwnlzz3yw2w4v2fclln27bc4q3ibtwiverhso5d4r4efwirqgk.py":31:35)
#loc17 = loc("/tmp/torchinductor_root/2g/c2gwnlzz3yw2w4v2fclln27bc4q3ibtwiverhso5d4r4efwirqgk.py":31:30)
#loc18 = loc("/tmp/torchinductor_root/2g/c2gwnlzz3yw2w4v2fclln27bc4q3ibtwiverhso5d4r4efwirqgk.py":31:46)
#loc19 = loc("/tmp/torchinductor_root/2g/c2gwnlzz3yw2w4v2fclln27bc4q3ibtwiverhso5d4r4efwirqgk.py":31:56)
#loc20 = loc("/tmp/torchinductor_root/2g/c2gwnlzz3yw2w4v2fclln27bc4q3ibtwiverhso5d4r4efwirqgk.py":32:25)
#loc21 = loc("/tmp/torchinductor_root/2g/c2gwnlzz3yw2w4v2fclln27bc4q3ibtwiverhso5d4r4efwirqgk.py":32:36)
#loc22 = loc("/tmp/torchinductor_root/2g/c2gwnlzz3yw2w4v2fclln27bc4q3ibtwiverhso5d4r4efwirqgk.py":32:4)
