#loc = loc("/tmp/torchinductor_root/ts/ctsirzfzzd3q6hzmst3ijql2wxprbyku6agjaau5y4tork4ec7an.py":18:0)
#loc1 = loc(unknown)
#loc31 = loc("/tmp/torchinductor_root/ts/ctsirzfzzd3q6hzmst3ijql2wxprbyku6agjaau5y4tork4ec7an.py":47:79)
#loc92 = loc("/tmp/torchinductor_root/ts/ctsirzfzzd3q6hzmst3ijql2wxprbyku6agjaau5y4tork4ec7an.py":87:40)
#loc95 = loc("/tmp/torchinductor_root/ts/ctsirzfzzd3q6hzmst3ijql2wxprbyku6agjaau5y4tork4ec7an.py":88:40)
#loc155 = loc(callsite(#loc1 at #loc31))
#loc179 = loc(callsite(#loc1 at #loc92))
#loc185 = loc(callsite(#loc1 at #loc95))
module {
  tt.func public @triton_red_fused__to_copy_add_amax_amin_clamp_mul_native_layer_norm_reciprocal_1(%arg0: !tt.ptr<bf16> {tt.divisibility = 16 : i32} loc("/tmp/torchinductor_root/ts/ctsirzfzzd3q6hzmst3ijql2wxprbyku6agjaau5y4tork4ec7an.py":18:0), %arg1: !tt.ptr<f32> {tt.divisibility = 16 : i32} loc("/tmp/torchinductor_root/ts/ctsirzfzzd3q6hzmst3ijql2wxprbyku6agjaau5y4tork4ec7an.py":18:0), %arg2: !tt.ptr<bf16> {tt.divisibility = 16 : i32} loc("/tmp/torchinductor_root/ts/ctsirzfzzd3q6hzmst3ijql2wxprbyku6agjaau5y4tork4ec7an.py":18:0), %arg3: !tt.ptr<bf16> {tt.divisibility = 16 : i32} loc("/tmp/torchinductor_root/ts/ctsirzfzzd3q6hzmst3ijql2wxprbyku6agjaau5y4tork4ec7an.py":18:0), %arg4: !tt.ptr<bf16> {tt.divisibility = 16 : i32} loc("/tmp/torchinductor_root/ts/ctsirzfzzd3q6hzmst3ijql2wxprbyku6agjaau5y4tork4ec7an.py":18:0), %arg5: !tt.ptr<bf16> {tt.divisibility = 16 : i32} loc("/tmp/torchinductor_root/ts/ctsirzfzzd3q6hzmst3ijql2wxprbyku6agjaau5y4tork4ec7an.py":18:0), %arg6: !tt.ptr<bf16> {tt.divisibility = 16 : i32} loc("/tmp/torchinductor_root/ts/ctsirzfzzd3q6hzmst3ijql2wxprbyku6agjaau5y4tork4ec7an.py":18:0), %arg7: !tt.ptr<bf16> {tt.divisibility = 16 : i32} loc("/tmp/torchinductor_root/ts/ctsirzfzzd3q6hzmst3ijql2wxprbyku6agjaau5y4tork4ec7an.py":18:0), %arg8: !tt.ptr<bf16> {tt.divisibility = 16 : i32} loc("/tmp/torchinductor_root/ts/ctsirzfzzd3q6hzmst3ijql2wxprbyku6agjaau5y4tork4ec7an.py":18:0), %arg9: !tt.ptr<bf16> {tt.divisibility = 16 : i32} loc("/tmp/torchinductor_root/ts/ctsirzfzzd3q6hzmst3ijql2wxprbyku6agjaau5y4tork4ec7an.py":18:0), %arg10: !tt.ptr<bf16> {tt.divisibility = 16 : i32} loc("/tmp/torchinductor_root/ts/ctsirzfzzd3q6hzmst3ijql2wxprbyku6agjaau5y4tork4ec7an.py":18:0), %arg11: !tt.ptr<bf16> {tt.divisibility = 16 : i32} loc("/tmp/torchinductor_root/ts/ctsirzfzzd3q6hzmst3ijql2wxprbyku6agjaau5y4tork4ec7an.py":18:0), %arg12: !tt.ptr<i8> {tt.divisibility = 16 : i32} loc("/tmp/torchinductor_root/ts/ctsirzfzzd3q6hzmst3ijql2wxprbyku6agjaau5y4tork4ec7an.py":18:0), %arg13: !tt.ptr<i8> {tt.divisibility = 16 : i32} loc("/tmp/torchinductor_root/ts/ctsirzfzzd3q6hzmst3ijql2wxprbyku6agjaau5y4tork4ec7an.py":18:0), %arg14: !tt.ptr<i8> {tt.divisibility = 16 : i32} loc("/tmp/torchinductor_root/ts/ctsirzfzzd3q6hzmst3ijql2wxprbyku6agjaau5y4tork4ec7an.py":18:0), %arg15: !tt.ptr<i8> {tt.divisibility = 16 : i32} loc("/tmp/torchinductor_root/ts/ctsirzfzzd3q6hzmst3ijql2wxprbyku6agjaau5y4tork4ec7an.py":18:0), %arg16: i32 {tt.divisibility = 16 : i32} loc("/tmp/torchinductor_root/ts/ctsirzfzzd3q6hzmst3ijql2wxprbyku6agjaau5y4tork4ec7an.py":18:0), %arg17: i32 {tt.divisibility = 16 : i32} loc("/tmp/torchinductor_root/ts/ctsirzfzzd3q6hzmst3ijql2wxprbyku6agjaau5y4tork4ec7an.py":18:0)) attributes {noinline = false} {
    %c4112_i32 = arith.constant 4112 : i32 loc(#loc1)
    %cst = arith.constant dense<1.270000e+02> : tensor<1x2048xf32> loc(#loc1)
    %cst_0 = arith.constant dense<-1.270000e+02> : tensor<1x2048xf32> loc(#loc1)
    %cst_1 = arith.constant dense<9.99999974E-6> : tensor<1x1xf32> loc(#loc1)
    %cst_2 = arith.constant dense<1.000000e+00> : tensor<1x1xf32> loc(#loc1)
    %cst_3 = arith.constant dense<0.000000e+00> : tensor<1x2048xbf16> loc(#loc1)
    %c2048_i32 = arith.constant 2048 : i32 loc(#loc1)
    %c3072_i32 = arith.constant 3072 : i32 loc(#loc1)
    %cst_4 = arith.constant dense<0.00787401571> : tensor<1x1xf32> loc(#loc1)
    %cst_5 = arith.constant dense<0.000000e+00> : tensor<1x1xf32> loc(#loc1)
    %cst_6 = arith.constant dense<1.000000e+00> : tensor<1x2048xf32> loc(#loc1)
    %cst_7 = arith.constant dense<9.99999997E-7> : tensor<1x1xf32> loc(#loc1)
    %cst_8 = arith.constant dense<3.072000e+03> : tensor<1x1xf32> loc(#loc1)
    %cst_9 = arith.constant dense<0xFF800000> : tensor<1x2048xf32> loc(#loc1)
    %cst_10 = arith.constant dense<0x7F800000> : tensor<1x2048xf32> loc(#loc1)
    %cst_11 = arith.constant dense<0.000000e+00> : tensor<1x2048xf32> loc(#loc1)
    %cst_12 = arith.constant 0.000000e+00 : f32 loc(#loc1)
    %cst_13 = arith.constant dense<3072> : tensor<1x2048xi32> loc(#loc1)
    %c0_i32 = arith.constant 0 : i32 loc(#loc1)
    %0 = tt.get_program_id x : i32 loc(#loc2)
    %1 = arith.cmpi slt, %0, %c4112_i32 : i32 loc(#loc3)
    %2 = tt.splat %1 : i1 -> tensor<1x1xi1> loc(#loc3)
    %3 = tt.make_range {end = 2048 : i32, start = 0 : i32} : tensor<2048xi32> loc(#loc4)
    %4 = tt.expand_dims %3 {axis = 0 : i32} : tensor<2048xi32> -> tensor<1x2048xi32> loc(#loc5)
    %5:3 = scf.for %arg18 = %c0_i32 to %c3072_i32 step %c2048_i32 iter_args(%arg19 = %cst_11, %arg20 = %cst_11, %arg21 = %cst_11) -> (tensor<1x2048xf32>, tensor<1x2048xf32>, tensor<1x2048xf32>)  : i32 {
      %32 = tt.splat %arg18 : i32 -> tensor<1x2048xi32> loc(#loc7)
      %33 = arith.addi %32, %4 : tensor<1x2048xi32> loc(#loc7)
      %34 = arith.cmpi slt, %33, %cst_13 : tensor<1x2048xi32> loc(#loc8)
      %35 = arith.muli %0, %c3072_i32 : i32 loc(#loc9)
      %36 = tt.splat %35 : i32 -> tensor<1x2048xi32> loc(#loc143)
      %37 = arith.addi %33, %36 : tensor<1x2048xi32> loc(#loc10)
      %38 = tt.splat %arg0 : !tt.ptr<bf16> -> tensor<1x2048x!tt.ptr<bf16>> loc(#loc11)
      %39 = tt.addptr %38, %37 : tensor<1x2048x!tt.ptr<bf16>>, tensor<1x2048xi32> loc(#loc11)
      %40 = tt.splat %1 : i1 -> tensor<1x2048xi1> loc(#loc144)
      %41 = arith.andi %34, %40 : tensor<1x2048xi1> loc(#loc12)
      %42 = tt.load %39, %41, %cst_3 evictionPolicy = evict_last : tensor<1x2048x!tt.ptr<bf16>> loc(#loc13)
      %43 = arith.extf %42 : tensor<1x2048xbf16> to tensor<1x2048xf32> loc(#loc14)
      %44 = arith.cmpi eq, %arg18, %c0_i32 : i32 loc(#loc15)
      %45:3 = scf.if %44 -> (tensor<1x2048xf32>, tensor<1x2048xf32>, tensor<1x2048xf32>) {
        scf.yield %cst_11, %43, %cst_6 : tensor<1x2048xf32>, tensor<1x2048xf32>, tensor<1x2048xf32> loc(#loc146)
      } else {
        %49 = arith.subf %43, %arg19 : tensor<1x2048xf32> loc(#loc147)
        %50 = arith.addf %arg21, %cst_6 : tensor<1x2048xf32> loc(#loc148)
        %51 = arith.divf %49, %50 : tensor<1x2048xf32> loc(#loc149)
        %52 = arith.addf %arg19, %51 : tensor<1x2048xf32> loc(#loc150)
        %53 = arith.subf %43, %52 : tensor<1x2048xf32> loc(#loc151)
        %54 = arith.mulf %49, %53 : tensor<1x2048xf32> loc(#loc152)
        %55 = arith.addf %arg20, %54 : tensor<1x2048xf32> loc(#loc153)
        scf.yield %55, %52, %50 : tensor<1x2048xf32>, tensor<1x2048xf32>, tensor<1x2048xf32> loc(#loc153)
      } loc(#loc145)
      %46 = arith.select %41, %45#1, %arg19 : tensor<1x2048xi1>, tensor<1x2048xf32> loc(#loc26)
      %47 = arith.select %41, %45#0, %arg20 : tensor<1x2048xi1>, tensor<1x2048xf32> loc(#loc27)
      %48 = arith.select %41, %45#2, %arg21 : tensor<1x2048xi1>, tensor<1x2048xf32> loc(#loc28)
      scf.yield %46, %47, %48 : tensor<1x2048xf32>, tensor<1x2048xf32>, tensor<1x2048xf32> loc(#loc29)
    } loc(#loc6)
    %6:3 = "tt.reduce"(%5#0, %5#1, %5#2) <{axis = 1 : i32}> ({
    ^bb0(%arg18: f32 loc(callsite(#loc1 at #loc31)), %arg19: f32 loc(callsite(#loc1 at #loc31)), %arg20: f32 loc(callsite(#loc1 at #loc31)), %arg21: f32 loc(callsite(#loc1 at #loc31)), %arg22: f32 loc(callsite(#loc1 at #loc31)), %arg23: f32 loc(callsite(#loc1 at #loc31))):
      %32 = arith.subf %arg21, %arg18 : f32 loc(#loc216)
      %33 = arith.addf %arg20, %arg23 : f32 loc(#loc217)
      %34 = arith.cmpf oeq, %33, %cst_12 : f32 loc(#loc218)
      %35 = arith.divf %arg23, %33 : f32 loc(#loc219)
      %36 = arith.select %34, %cst_12, %35 : f32 loc(#loc220)
      %37 = arith.mulf %32, %36 : f32 loc(#loc221)
      %38 = arith.addf %arg18, %37 : f32 loc(#loc222)
      %39 = arith.addf %arg19, %arg22 : f32 loc(#loc223)
      %40 = arith.mulf %32, %32 : f32 loc(#loc224)
      %41 = arith.mulf %40, %arg20 : f32 loc(#loc225)
      %42 = arith.mulf %41, %36 : f32 loc(#loc226)
      %43 = arith.addf %39, %42 : f32 loc(#loc227)
      tt.reduce.return %38, %43, %33 : f32, f32, f32 loc(#loc154)
    }) : (tensor<1x2048xf32>, tensor<1x2048xf32>, tensor<1x2048xf32>) -> (tensor<1xf32>, tensor<1xf32>, tensor<1xf32>) loc(#loc154)
    %7 = tt.expand_dims %6#0 {axis = 1 : i32} : tensor<1xf32> -> tensor<1x1xf32> loc(#loc44)
    %8 = tt.expand_dims %6#1 {axis = 1 : i32} : tensor<1xf32> -> tensor<1x1xf32> loc(#loc45)
    %9:2 = scf.for %arg18 = %c0_i32 to %c3072_i32 step %c2048_i32 iter_args(%arg19 = %cst_10, %arg20 = %cst_9) -> (tensor<1x2048xf32>, tensor<1x2048xf32>)  : i32 {
      %32 = tt.splat %arg18 : i32 -> tensor<1x2048xi32> loc(#loc47)
      %33 = arith.addi %32, %4 : tensor<1x2048xi32> loc(#loc47)
      %34 = arith.cmpi slt, %33, %cst_13 : tensor<1x2048xi32> loc(#loc48)
      %35 = arith.muli %0, %c3072_i32 : i32 loc(#loc49)
      %36 = tt.splat %35 : i32 -> tensor<1x2048xi32> loc(#loc168)
      %37 = arith.addi %33, %36 : tensor<1x2048xi32> loc(#loc50)
      %38 = tt.splat %arg0 : !tt.ptr<bf16> -> tensor<1x2048x!tt.ptr<bf16>> loc(#loc51)
      %39 = tt.addptr %38, %37 : tensor<1x2048x!tt.ptr<bf16>>, tensor<1x2048xi32> loc(#loc51)
      %40 = tt.splat %1 : i1 -> tensor<1x2048xi1> loc(#loc169)
      %41 = arith.andi %34, %40 : tensor<1x2048xi1> loc(#loc52)
      %42 = tt.load %39, %41, %cst_3 evictionPolicy = evict_first : tensor<1x2048x!tt.ptr<bf16>> loc(#loc53)
      %43 = arith.extf %42 : tensor<1x2048xbf16> to tensor<1x2048xf32> loc(#loc54)
      %44 = arith.addi %33, %cst_13 : tensor<1x2048xi32> loc(#loc55)
      %45 = tt.splat %arg1 : !tt.ptr<f32> -> tensor<1x2048x!tt.ptr<f32>> loc(#loc56)
      %46 = tt.addptr %45, %44 : tensor<1x2048x!tt.ptr<f32>>, tensor<1x2048xi32> loc(#loc56)
      %47 = tt.load %46, %34, %cst_11 evictionPolicy = evict_last : tensor<1x2048x!tt.ptr<f32>> loc(#loc57)
      %48 = tt.splat %arg2 : !tt.ptr<bf16> -> tensor<1x2048x!tt.ptr<bf16>> loc(#loc58)
      %49 = tt.addptr %48, %44 : tensor<1x2048x!tt.ptr<bf16>>, tensor<1x2048xi32> loc(#loc58)
      %50 = tt.load %49, %34, %cst_3 evictionPolicy = evict_last : tensor<1x2048x!tt.ptr<bf16>> loc(#loc59)
      %51 = arith.extf %50 : tensor<1x2048xbf16> to tensor<1x2048xf32> loc(#loc60)
      %52 = tt.addptr %45, %33 : tensor<1x2048x!tt.ptr<f32>>, tensor<1x2048xi32> loc(#loc61)
      %53 = tt.load %52, %34, %cst_11 evictionPolicy = evict_last : tensor<1x2048x!tt.ptr<f32>> loc(#loc62)
      %54 = tt.addptr %48, %33 : tensor<1x2048x!tt.ptr<bf16>>, tensor<1x2048xi32> loc(#loc63)
      %55 = tt.load %54, %34, %cst_3 evictionPolicy = evict_last : tensor<1x2048x!tt.ptr<bf16>> loc(#loc64)
      %56 = arith.extf %55 : tensor<1x2048xbf16> to tensor<1x2048xf32> loc(#loc65)
      %57 = tt.broadcast %7 : tensor<1x1xf32> -> tensor<1x2048xf32> loc(#loc66)
      %58 = arith.subf %43, %57 : tensor<1x2048xf32> loc(#loc66)
      %59 = arith.divf %8, %cst_8 : tensor<1x1xf32> loc(#loc67)
      %60 = arith.addf %59, %cst_7 : tensor<1x1xf32> loc(#loc68)
      %61 = tt.extern_elementwise %60 {libname = "", libpath = "", pure = true, symbol = "__nv_rsqrtf"} : (tensor<1x1xf32>) -> tensor<1x1xf32> loc(#loc69)
      %62 = tt.broadcast %61 : tensor<1x1xf32> -> tensor<1x2048xf32> loc(#loc70)
      %63 = arith.mulf %58, %62 : tensor<1x2048xf32> loc(#loc70)
      %64 = arith.addf %47, %51 : tensor<1x2048xf32> loc(#loc71)
      %65 = arith.addf %64, %cst_6 : tensor<1x2048xf32> loc(#loc72)
      %66 = arith.mulf %63, %65 : tensor<1x2048xf32> loc(#loc73)
      %67 = arith.addf %53, %56 : tensor<1x2048xf32> loc(#loc74)
      %68 = arith.addf %66, %67 : tensor<1x2048xf32> loc(#loc75)
      %69 = arith.cmpf olt, %arg19, %68 : tensor<1x2048xf32> loc(#loc170)
      %70 = arith.cmpf une, %arg19, %arg19 : tensor<1x2048xf32> loc(#loc171)
      %71 = arith.ori %69, %70 : tensor<1x2048xi1> loc(#loc172)
      %72 = arith.select %71, %arg19, %68 : tensor<1x2048xi1>, tensor<1x2048xf32> loc(#loc173)
      %73 = arith.select %41, %72, %arg19 : tensor<1x2048xi1>, tensor<1x2048xf32> loc(#loc81)
      %74 = arith.cmpf ogt, %arg20, %68 : tensor<1x2048xf32> loc(#loc174)
      %75 = arith.cmpf une, %arg20, %arg20 : tensor<1x2048xf32> loc(#loc175)
      %76 = arith.ori %74, %75 : tensor<1x2048xi1> loc(#loc176)
      %77 = arith.select %76, %arg20, %68 : tensor<1x2048xi1>, tensor<1x2048xf32> loc(#loc177)
      %78 = arith.select %41, %77, %arg20 : tensor<1x2048xi1>, tensor<1x2048xf32> loc(#loc87)
      %79 = tt.splat %arg3 : !tt.ptr<bf16> -> tensor<1x2048x!tt.ptr<bf16>> loc(#loc88)
      %80 = tt.addptr %79, %37 : tensor<1x2048x!tt.ptr<bf16>>, tensor<1x2048xi32> loc(#loc88)
      %81 = arith.truncf %68 : tensor<1x2048xf32> to tensor<1x2048xbf16> loc(#loc89)
      tt.store %80, %81, %41 : tensor<1x2048x!tt.ptr<bf16>> loc(#loc89)
      scf.yield %73, %78 : tensor<1x2048xf32>, tensor<1x2048xf32> loc(#loc90)
    } loc(#loc46)
    %10 = "tt.reduce"(%9#0) <{axis = 1 : i32}> ({
    ^bb0(%arg18: f32 loc(callsite(#loc1 at #loc92)), %arg19: f32 loc(callsite(#loc1 at #loc92))):
      %32 = arith.cmpf olt, %arg18, %arg19 : f32 loc(#loc228)
      %33 = arith.cmpf une, %arg18, %arg18 : f32 loc(#loc229)
      %34 = arith.ori %32, %33 : i1 loc(#loc230)
      %35 = arith.select %34, %arg18, %arg19 : f32 loc(#loc231)
      tt.reduce.return %35 : f32 loc(#loc178)
    }) : (tensor<1x2048xf32>) -> tensor<1xf32> loc(#loc178)
    %11 = tt.expand_dims %10 {axis = 1 : i32} : tensor<1xf32> -> tensor<1x1xf32> loc(#loc93)
    %12 = "tt.reduce"(%9#1) <{axis = 1 : i32}> ({
    ^bb0(%arg18: f32 loc(callsite(#loc1 at #loc95)), %arg19: f32 loc(callsite(#loc1 at #loc95))):
      %32 = arith.cmpf ogt, %arg18, %arg19 : f32 loc(#loc232)
      %33 = arith.cmpf une, %arg18, %arg18 : f32 loc(#loc233)
      %34 = arith.ori %32, %33 : i1 loc(#loc234)
      %35 = arith.select %34, %arg18, %arg19 : f32 loc(#loc235)
      tt.reduce.return %35 : f32 loc(#loc184)
    }) : (tensor<1x2048xf32>) -> tensor<1xf32> loc(#loc184)
    %13 = tt.expand_dims %12 {axis = 1 : i32} : tensor<1xf32> -> tensor<1x1xf32> loc(#loc96)
    %14 = tt.addptr %arg4, %0 : !tt.ptr<bf16>, i32 loc(#loc97)
    %15 = tt.splat %14 : !tt.ptr<bf16> -> tensor<1x1x!tt.ptr<bf16>> loc(#loc97)
    %16 = arith.truncf %11 : tensor<1x1xf32> to tensor<1x1xbf16> loc(#loc98)
    tt.store %15, %16, %2 : tensor<1x1x!tt.ptr<bf16>> loc(#loc98)
    %17 = tt.addptr %arg5, %0 : !tt.ptr<bf16>, i32 loc(#loc99)
    %18 = tt.splat %17 : !tt.ptr<bf16> -> tensor<1x1x!tt.ptr<bf16>> loc(#loc99)
    %19 = arith.truncf %13 : tensor<1x1xf32> to tensor<1x1xbf16> loc(#loc100)
    tt.store %18, %19, %2 : tensor<1x1x!tt.ptr<bf16>> loc(#loc100)
    %20 = tt.addptr %arg6, %0 : !tt.ptr<bf16>, i32 loc(#loc101)
    %21 = tt.splat %20 : !tt.ptr<bf16> -> tensor<1x1x!tt.ptr<bf16>> loc(#loc101)
    tt.store %21, %16, %2 : tensor<1x1x!tt.ptr<bf16>> loc(#loc102)
    %22 = tt.addptr %arg7, %0 : !tt.ptr<bf16>, i32 loc(#loc103)
    %23 = tt.splat %22 : !tt.ptr<bf16> -> tensor<1x1x!tt.ptr<bf16>> loc(#loc103)
    tt.store %23, %19, %2 : tensor<1x1x!tt.ptr<bf16>> loc(#loc104)
    %24 = tt.addptr %arg8, %0 : !tt.ptr<bf16>, i32 loc(#loc105)
    %25 = tt.splat %24 : !tt.ptr<bf16> -> tensor<1x1x!tt.ptr<bf16>> loc(#loc105)
    tt.store %25, %16, %2 : tensor<1x1x!tt.ptr<bf16>> loc(#loc106)
    %26 = tt.addptr %arg9, %0 : !tt.ptr<bf16>, i32 loc(#loc107)
    %27 = tt.splat %26 : !tt.ptr<bf16> -> tensor<1x1x!tt.ptr<bf16>> loc(#loc107)
    tt.store %27, %19, %2 : tensor<1x1x!tt.ptr<bf16>> loc(#loc108)
    %28 = tt.addptr %arg10, %0 : !tt.ptr<bf16>, i32 loc(#loc109)
    %29 = tt.splat %28 : !tt.ptr<bf16> -> tensor<1x1x!tt.ptr<bf16>> loc(#loc109)
    tt.store %29, %16, %2 : tensor<1x1x!tt.ptr<bf16>> loc(#loc110)
    %30 = tt.addptr %arg11, %0 : !tt.ptr<bf16>, i32 loc(#loc111)
    %31 = tt.splat %30 : !tt.ptr<bf16> -> tensor<1x1x!tt.ptr<bf16>> loc(#loc111)
    tt.store %31, %19, %2 : tensor<1x1x!tt.ptr<bf16>> loc(#loc112)
    scf.for %arg18 = %c0_i32 to %c3072_i32 step %c2048_i32  : i32 {
      %32 = tt.splat %arg18 : i32 -> tensor<1x2048xi32> loc(#loc114)
      %33 = arith.addi %32, %4 : tensor<1x2048xi32> loc(#loc114)
      %34 = arith.cmpi slt, %33, %cst_13 : tensor<1x2048xi32> loc(#loc115)
      %35 = arith.muli %0, %c3072_i32 : i32 loc(#loc116)
      %36 = tt.splat %35 : i32 -> tensor<1x2048xi32> loc(#loc190)
      %37 = arith.addi %33, %36 : tensor<1x2048xi32> loc(#loc117)
      %38 = tt.splat %arg3 : !tt.ptr<bf16> -> tensor<1x2048x!tt.ptr<bf16>> loc(#loc118)
      %39 = tt.addptr %38, %37 : tensor<1x2048x!tt.ptr<bf16>>, tensor<1x2048xi32> loc(#loc118)
      %40 = tt.splat %1 : i1 -> tensor<1x2048xi1> loc(#loc191)
      %41 = arith.andi %34, %40 : tensor<1x2048xi1> loc(#loc119)
      %42 = tt.load %39, %41, %cst_3 evictionPolicy = evict_first : tensor<1x2048x!tt.ptr<bf16>> loc(#loc120)
      %43 = arith.extf %42 : tensor<1x2048xbf16> to tensor<1x2048xf32> loc(#loc121)
      %44 = arith.cmpf olt, %11, %cst_5 : tensor<1x1xf32> loc(#loc192)
      %45 = arith.cmpf une, %11, %11 : tensor<1x1xf32> loc(#loc193)
      %46 = arith.ori %44, %45 : tensor<1x1xi1> loc(#loc194)
      %47 = arith.select %46, %11, %cst_5 : tensor<1x1xi1>, tensor<1x1xf32> loc(#loc195)
      %48 = arith.subf %cst_5, %47 : tensor<1x1xf32> loc(#loc123)
      %49 = arith.cmpf ogt, %13, %cst_5 : tensor<1x1xf32> loc(#loc196)
      %50 = arith.cmpf une, %13, %13 : tensor<1x1xf32> loc(#loc197)
      %51 = arith.ori %49, %50 : tensor<1x1xi1> loc(#loc198)
      %52 = arith.select %51, %13, %cst_5 : tensor<1x1xi1>, tensor<1x1xf32> loc(#loc199)
      %53 = arith.cmpf ogt, %48, %52 : tensor<1x1xf32> loc(#loc200)
      %54 = arith.cmpf une, %48, %48 : tensor<1x1xf32> loc(#loc201)
      %55 = arith.ori %53, %54 : tensor<1x1xi1> loc(#loc202)
      %56 = arith.select %55, %48, %52 : tensor<1x1xi1>, tensor<1x1xf32> loc(#loc203)
      %57 = arith.mulf %56, %cst_4 : tensor<1x1xf32> loc(#loc126)
      %58 = arith.cmpf ogt, %57, %cst_1 : tensor<1x1xf32> loc(#loc204)
      %59 = arith.cmpf une, %57, %57 : tensor<1x1xf32> loc(#loc205)
      %60 = arith.ori %58, %59 : tensor<1x1xi1> loc(#loc206)
      %61 = arith.select %60, %57, %cst_1 : tensor<1x1xi1>, tensor<1x1xf32> loc(#loc207)
      %62 = arith.divf %cst_2, %61 : tensor<1x1xf32> loc(#loc128)
      %63 = tt.broadcast %62 : tensor<1x1xf32> -> tensor<1x2048xf32> loc(#loc129)
      %64 = arith.mulf %43, %63 : tensor<1x2048xf32> loc(#loc129)
      %65 = tt.extern_elementwise %64 {libname = "", libpath = "", pure = true, symbol = "__nv_nearbyintf"} : (tensor<1x2048xf32>) -> tensor<1x2048xf32> loc(#loc130)
      %66 = arith.cmpf ogt, %65, %cst_0 : tensor<1x2048xf32> loc(#loc208)
      %67 = arith.cmpf une, %65, %65 : tensor<1x2048xf32> loc(#loc209)
      %68 = arith.ori %66, %67 : tensor<1x2048xi1> loc(#loc210)
      %69 = arith.select %68, %65, %cst_0 : tensor<1x2048xi1>, tensor<1x2048xf32> loc(#loc211)
      %70 = arith.cmpf olt, %69, %cst : tensor<1x2048xf32> loc(#loc212)
      %71 = arith.cmpf une, %69, %69 : tensor<1x2048xf32> loc(#loc213)
      %72 = arith.ori %70, %71 : tensor<1x2048xi1> loc(#loc214)
      %73 = arith.select %72, %69, %cst : tensor<1x2048xi1>, tensor<1x2048xf32> loc(#loc215)
      %74 = arith.fptosi %73 : tensor<1x2048xf32> to tensor<1x2048xi8> loc(#loc133)
      %75 = tt.splat %arg12 : !tt.ptr<i8> -> tensor<1x2048x!tt.ptr<i8>> loc(#loc134)
      %76 = tt.addptr %75, %37 : tensor<1x2048x!tt.ptr<i8>>, tensor<1x2048xi32> loc(#loc134)
      tt.store %76, %74, %41 : tensor<1x2048x!tt.ptr<i8>> loc(#loc135)
      %77 = tt.splat %arg13 : !tt.ptr<i8> -> tensor<1x2048x!tt.ptr<i8>> loc(#loc136)
      %78 = tt.addptr %77, %37 : tensor<1x2048x!tt.ptr<i8>>, tensor<1x2048xi32> loc(#loc136)
      tt.store %78, %74, %41 : tensor<1x2048x!tt.ptr<i8>> loc(#loc137)
      %79 = tt.splat %arg14 : !tt.ptr<i8> -> tensor<1x2048x!tt.ptr<i8>> loc(#loc138)
      %80 = tt.addptr %79, %37 : tensor<1x2048x!tt.ptr<i8>>, tensor<1x2048xi32> loc(#loc138)
      tt.store %80, %74, %41 : tensor<1x2048x!tt.ptr<i8>> loc(#loc139)
      %81 = tt.splat %arg15 : !tt.ptr<i8> -> tensor<1x2048x!tt.ptr<i8>> loc(#loc140)
      %82 = tt.addptr %81, %37 : tensor<1x2048x!tt.ptr<i8>>, tensor<1x2048xi32> loc(#loc140)
      tt.store %82, %74, %41 : tensor<1x2048x!tt.ptr<i8>> loc(#loc141)
    } loc(#loc113)
    tt.return loc(#loc142)
  } loc(#loc)
} loc(#loc)
#loc2 = loc("/tmp/torchinductor_root/ts/ctsirzfzzd3q6hzmst3ijql2wxprbyku6agjaau5y4tork4ec7an.py":23:28)
#loc3 = loc("/tmp/torchinductor_root/ts/ctsirzfzzd3q6hzmst3ijql2wxprbyku6agjaau5y4tork4ec7an.py":25:21)
#loc4 = loc("/tmp/torchinductor_root/ts/ctsirzfzzd3q6hzmst3ijql2wxprbyku6agjaau5y4tork4ec7an.py":26:27)
#loc5 = loc("/tmp/torchinductor_root/ts/ctsirzfzzd3q6hzmst3ijql2wxprbyku6agjaau5y4tork4ec7an.py":26:37)
#loc6 = loc("/tmp/torchinductor_root/ts/ctsirzfzzd3q6hzmst3ijql2wxprbyku6agjaau5y4tork4ec7an.py":32:40)
#loc7 = loc("/tmp/torchinductor_root/ts/ctsirzfzzd3q6hzmst3ijql2wxprbyku6agjaau5y4tork4ec7an.py":33:31)
#loc8 = loc("/tmp/torchinductor_root/ts/ctsirzfzzd3q6hzmst3ijql2wxprbyku6agjaau5y4tork4ec7an.py":34:29)
#loc9 = loc("/tmp/torchinductor_root/ts/ctsirzfzzd3q6hzmst3ijql2wxprbyku6agjaau5y4tork4ec7an.py":38:46)
#loc10 = loc("/tmp/torchinductor_root/ts/ctsirzfzzd3q6hzmst3ijql2wxprbyku6agjaau5y4tork4ec7an.py":38:41)
#loc11 = loc("/tmp/torchinductor_root/ts/ctsirzfzzd3q6hzmst3ijql2wxprbyku6agjaau5y4tork4ec7an.py":38:34)
#loc12 = loc("/tmp/torchinductor_root/ts/ctsirzfzzd3q6hzmst3ijql2wxprbyku6agjaau5y4tork4ec7an.py":38:61)
#loc13 = loc("/tmp/torchinductor_root/ts/ctsirzfzzd3q6hzmst3ijql2wxprbyku6agjaau5y4tork4ec7an.py":38:51)
#loc14 = loc("/tmp/torchinductor_root/ts/ctsirzfzzd3q6hzmst3ijql2wxprbyku6agjaau5y4tork4ec7an.py":38:112)
#loc15 = loc("/tmp/torchinductor_root/ts/ctsirzfzzd3q6hzmst3ijql2wxprbyku6agjaau5y4tork4ec7an.py":42:62)
#loc16 = loc("/usr/local/lib/python3.10/dist-packages/torch/_inductor/runtime/triton_helpers.py":203:7)
#loc17 = loc("/tmp/torchinductor_root/ts/ctsirzfzzd3q6hzmst3ijql2wxprbyku6agjaau5y4tork4ec7an.py":42:51)
#loc18 = loc("/usr/local/lib/python3.10/dist-packages/torch/_inductor/runtime/triton_helpers.py":206:31)
#loc19 = loc("/usr/local/lib/python3.10/dist-packages/torch/_inductor/runtime/triton_helpers.py":208:24)
#loc20 = loc("/usr/local/lib/python3.10/dist-packages/torch/_inductor/runtime/triton_helpers.py":209:30)
#loc21 = loc("/usr/local/lib/python3.10/dist-packages/torch/_inductor/runtime/triton_helpers.py":210:34)
#loc22 = loc("/usr/local/lib/python3.10/dist-packages/torch/_inductor/runtime/triton_helpers.py":210:26)
#loc23 = loc("/usr/local/lib/python3.10/dist-packages/torch/_inductor/runtime/triton_helpers.py":211:39)
#loc24 = loc("/usr/local/lib/python3.10/dist-packages/torch/_inductor/runtime/triton_helpers.py":211:31)
#loc25 = loc("/usr/local/lib/python3.10/dist-packages/torch/_inductor/runtime/triton_helpers.py":211:22)
#loc26 = loc("/tmp/torchinductor_root/ts/ctsirzfzzd3q6hzmst3ijql2wxprbyku6agjaau5y4tork4ec7an.py":44:62)
#loc27 = loc("/tmp/torchinductor_root/ts/ctsirzfzzd3q6hzmst3ijql2wxprbyku6agjaau5y4tork4ec7an.py":45:58)
#loc28 = loc("/tmp/torchinductor_root/ts/ctsirzfzzd3q6hzmst3ijql2wxprbyku6agjaau5y4tork4ec7an.py":46:66)
#loc29 = loc("/tmp/torchinductor_root/ts/ctsirzfzzd3q6hzmst3ijql2wxprbyku6agjaau5y4tork4ec7an.py":46:8)
#loc30 = loc("/usr/local/lib/python3.10/dist-packages/torch/_inductor/runtime/triton_helpers.py":229:46)
#loc32 = loc("/usr/local/lib/python3.10/dist-packages/torch/_inductor/runtime/triton_helpers.py":217:21)
#loc33 = loc("/usr/local/lib/python3.10/dist-packages/torch/_inductor/runtime/triton_helpers.py":218:28)
#loc34 = loc("/usr/local/lib/python3.10/dist-packages/torch/_inductor/runtime/triton_helpers.py":219:39)
#loc35 = loc("/usr/local/lib/python3.10/dist-packages/torch/_inductor/runtime/triton_helpers.py":219:60)
#loc36 = loc("/usr/local/lib/python3.10/dist-packages/torch/_inductor/runtime/triton_helpers.py":219:49)
#loc37 = loc("/usr/local/lib/python3.10/dist-packages/torch/_inductor/runtime/triton_helpers.py":221:25)
#loc38 = loc("/usr/local/lib/python3.10/dist-packages/torch/_inductor/runtime/triton_helpers.py":221:17)
#loc39 = loc("/usr/local/lib/python3.10/dist-packages/torch/_inductor/runtime/triton_helpers.py":222:15)
#loc40 = loc("/usr/local/lib/python3.10/dist-packages/torch/_inductor/runtime/triton_helpers.py":222:30)
#loc41 = loc("/usr/local/lib/python3.10/dist-packages/torch/_inductor/runtime/triton_helpers.py":222:38)
#loc42 = loc("/usr/local/lib/python3.10/dist-packages/torch/_inductor/runtime/triton_helpers.py":222:49)
#loc43 = loc("/usr/local/lib/python3.10/dist-packages/torch/_inductor/runtime/triton_helpers.py":222:22)
#loc44 = loc("/tmp/torchinductor_root/ts/ctsirzfzzd3q6hzmst3ijql2wxprbyku6agjaau5y4tork4ec7an.py":48:16)
#loc45 = loc("/tmp/torchinductor_root/ts/ctsirzfzzd3q6hzmst3ijql2wxprbyku6agjaau5y4tork4ec7an.py":49:16)
#loc46 = loc("/tmp/torchinductor_root/ts/ctsirzfzzd3q6hzmst3ijql2wxprbyku6agjaau5y4tork4ec7an.py":53:40)
#loc47 = loc("/tmp/torchinductor_root/ts/ctsirzfzzd3q6hzmst3ijql2wxprbyku6agjaau5y4tork4ec7an.py":54:31)
#loc48 = loc("/tmp/torchinductor_root/ts/ctsirzfzzd3q6hzmst3ijql2wxprbyku6agjaau5y4tork4ec7an.py":55:29)
#loc49 = loc("/tmp/torchinductor_root/ts/ctsirzfzzd3q6hzmst3ijql2wxprbyku6agjaau5y4tork4ec7an.py":59:46)
#loc50 = loc("/tmp/torchinductor_root/ts/ctsirzfzzd3q6hzmst3ijql2wxprbyku6agjaau5y4tork4ec7an.py":59:41)
#loc51 = loc("/tmp/torchinductor_root/ts/ctsirzfzzd3q6hzmst3ijql2wxprbyku6agjaau5y4tork4ec7an.py":59:34)
#loc52 = loc("/tmp/torchinductor_root/ts/ctsirzfzzd3q6hzmst3ijql2wxprbyku6agjaau5y4tork4ec7an.py":59:61)
#loc53 = loc("/tmp/torchinductor_root/ts/ctsirzfzzd3q6hzmst3ijql2wxprbyku6agjaau5y4tork4ec7an.py":59:51)
#loc54 = loc("/tmp/torchinductor_root/ts/ctsirzfzzd3q6hzmst3ijql2wxprbyku6agjaau5y4tork4ec7an.py":59:113)
#loc55 = loc("/tmp/torchinductor_root/ts/ctsirzfzzd3q6hzmst3ijql2wxprbyku6agjaau5y4tork4ec7an.py":60:42)
#loc56 = loc("/tmp/torchinductor_root/ts/ctsirzfzzd3q6hzmst3ijql2wxprbyku6agjaau5y4tork4ec7an.py":60:35)
#loc57 = loc("/tmp/torchinductor_root/ts/ctsirzfzzd3q6hzmst3ijql2wxprbyku6agjaau5y4tork4ec7an.py":60:49)
#loc58 = loc("/tmp/torchinductor_root/ts/ctsirzfzzd3q6hzmst3ijql2wxprbyku6agjaau5y4tork4ec7an.py":61:35)
#loc59 = loc("/tmp/torchinductor_root/ts/ctsirzfzzd3q6hzmst3ijql2wxprbyku6agjaau5y4tork4ec7an.py":61:49)
#loc60 = loc("/tmp/torchinductor_root/ts/ctsirzfzzd3q6hzmst3ijql2wxprbyku6agjaau5y4tork4ec7an.py":61:102)
#loc61 = loc("/tmp/torchinductor_root/ts/ctsirzfzzd3q6hzmst3ijql2wxprbyku6agjaau5y4tork4ec7an.py":62:35)
#loc62 = loc("/tmp/torchinductor_root/ts/ctsirzfzzd3q6hzmst3ijql2wxprbyku6agjaau5y4tork4ec7an.py":62:42)
#loc63 = loc("/tmp/torchinductor_root/ts/ctsirzfzzd3q6hzmst3ijql2wxprbyku6agjaau5y4tork4ec7an.py":63:35)
#loc64 = loc("/tmp/torchinductor_root/ts/ctsirzfzzd3q6hzmst3ijql2wxprbyku6agjaau5y4tork4ec7an.py":63:42)
#loc65 = loc("/tmp/torchinductor_root/ts/ctsirzfzzd3q6hzmst3ijql2wxprbyku6agjaau5y4tork4ec7an.py":63:95)
#loc66 = loc("/tmp/torchinductor_root/ts/ctsirzfzzd3q6hzmst3ijql2wxprbyku6agjaau5y4tork4ec7an.py":65:24)
#loc67 = loc("/tmp/torchinductor_root/ts/ctsirzfzzd3q6hzmst3ijql2wxprbyku6agjaau5y4tork4ec7an.py":67:24)
#loc68 = loc("/tmp/torchinductor_root/ts/ctsirzfzzd3q6hzmst3ijql2wxprbyku6agjaau5y4tork4ec7an.py":69:24)
#loc69 = loc("/tmp/torchinductor_root/ts/ctsirzfzzd3q6hzmst3ijql2wxprbyku6agjaau5y4tork4ec7an.py":70:32)
#loc70 = loc("/tmp/torchinductor_root/ts/ctsirzfzzd3q6hzmst3ijql2wxprbyku6agjaau5y4tork4ec7an.py":71:24)
#loc71 = loc("/tmp/torchinductor_root/ts/ctsirzfzzd3q6hzmst3ijql2wxprbyku6agjaau5y4tork4ec7an.py":74:24)
#loc72 = loc("/tmp/torchinductor_root/ts/ctsirzfzzd3q6hzmst3ijql2wxprbyku6agjaau5y4tork4ec7an.py":76:24)
#loc73 = loc("/tmp/torchinductor_root/ts/ctsirzfzzd3q6hzmst3ijql2wxprbyku6agjaau5y4tork4ec7an.py":77:24)
#loc74 = loc("/tmp/torchinductor_root/ts/ctsirzfzzd3q6hzmst3ijql2wxprbyku6agjaau5y4tork4ec7an.py":79:24)
#loc75 = loc("/tmp/torchinductor_root/ts/ctsirzfzzd3q6hzmst3ijql2wxprbyku6agjaau5y4tork4ec7an.py":80:24)
#loc76 = loc("/usr/local/lib/python3.10/dist-packages/torch/_inductor/runtime/triton_helpers.py":94:15)
#loc77 = loc("/tmp/torchinductor_root/ts/ctsirzfzzd3q6hzmst3ijql2wxprbyku6agjaau5y4tork4ec7an.py":82:47)
#loc78 = loc("/usr/local/lib/python3.10/dist-packages/torch/_inductor/runtime/triton_helpers.py":96:21)
#loc79 = loc("/usr/local/lib/python3.10/dist-packages/torch/_inductor/runtime/triton_helpers.py":96:16)
#loc80 = loc("/usr/local/lib/python3.10/dist-packages/torch/_inductor/runtime/triton_helpers.py":97:29)
#loc81 = loc("/tmp/torchinductor_root/ts/ctsirzfzzd3q6hzmst3ijql2wxprbyku6agjaau5y4tork4ec7an.py":83:50)
#loc82 = loc("/usr/local/lib/python3.10/dist-packages/torch/_inductor/runtime/triton_helpers.py":102:15)
#loc83 = loc("/tmp/torchinductor_root/ts/ctsirzfzzd3q6hzmst3ijql2wxprbyku6agjaau5y4tork4ec7an.py":84:47)
#loc84 = loc("/usr/local/lib/python3.10/dist-packages/torch/_inductor/runtime/triton_helpers.py":104:21)
#loc85 = loc("/usr/local/lib/python3.10/dist-packages/torch/_inductor/runtime/triton_helpers.py":104:16)
#loc86 = loc("/usr/local/lib/python3.10/dist-packages/torch/_inductor/runtime/triton_helpers.py":105:29)
#loc87 = loc("/tmp/torchinductor_root/ts/ctsirzfzzd3q6hzmst3ijql2wxprbyku6agjaau5y4tork4ec7an.py":85:50)
#loc88 = loc("/tmp/torchinductor_root/ts/ctsirzfzzd3q6hzmst3ijql2wxprbyku6agjaau5y4tork4ec7an.py":86:29)
#loc89 = loc("/tmp/torchinductor_root/ts/ctsirzfzzd3q6hzmst3ijql2wxprbyku6agjaau5y4tork4ec7an.py":86:53)
#loc90 = loc("/tmp/torchinductor_root/ts/ctsirzfzzd3q6hzmst3ijql2wxprbyku6agjaau5y4tork4ec7an.py":86:8)
#loc91 = loc("/usr/local/lib/python3.10/dist-packages/torch/_inductor/runtime/triton_helpers.py":110:29)
#loc93 = loc("/tmp/torchinductor_root/ts/ctsirzfzzd3q6hzmst3ijql2wxprbyku6agjaau5y4tork4ec7an.py":87:43)
#loc94 = loc("/usr/local/lib/python3.10/dist-packages/torch/_inductor/runtime/triton_helpers.py":115:29)
#loc96 = loc("/tmp/torchinductor_root/ts/ctsirzfzzd3q6hzmst3ijql2wxprbyku6agjaau5y4tork4ec7an.py":88:43)
#loc97 = loc("/tmp/torchinductor_root/ts/ctsirzfzzd3q6hzmst3ijql2wxprbyku6agjaau5y4tork4ec7an.py":89:25)
#loc98 = loc("/tmp/torchinductor_root/ts/ctsirzfzzd3q6hzmst3ijql2wxprbyku6agjaau5y4tork4ec7an.py":89:37)
#loc99 = loc("/tmp/torchinductor_root/ts/ctsirzfzzd3q6hzmst3ijql2wxprbyku6agjaau5y4tork4ec7an.py":90:25)
#loc100 = loc("/tmp/torchinductor_root/ts/ctsirzfzzd3q6hzmst3ijql2wxprbyku6agjaau5y4tork4ec7an.py":90:37)
#loc101 = loc("/tmp/torchinductor_root/ts/ctsirzfzzd3q6hzmst3ijql2wxprbyku6agjaau5y4tork4ec7an.py":91:25)
#loc102 = loc("/tmp/torchinductor_root/ts/ctsirzfzzd3q6hzmst3ijql2wxprbyku6agjaau5y4tork4ec7an.py":91:37)
#loc103 = loc("/tmp/torchinductor_root/ts/ctsirzfzzd3q6hzmst3ijql2wxprbyku6agjaau5y4tork4ec7an.py":92:25)
#loc104 = loc("/tmp/torchinductor_root/ts/ctsirzfzzd3q6hzmst3ijql2wxprbyku6agjaau5y4tork4ec7an.py":92:37)
#loc105 = loc("/tmp/torchinductor_root/ts/ctsirzfzzd3q6hzmst3ijql2wxprbyku6agjaau5y4tork4ec7an.py":93:25)
#loc106 = loc("/tmp/torchinductor_root/ts/ctsirzfzzd3q6hzmst3ijql2wxprbyku6agjaau5y4tork4ec7an.py":93:37)
#loc107 = loc("/tmp/torchinductor_root/ts/ctsirzfzzd3q6hzmst3ijql2wxprbyku6agjaau5y4tork4ec7an.py":94:25)
#loc108 = loc("/tmp/torchinductor_root/ts/ctsirzfzzd3q6hzmst3ijql2wxprbyku6agjaau5y4tork4ec7an.py":94:37)
#loc109 = loc("/tmp/torchinductor_root/ts/ctsirzfzzd3q6hzmst3ijql2wxprbyku6agjaau5y4tork4ec7an.py":95:25)
#loc110 = loc("/tmp/torchinductor_root/ts/ctsirzfzzd3q6hzmst3ijql2wxprbyku6agjaau5y4tork4ec7an.py":95:37)
#loc111 = loc("/tmp/torchinductor_root/ts/ctsirzfzzd3q6hzmst3ijql2wxprbyku6agjaau5y4tork4ec7an.py":96:26)
#loc112 = loc("/tmp/torchinductor_root/ts/ctsirzfzzd3q6hzmst3ijql2wxprbyku6agjaau5y4tork4ec7an.py":96:38)
#loc113 = loc("/tmp/torchinductor_root/ts/ctsirzfzzd3q6hzmst3ijql2wxprbyku6agjaau5y4tork4ec7an.py":97:40)
#loc114 = loc("/tmp/torchinductor_root/ts/ctsirzfzzd3q6hzmst3ijql2wxprbyku6agjaau5y4tork4ec7an.py":98:31)
#loc115 = loc("/tmp/torchinductor_root/ts/ctsirzfzzd3q6hzmst3ijql2wxprbyku6agjaau5y4tork4ec7an.py":99:29)
#loc116 = loc("/tmp/torchinductor_root/ts/ctsirzfzzd3q6hzmst3ijql2wxprbyku6agjaau5y4tork4ec7an.py":103:48)
#loc117 = loc("/tmp/torchinductor_root/ts/ctsirzfzzd3q6hzmst3ijql2wxprbyku6agjaau5y4tork4ec7an.py":103:43)
#loc118 = loc("/tmp/torchinductor_root/ts/ctsirzfzzd3q6hzmst3ijql2wxprbyku6agjaau5y4tork4ec7an.py":103:36)
#loc119 = loc("/tmp/torchinductor_root/ts/ctsirzfzzd3q6hzmst3ijql2wxprbyku6agjaau5y4tork4ec7an.py":103:63)
#loc120 = loc("/tmp/torchinductor_root/ts/ctsirzfzzd3q6hzmst3ijql2wxprbyku6agjaau5y4tork4ec7an.py":103:53)
#loc121 = loc("/tmp/torchinductor_root/ts/ctsirzfzzd3q6hzmst3ijql2wxprbyku6agjaau5y4tork4ec7an.py":103:115)
#loc122 = loc("/tmp/torchinductor_root/ts/ctsirzfzzd3q6hzmst3ijql2wxprbyku6agjaau5y4tork4ec7an.py":105:46)
#loc123 = loc("/tmp/torchinductor_root/ts/ctsirzfzzd3q6hzmst3ijql2wxprbyku6agjaau5y4tork4ec7an.py":106:17)
#loc124 = loc("/tmp/torchinductor_root/ts/ctsirzfzzd3q6hzmst3ijql2wxprbyku6agjaau5y4tork4ec7an.py":107:46)
#loc125 = loc("/tmp/torchinductor_root/ts/ctsirzfzzd3q6hzmst3ijql2wxprbyku6agjaau5y4tork4ec7an.py":108:46)
#loc126 = loc("/tmp/torchinductor_root/ts/ctsirzfzzd3q6hzmst3ijql2wxprbyku6agjaau5y4tork4ec7an.py":110:24)
#loc127 = loc("/tmp/torchinductor_root/ts/ctsirzfzzd3q6hzmst3ijql2wxprbyku6agjaau5y4tork4ec7an.py":113:46)
#loc128 = loc("/tmp/torchinductor_root/ts/ctsirzfzzd3q6hzmst3ijql2wxprbyku6agjaau5y4tork4ec7an.py":116:25)
#loc129 = loc("/tmp/torchinductor_root/ts/ctsirzfzzd3q6hzmst3ijql2wxprbyku6agjaau5y4tork4ec7an.py":119:24)
#loc130 = loc("/tmp/torchinductor_root/ts/ctsirzfzzd3q6hzmst3ijql2wxprbyku6agjaau5y4tork4ec7an.py":120:36)
#loc131 = loc("/tmp/torchinductor_root/ts/ctsirzfzzd3q6hzmst3ijql2wxprbyku6agjaau5y4tork4ec7an.py":123:46)
#loc132 = loc("/tmp/torchinductor_root/ts/ctsirzfzzd3q6hzmst3ijql2wxprbyku6agjaau5y4tork4ec7an.py":125:46)
#loc133 = loc("/tmp/torchinductor_root/ts/ctsirzfzzd3q6hzmst3ijql2wxprbyku6agjaau5y4tork4ec7an.py":127:25)
#loc134 = loc("/tmp/torchinductor_root/ts/ctsirzfzzd3q6hzmst3ijql2wxprbyku6agjaau5y4tork4ec7an.py":128:30)
#loc135 = loc("/tmp/torchinductor_root/ts/ctsirzfzzd3q6hzmst3ijql2wxprbyku6agjaau5y4tork4ec7an.py":128:54)
#loc136 = loc("/tmp/torchinductor_root/ts/ctsirzfzzd3q6hzmst3ijql2wxprbyku6agjaau5y4tork4ec7an.py":129:30)
#loc137 = loc("/tmp/torchinductor_root/ts/ctsirzfzzd3q6hzmst3ijql2wxprbyku6agjaau5y4tork4ec7an.py":129:54)
#loc138 = loc("/tmp/torchinductor_root/ts/ctsirzfzzd3q6hzmst3ijql2wxprbyku6agjaau5y4tork4ec7an.py":130:30)
#loc139 = loc("/tmp/torchinductor_root/ts/ctsirzfzzd3q6hzmst3ijql2wxprbyku6agjaau5y4tork4ec7an.py":130:54)
#loc140 = loc("/tmp/torchinductor_root/ts/ctsirzfzzd3q6hzmst3ijql2wxprbyku6agjaau5y4tork4ec7an.py":131:30)
#loc141 = loc("/tmp/torchinductor_root/ts/ctsirzfzzd3q6hzmst3ijql2wxprbyku6agjaau5y4tork4ec7an.py":131:54)
#loc142 = loc("/tmp/torchinductor_root/ts/ctsirzfzzd3q6hzmst3ijql2wxprbyku6agjaau5y4tork4ec7an.py":97:4)
#loc143 = loc(fused[#loc10, #loc9])
#loc144 = loc(fused[#loc12, #loc3])
#loc145 = loc(callsite(#loc16 at #loc17))
#loc146 = loc(callsite(#loc18 at #loc17))
#loc147 = loc(callsite(#loc19 at #loc17))
#loc148 = loc(callsite(#loc20 at #loc17))
#loc149 = loc(callsite(#loc21 at #loc17))
#loc150 = loc(callsite(#loc22 at #loc17))
#loc151 = loc(callsite(#loc23 at #loc17))
#loc152 = loc(callsite(#loc24 at #loc17))
#loc153 = loc(callsite(#loc25 at #loc17))
#loc154 = loc(callsite(#loc30 at #loc31))
#loc156 = loc(callsite(#loc32 at #loc30))
#loc157 = loc(callsite(#loc33 at #loc30))
#loc158 = loc(callsite(#loc34 at #loc30))
#loc159 = loc(callsite(#loc35 at #loc30))
#loc160 = loc(callsite(#loc36 at #loc30))
#loc161 = loc(callsite(#loc37 at #loc30))
#loc162 = loc(callsite(#loc38 at #loc30))
#loc163 = loc(callsite(#loc39 at #loc30))
#loc164 = loc(callsite(#loc40 at #loc30))
#loc165 = loc(callsite(#loc41 at #loc30))
#loc166 = loc(callsite(#loc42 at #loc30))
#loc167 = loc(callsite(#loc43 at #loc30))
#loc168 = loc(fused[#loc50, #loc49])
#loc169 = loc(fused[#loc52, #loc3])
#loc170 = loc(callsite(#loc76 at #loc77))
#loc171 = loc(callsite(#loc78 at #loc77))
#loc172 = loc(callsite(#loc79 at #loc77))
#loc173 = loc(callsite(#loc80 at #loc77))
#loc174 = loc(callsite(#loc82 at #loc83))
#loc175 = loc(callsite(#loc84 at #loc83))
#loc176 = loc(callsite(#loc85 at #loc83))
#loc177 = loc(callsite(#loc86 at #loc83))
#loc178 = loc(callsite(#loc91 at #loc92))
#loc180 = loc(callsite(#loc76 at #loc91))
#loc181 = loc(callsite(#loc78 at #loc91))
#loc182 = loc(callsite(#loc79 at #loc91))
#loc183 = loc(callsite(#loc80 at #loc91))
#loc184 = loc(callsite(#loc94 at #loc95))
#loc186 = loc(callsite(#loc82 at #loc94))
#loc187 = loc(callsite(#loc84 at #loc94))
#loc188 = loc(callsite(#loc85 at #loc94))
#loc189 = loc(callsite(#loc86 at #loc94))
#loc190 = loc(fused[#loc117, #loc116])
#loc191 = loc(fused[#loc119, #loc3])
#loc192 = loc(callsite(#loc76 at #loc122))
#loc193 = loc(callsite(#loc78 at #loc122))
#loc194 = loc(callsite(#loc79 at #loc122))
#loc195 = loc(callsite(#loc80 at #loc122))
#loc196 = loc(callsite(#loc82 at #loc124))
#loc197 = loc(callsite(#loc84 at #loc124))
#loc198 = loc(callsite(#loc85 at #loc124))
#loc199 = loc(callsite(#loc86 at #loc124))
#loc200 = loc(callsite(#loc82 at #loc125))
#loc201 = loc(callsite(#loc84 at #loc125))
#loc202 = loc(callsite(#loc85 at #loc125))
#loc203 = loc(callsite(#loc86 at #loc125))
#loc204 = loc(callsite(#loc82 at #loc127))
#loc205 = loc(callsite(#loc84 at #loc127))
#loc206 = loc(callsite(#loc85 at #loc127))
#loc207 = loc(callsite(#loc86 at #loc127))
#loc208 = loc(callsite(#loc82 at #loc131))
#loc209 = loc(callsite(#loc84 at #loc131))
#loc210 = loc(callsite(#loc85 at #loc131))
#loc211 = loc(callsite(#loc86 at #loc131))
#loc212 = loc(callsite(#loc76 at #loc132))
#loc213 = loc(callsite(#loc78 at #loc132))
#loc214 = loc(callsite(#loc79 at #loc132))
#loc215 = loc(callsite(#loc80 at #loc132))
#loc216 = loc(callsite(#loc156 at #loc31))
#loc217 = loc(callsite(#loc157 at #loc31))
#loc218 = loc(callsite(#loc158 at #loc31))
#loc219 = loc(callsite(#loc159 at #loc31))
#loc220 = loc(callsite(#loc160 at #loc31))
#loc221 = loc(callsite(#loc161 at #loc31))
#loc222 = loc(callsite(#loc162 at #loc31))
#loc223 = loc(callsite(#loc163 at #loc31))
#loc224 = loc(callsite(#loc164 at #loc31))
#loc225 = loc(callsite(#loc165 at #loc31))
#loc226 = loc(callsite(#loc166 at #loc31))
#loc227 = loc(callsite(#loc167 at #loc31))
#loc228 = loc(callsite(#loc180 at #loc92))
#loc229 = loc(callsite(#loc181 at #loc92))
#loc230 = loc(callsite(#loc182 at #loc92))
#loc231 = loc(callsite(#loc183 at #loc92))
#loc232 = loc(callsite(#loc186 at #loc95))
#loc233 = loc(callsite(#loc187 at #loc95))
#loc234 = loc(callsite(#loc188 at #loc95))
#loc235 = loc(callsite(#loc189 at #loc95))
