#loc = loc("/tmp/torchinductor_root/3j/c3javbtwo3kq53sidjme4mijol3flx6drv2tw7kvu43ep7t63egm.py":18:0)
#loc1 = loc(unknown)
#loc26 = loc("/tmp/torchinductor_root/3j/c3javbtwo3kq53sidjme4mijol3flx6drv2tw7kvu43ep7t63egm.py":48:27)
#loc39 = loc(callsite(#loc1 at #loc26))
module {
  tt.func public @triton_red_fused_addmm_0(%arg0: !tt.ptr<bf16> {tt.divisibility = 16 : i32} loc("/tmp/torchinductor_root/3j/c3javbtwo3kq53sidjme4mijol3flx6drv2tw7kvu43ep7t63egm.py":18:0), %arg1: !tt.ptr<bf16> {tt.divisibility = 16 : i32} loc("/tmp/torchinductor_root/3j/c3javbtwo3kq53sidjme4mijol3flx6drv2tw7kvu43ep7t63egm.py":18:0), %arg2: !tt.ptr<f32> {tt.divisibility = 16 : i32} loc("/tmp/torchinductor_root/3j/c3javbtwo3kq53sidjme4mijol3flx6drv2tw7kvu43ep7t63egm.py":18:0), %arg3: i32 {tt.divisibility = 16 : i32} loc("/tmp/torchinductor_root/3j/c3javbtwo3kq53sidjme4mijol3flx6drv2tw7kvu43ep7t63egm.py":18:0), %arg4: i32 {tt.divisibility = 16 : i32} loc("/tmp/torchinductor_root/3j/c3javbtwo3kq53sidjme4mijol3flx6drv2tw7kvu43ep7t63egm.py":18:0)) attributes {noinline = false} {
    %c3072_i32 = arith.constant 3072 : i32 loc(#loc1)
    %c9216_i32 = arith.constant 9216 : i32 loc(#loc1)
    %cst = arith.constant dense<1.000000e+00> : tensor<1x4096xf32> loc(#loc1)
    %cst_0 = arith.constant dense<0.000000e+00> : tensor<1x4096xbf16> loc(#loc1)
    %cst_1 = arith.constant dense<3072> : tensor<1x4096xi32> loc(#loc1)
    %cst_2 = arith.constant dense<0.000000e+00> : tensor<1x4096xf32> loc(#loc1)
    %0 = tt.get_program_id x : i32 loc(#loc2)
    %1 = arith.cmpi slt, %0, %c9216_i32 : i32 loc(#loc3)
    %2 = tt.splat %1 : i1 -> tensor<1x1xi1> loc(#loc3)
    %3 = tt.make_range {end = 4096 : i32, start = 0 : i32} : tensor<4096xi32> loc(#loc4)
    %4 = tt.expand_dims %3 {axis = 0 : i32} : tensor<4096xi32> -> tensor<1x4096xi32> loc(#loc5)
    %5 = arith.cmpi slt, %4, %cst_1 : tensor<1x4096xi32> loc(#loc6)
    %6 = tt.splat %arg0 : !tt.ptr<bf16> -> tensor<1x4096x!tt.ptr<bf16>> loc(#loc7)
    %7 = tt.addptr %6, %4 : tensor<1x4096x!tt.ptr<bf16>>, tensor<1x4096xi32> loc(#loc7)
    %8 = tt.load %7, %5, %cst_0 evictionPolicy = evict_last : tensor<1x4096x!tt.ptr<bf16>> loc(#loc8)
    %9 = arith.extf %8 : tensor<1x4096xbf16> to tensor<1x4096xf32> loc(#loc9)
    %10 = arith.muli %0, %c3072_i32 : i32 loc(#loc10)
    %11 = tt.splat %10 : i32 -> tensor<1x4096xi32> loc(#loc32)
    %12 = arith.addi %4, %11 : tensor<1x4096xi32> loc(#loc11)
    %13 = tt.splat %arg1 : !tt.ptr<bf16> -> tensor<1x4096x!tt.ptr<bf16>> loc(#loc12)
    %14 = tt.addptr %13, %12 : tensor<1x4096x!tt.ptr<bf16>>, tensor<1x4096xi32> loc(#loc12)
    %15 = tt.splat %1 : i1 -> tensor<1x4096xi1> loc(#loc33)
    %16 = arith.andi %5, %15 : tensor<1x4096xi1> loc(#loc13)
    %17 = tt.load %14, %16, %cst_0 evictionPolicy = evict_first : tensor<1x4096x!tt.ptr<bf16>> loc(#loc14)
    %18 = arith.extf %17 : tensor<1x4096xbf16> to tensor<1x4096xf32> loc(#loc15)
    %19 = arith.subf %cst_2, %9 : tensor<1x4096xf32> loc(#loc34)
    %20 = math.exp %19 : tensor<1x4096xf32> loc(#loc35)
    %21 = arith.addf %20, %cst : tensor<1x4096xf32> loc(#loc36)
    %22 = arith.divf %cst, %21 : tensor<1x4096xf32> loc(#loc37)
    %23 = arith.mulf %9, %22 : tensor<1x4096xf32> loc(#loc21)
    %24 = arith.mulf %23, %18 : tensor<1x4096xf32> loc(#loc22)
    %25 = arith.addf %24, %cst_2 : tensor<1x4096xf32> loc(#loc23)
    %26 = arith.select %16, %25, %cst_2 : tensor<1x4096xi1>, tensor<1x4096xf32> loc(#loc24)
    %27 = "tt.reduce"(%26) <{axis = 1 : i32}> ({
    ^bb0(%arg5: f32 loc(callsite(#loc1 at #loc26)), %arg6: f32 loc(callsite(#loc1 at #loc26))):
      %31 = arith.addf %arg5, %arg6 : f32 loc(#loc41)
      tt.reduce.return %31 : f32 loc(#loc38)
    }) : (tensor<1x4096xf32>) -> tensor<1xf32> loc(#loc38)
    %28 = tt.expand_dims %27 {axis = 1 : i32} : tensor<1xf32> -> tensor<1x1xf32> loc(#loc28)
    %29 = tt.addptr %arg2, %0 : !tt.ptr<f32>, i32 loc(#loc29)
    %30 = tt.splat %29 : !tt.ptr<f32> -> tensor<1x1x!tt.ptr<f32>> loc(#loc29)
    tt.store %30, %28, %2 : tensor<1x1x!tt.ptr<f32>> loc(#loc30)
    tt.return loc(#loc31)
  } loc(#loc)
} loc(#loc)
#loc2 = loc("/tmp/torchinductor_root/3j/c3javbtwo3kq53sidjme4mijol3flx6drv2tw7kvu43ep7t63egm.py":23:28)
#loc3 = loc("/tmp/torchinductor_root/3j/c3javbtwo3kq53sidjme4mijol3flx6drv2tw7kvu43ep7t63egm.py":25:21)
#loc4 = loc("/tmp/torchinductor_root/3j/c3javbtwo3kq53sidjme4mijol3flx6drv2tw7kvu43ep7t63egm.py":26:27)
#loc5 = loc("/tmp/torchinductor_root/3j/c3javbtwo3kq53sidjme4mijol3flx6drv2tw7kvu43ep7t63egm.py":26:37)
#loc6 = loc("/tmp/torchinductor_root/3j/c3javbtwo3kq53sidjme4mijol3flx6drv2tw7kvu43ep7t63egm.py":32:29)
#loc7 = loc("/tmp/torchinductor_root/3j/c3javbtwo3kq53sidjme4mijol3flx6drv2tw7kvu43ep7t63egm.py":36:34)
#loc8 = loc("/tmp/torchinductor_root/3j/c3javbtwo3kq53sidjme4mijol3flx6drv2tw7kvu43ep7t63egm.py":36:41)
#loc9 = loc("/tmp/torchinductor_root/3j/c3javbtwo3kq53sidjme4mijol3flx6drv2tw7kvu43ep7t63egm.py":36:94)
#loc10 = loc("/tmp/torchinductor_root/3j/c3javbtwo3kq53sidjme4mijol3flx6drv2tw7kvu43ep7t63egm.py":37:46)
#loc11 = loc("/tmp/torchinductor_root/3j/c3javbtwo3kq53sidjme4mijol3flx6drv2tw7kvu43ep7t63egm.py":37:41)
#loc12 = loc("/tmp/torchinductor_root/3j/c3javbtwo3kq53sidjme4mijol3flx6drv2tw7kvu43ep7t63egm.py":37:34)
#loc13 = loc("/tmp/torchinductor_root/3j/c3javbtwo3kq53sidjme4mijol3flx6drv2tw7kvu43ep7t63egm.py":37:61)
#loc14 = loc("/tmp/torchinductor_root/3j/c3javbtwo3kq53sidjme4mijol3flx6drv2tw7kvu43ep7t63egm.py":37:51)
#loc15 = loc("/tmp/torchinductor_root/3j/c3javbtwo3kq53sidjme4mijol3flx6drv2tw7kvu43ep7t63egm.py":37:113)
#loc16 = loc("/usr/local/lib/python3.10/dist-packages/triton/language/standard.py":47:30)
#loc17 = loc("/tmp/torchinductor_root/3j/c3javbtwo3kq53sidjme4mijol3flx6drv2tw7kvu43ep7t63egm.py":39:26)
#loc18 = loc("/usr/local/lib/python3.10/dist-packages/triton/language/standard.py":47:29)
#loc19 = loc("/usr/local/lib/python3.10/dist-packages/triton/language/standard.py":47:20)
#loc20 = loc("/usr/local/lib/python3.10/dist-packages/triton/language/standard.py":47:16)
#loc21 = loc("/tmp/torchinductor_root/3j/c3javbtwo3kq53sidjme4mijol3flx6drv2tw7kvu43ep7t63egm.py":40:22)
#loc22 = loc("/tmp/torchinductor_root/3j/c3javbtwo3kq53sidjme4mijol3flx6drv2tw7kvu43ep7t63egm.py":44:22)
#loc23 = loc("/tmp/torchinductor_root/3j/c3javbtwo3kq53sidjme4mijol3flx6drv2tw7kvu43ep7t63egm.py":46:25)
#loc24 = loc("/tmp/torchinductor_root/3j/c3javbtwo3kq53sidjme4mijol3flx6drv2tw7kvu43ep7t63egm.py":47:50)
#loc25 = loc("/usr/local/lib/python3.10/dist-packages/triton/language/standard.py":286:36)
#loc27 = loc("/usr/local/lib/python3.10/dist-packages/triton/language/standard.py":256:15)
#loc28 = loc("/tmp/torchinductor_root/3j/c3javbtwo3kq53sidjme4mijol3flx6drv2tw7kvu43ep7t63egm.py":48:30)
#loc29 = loc("/tmp/torchinductor_root/3j/c3javbtwo3kq53sidjme4mijol3flx6drv2tw7kvu43ep7t63egm.py":49:25)
#loc30 = loc("/tmp/torchinductor_root/3j/c3javbtwo3kq53sidjme4mijol3flx6drv2tw7kvu43ep7t63egm.py":49:37)
#loc31 = loc("/tmp/torchinductor_root/3j/c3javbtwo3kq53sidjme4mijol3flx6drv2tw7kvu43ep7t63egm.py":49:4)
#loc32 = loc(fused[#loc11, #loc10])
#loc33 = loc(fused[#loc13, #loc3])
#loc34 = loc(callsite(#loc16 at #loc17))
#loc35 = loc(callsite(#loc18 at #loc17))
#loc36 = loc(callsite(#loc19 at #loc17))
#loc37 = loc(callsite(#loc20 at #loc17))
#loc38 = loc(callsite(#loc25 at #loc26))
#loc40 = loc(callsite(#loc27 at #loc25))
#loc41 = loc(callsite(#loc40 at #loc26))
