#loc = loc("/tmp/torchinductor_root/3m/c3mgiydlquqgahxuxqrkeu3hg6gxhrbbjx4qxncdiesulz4vxqnh.py":18:0)
#loc1 = loc(unknown)
#loc49 = loc("/tmp/torchinductor_root/3m/c3mgiydlquqgahxuxqrkeu3hg6gxhrbbjx4qxncdiesulz4vxqnh.py":56:85)
#loc112 = loc(callsite(#loc1 at #loc49))
module {
  tt.func public @triton_red_fused_add_mul_native_layer_norm_12(%arg0: !tt.ptr<bf16> {tt.divisibility = 16 : i32} loc("/tmp/torchinductor_root/3m/c3mgiydlquqgahxuxqrkeu3hg6gxhrbbjx4qxncdiesulz4vxqnh.py":18:0), %arg1: !tt.ptr<bf16> {tt.divisibility = 16 : i32} loc("/tmp/torchinductor_root/3m/c3mgiydlquqgahxuxqrkeu3hg6gxhrbbjx4qxncdiesulz4vxqnh.py":18:0), %arg2: !tt.ptr<bf16> {tt.divisibility = 16 : i32} loc("/tmp/torchinductor_root/3m/c3mgiydlquqgahxuxqrkeu3hg6gxhrbbjx4qxncdiesulz4vxqnh.py":18:0), %arg3: !tt.ptr<bf16> {tt.divisibility = 16 : i32} loc("/tmp/torchinductor_root/3m/c3mgiydlquqgahxuxqrkeu3hg6gxhrbbjx4qxncdiesulz4vxqnh.py":18:0), %arg4: !tt.ptr<bf16> {tt.divisibility = 16 : i32} loc("/tmp/torchinductor_root/3m/c3mgiydlquqgahxuxqrkeu3hg6gxhrbbjx4qxncdiesulz4vxqnh.py":18:0), %arg5: !tt.ptr<bf16> {tt.divisibility = 16 : i32} loc("/tmp/torchinductor_root/3m/c3mgiydlquqgahxuxqrkeu3hg6gxhrbbjx4qxncdiesulz4vxqnh.py":18:0), %arg6: i32 {tt.divisibility = 16 : i32} loc("/tmp/torchinductor_root/3m/c3mgiydlquqgahxuxqrkeu3hg6gxhrbbjx4qxncdiesulz4vxqnh.py":18:0), %arg7: i32 {tt.divisibility = 16 : i32} loc("/tmp/torchinductor_root/3m/c3mgiydlquqgahxuxqrkeu3hg6gxhrbbjx4qxncdiesulz4vxqnh.py":18:0)) attributes {noinline = false} {
    %c3600_i32 = arith.constant 3600 : i32 loc(#loc1)
    %cst = arith.constant 0.000000e+00 : f32 loc(#loc1)
    %cst_0 = arith.constant dense<0.000000e+00> : tensor<1x512xf32> loc(#loc1)
    %cst_1 = arith.constant dense<0.000000e+00> : tensor<1x512xbf16> loc(#loc1)
    %c512_i32 = arith.constant 512 : i32 loc(#loc1)
    %c3072_i32 = arith.constant 3072 : i32 loc(#loc1)
    %cst_2 = arith.constant dense<1.000000e+00> : tensor<1x512xf32> loc(#loc1)
    %cst_3 = arith.constant dense<9.99999997E-7> : tensor<1x1xf32> loc(#loc1)
    %cst_4 = arith.constant dense<3.072000e+03> : tensor<1x1xf32> loc(#loc1)
    %cst_5 = arith.constant dense<9216> : tensor<1x512xi32> loc(#loc1)
    %cst_6 = arith.constant dense<12288> : tensor<1x512xi32> loc(#loc1)
    %cst_7 = arith.constant dense<6144> : tensor<1x512xi32> loc(#loc1)
    %cst_8 = arith.constant dense<3072> : tensor<1x512xi32> loc(#loc1)
    %c0_i32 = arith.constant 0 : i32 loc(#loc1)
    %0 = tt.get_program_id x : i32 loc(#loc2)
    %1 = arith.cmpi slt, %0, %c3600_i32 : i32 loc(#loc3)
    %2 = tt.make_range {end = 512 : i32, start = 0 : i32} : tensor<512xi32> loc(#loc4)
    %3 = tt.expand_dims %2 {axis = 0 : i32} : tensor<512xi32> -> tensor<1x512xi32> loc(#loc5)
    %4:3 = scf.for %arg8 = %c0_i32 to %c3072_i32 step %c512_i32 iter_args(%arg9 = %cst_0, %arg10 = %cst_0, %arg11 = %cst_0) -> (tensor<1x512xf32>, tensor<1x512xf32>, tensor<1x512xf32>)  : i32 {
      %8 = tt.splat %arg8 : i32 -> tensor<1x512xi32> loc(#loc7)
      %9 = arith.addi %8, %3 : tensor<1x512xi32> loc(#loc7)
      %10 = arith.cmpi slt, %9, %cst_8 : tensor<1x512xi32> loc(#loc8)
      %11 = arith.muli %0, %c3072_i32 : i32 loc(#loc9)
      %12 = tt.splat %11 : i32 -> tensor<1x512xi32> loc(#loc100)
      %13 = arith.addi %9, %12 : tensor<1x512xi32> loc(#loc10)
      %14 = tt.splat %arg1 : !tt.ptr<bf16> -> tensor<1x512x!tt.ptr<bf16>> loc(#loc11)
      %15 = tt.addptr %14, %13 : tensor<1x512x!tt.ptr<bf16>>, tensor<1x512xi32> loc(#loc11)
      %16 = tt.splat %1 : i1 -> tensor<1x512xi1> loc(#loc101)
      %17 = arith.andi %10, %16 : tensor<1x512xi1> loc(#loc12)
      %18 = tt.load %15, %17, %cst_1 evictionPolicy = evict_first : tensor<1x512x!tt.ptr<bf16>> loc(#loc13)
      %19 = arith.extf %18 : tensor<1x512xbf16> to tensor<1x512xf32> loc(#loc14)
      %20 = arith.addi %9, %cst_7 : tensor<1x512xi32> loc(#loc15)
      %21 = tt.splat %arg2 : !tt.ptr<bf16> -> tensor<1x512x!tt.ptr<bf16>> loc(#loc16)
      %22 = tt.addptr %21, %20 : tensor<1x512x!tt.ptr<bf16>>, tensor<1x512xi32> loc(#loc16)
      %23 = tt.load %22, %10, %cst_1 evictionPolicy = evict_last : tensor<1x512x!tt.ptr<bf16>> loc(#loc17)
      %24 = arith.extf %23 : tensor<1x512xbf16> to tensor<1x512xf32> loc(#loc18)
      %25 = tt.splat %arg3 : !tt.ptr<bf16> -> tensor<1x512x!tt.ptr<bf16>> loc(#loc19)
      %26 = tt.addptr %25, %20 : tensor<1x512x!tt.ptr<bf16>>, tensor<1x512xi32> loc(#loc19)
      %27 = tt.load %26, %10, %cst_1 evictionPolicy = evict_last : tensor<1x512x!tt.ptr<bf16>> loc(#loc20)
      %28 = arith.extf %27 : tensor<1x512xbf16> to tensor<1x512xf32> loc(#loc21)
      %29 = tt.splat %arg0 : !tt.ptr<bf16> -> tensor<1x512x!tt.ptr<bf16>> loc(#loc22)
      %30 = tt.addptr %29, %13 : tensor<1x512x!tt.ptr<bf16>>, tensor<1x512xi32> loc(#loc22)
      %31 = tt.load %30, %17, %cst_1 evictionPolicy = evict_first : tensor<1x512x!tt.ptr<bf16>> loc(#loc23)
      %32 = arith.extf %31 : tensor<1x512xbf16> to tensor<1x512xf32> loc(#loc24)
      %33 = tt.splat %arg4 : !tt.ptr<bf16> -> tensor<1x512x!tt.ptr<bf16>> loc(#loc25)
      %34 = tt.addptr %33, %9 : tensor<1x512x!tt.ptr<bf16>>, tensor<1x512xi32> loc(#loc25)
      %35 = tt.load %34, %10, %cst_1 evictionPolicy = evict_last : tensor<1x512x!tt.ptr<bf16>> loc(#loc26)
      %36 = arith.extf %35 : tensor<1x512xbf16> to tensor<1x512xf32> loc(#loc27)
      %37 = arith.addf %24, %28 : tensor<1x512xf32> loc(#loc28)
      %38 = arith.addf %32, %36 : tensor<1x512xf32> loc(#loc29)
      %39 = arith.mulf %37, %38 : tensor<1x512xf32> loc(#loc30)
      %40 = arith.addf %19, %39 : tensor<1x512xf32> loc(#loc31)
      %41 = arith.cmpi eq, %arg8, %c0_i32 : i32 loc(#loc32)
      %42:3 = scf.if %41 -> (tensor<1x512xf32>, tensor<1x512xf32>, tensor<1x512xf32>) {
        scf.yield %cst_0, %40, %cst_2 : tensor<1x512xf32>, tensor<1x512xf32>, tensor<1x512xf32> loc(#loc103)
      } else {
        %47 = arith.subf %40, %arg9 : tensor<1x512xf32> loc(#loc104)
        %48 = arith.addf %arg11, %cst_2 : tensor<1x512xf32> loc(#loc105)
        %49 = arith.divf %47, %48 : tensor<1x512xf32> loc(#loc106)
        %50 = arith.addf %arg9, %49 : tensor<1x512xf32> loc(#loc107)
        %51 = arith.subf %40, %50 : tensor<1x512xf32> loc(#loc108)
        %52 = arith.mulf %47, %51 : tensor<1x512xf32> loc(#loc109)
        %53 = arith.addf %arg10, %52 : tensor<1x512xf32> loc(#loc110)
        scf.yield %53, %50, %48 : tensor<1x512xf32>, tensor<1x512xf32>, tensor<1x512xf32> loc(#loc110)
      } loc(#loc102)
      %43 = arith.select %17, %42#1, %arg9 : tensor<1x512xi1>, tensor<1x512xf32> loc(#loc43)
      %44 = arith.select %17, %42#0, %arg10 : tensor<1x512xi1>, tensor<1x512xf32> loc(#loc44)
      %45 = arith.select %17, %42#2, %arg11 : tensor<1x512xi1>, tensor<1x512xf32> loc(#loc45)
      %46 = arith.truncf %40 : tensor<1x512xf32> to tensor<1x512xbf16> loc(#loc46)
      tt.store %30, %46, %17 : tensor<1x512x!tt.ptr<bf16>> loc(#loc46)
      scf.yield %43, %44, %45 : tensor<1x512xf32>, tensor<1x512xf32>, tensor<1x512xf32> loc(#loc47)
    } loc(#loc6)
    %5:3 = "tt.reduce"(%4#0, %4#1, %4#2) <{axis = 1 : i32}> ({
    ^bb0(%arg8: f32 loc(callsite(#loc1 at #loc49)), %arg9: f32 loc(callsite(#loc1 at #loc49)), %arg10: f32 loc(callsite(#loc1 at #loc49)), %arg11: f32 loc(callsite(#loc1 at #loc49)), %arg12: f32 loc(callsite(#loc1 at #loc49)), %arg13: f32 loc(callsite(#loc1 at #loc49))):
      %8 = arith.subf %arg11, %arg8 : f32 loc(#loc127)
      %9 = arith.addf %arg10, %arg13 : f32 loc(#loc128)
      %10 = arith.cmpf oeq, %9, %cst : f32 loc(#loc129)
      %11 = arith.divf %arg13, %9 : f32 loc(#loc130)
      %12 = arith.select %10, %cst, %11 : f32 loc(#loc131)
      %13 = arith.mulf %8, %12 : f32 loc(#loc132)
      %14 = arith.addf %arg8, %13 : f32 loc(#loc133)
      %15 = arith.addf %arg9, %arg12 : f32 loc(#loc134)
      %16 = arith.mulf %8, %8 : f32 loc(#loc135)
      %17 = arith.mulf %16, %arg10 : f32 loc(#loc136)
      %18 = arith.mulf %17, %12 : f32 loc(#loc137)
      %19 = arith.addf %15, %18 : f32 loc(#loc138)
      tt.reduce.return %14, %19, %9 : f32, f32, f32 loc(#loc111)
    }) : (tensor<1x512xf32>, tensor<1x512xf32>, tensor<1x512xf32>) -> (tensor<1xf32>, tensor<1xf32>, tensor<1xf32>) loc(#loc111)
    %6 = tt.expand_dims %5#0 {axis = 1 : i32} : tensor<1xf32> -> tensor<1x1xf32> loc(#loc62)
    %7 = tt.expand_dims %5#1 {axis = 1 : i32} : tensor<1xf32> -> tensor<1x1xf32> loc(#loc63)
    scf.for %arg8 = %c0_i32 to %c3072_i32 step %c512_i32  : i32 {
      %8 = tt.splat %arg8 : i32 -> tensor<1x512xi32> loc(#loc65)
      %9 = arith.addi %8, %3 : tensor<1x512xi32> loc(#loc65)
      %10 = arith.cmpi slt, %9, %cst_8 : tensor<1x512xi32> loc(#loc66)
      %11 = arith.muli %0, %c3072_i32 : i32 loc(#loc67)
      %12 = tt.splat %11 : i32 -> tensor<1x512xi32> loc(#loc125)
      %13 = arith.addi %9, %12 : tensor<1x512xi32> loc(#loc68)
      %14 = tt.splat %arg0 : !tt.ptr<bf16> -> tensor<1x512x!tt.ptr<bf16>> loc(#loc69)
      %15 = tt.addptr %14, %13 : tensor<1x512x!tt.ptr<bf16>>, tensor<1x512xi32> loc(#loc69)
      %16 = tt.splat %1 : i1 -> tensor<1x512xi1> loc(#loc126)
      %17 = arith.andi %10, %16 : tensor<1x512xi1> loc(#loc70)
      %18 = tt.load %15, %17, %cst_1 evictionPolicy = evict_first : tensor<1x512x!tt.ptr<bf16>> loc(#loc71)
      %19 = arith.extf %18 : tensor<1x512xbf16> to tensor<1x512xf32> loc(#loc72)
      %20 = arith.addi %9, %cst_6 : tensor<1x512xi32> loc(#loc73)
      %21 = tt.splat %arg2 : !tt.ptr<bf16> -> tensor<1x512x!tt.ptr<bf16>> loc(#loc74)
      %22 = tt.addptr %21, %20 : tensor<1x512x!tt.ptr<bf16>>, tensor<1x512xi32> loc(#loc74)
      %23 = tt.load %22, %10, %cst_1 evictionPolicy = evict_last : tensor<1x512x!tt.ptr<bf16>> loc(#loc75)
      %24 = arith.extf %23 : tensor<1x512xbf16> to tensor<1x512xf32> loc(#loc76)
      %25 = tt.splat %arg3 : !tt.ptr<bf16> -> tensor<1x512x!tt.ptr<bf16>> loc(#loc77)
      %26 = tt.addptr %25, %20 : tensor<1x512x!tt.ptr<bf16>>, tensor<1x512xi32> loc(#loc77)
      %27 = tt.load %26, %10, %cst_1 evictionPolicy = evict_last : tensor<1x512x!tt.ptr<bf16>> loc(#loc78)
      %28 = arith.extf %27 : tensor<1x512xbf16> to tensor<1x512xf32> loc(#loc79)
      %29 = arith.addi %9, %cst_5 : tensor<1x512xi32> loc(#loc80)
      %30 = tt.addptr %21, %29 : tensor<1x512x!tt.ptr<bf16>>, tensor<1x512xi32> loc(#loc81)
      %31 = tt.load %30, %10, %cst_1 evictionPolicy = evict_last : tensor<1x512x!tt.ptr<bf16>> loc(#loc82)
      %32 = arith.extf %31 : tensor<1x512xbf16> to tensor<1x512xf32> loc(#loc83)
      %33 = tt.addptr %25, %29 : tensor<1x512x!tt.ptr<bf16>>, tensor<1x512xi32> loc(#loc84)
      %34 = tt.load %33, %10, %cst_1 evictionPolicy = evict_last : tensor<1x512x!tt.ptr<bf16>> loc(#loc85)
      %35 = arith.extf %34 : tensor<1x512xbf16> to tensor<1x512xf32> loc(#loc86)
      %36 = tt.broadcast %6 : tensor<1x1xf32> -> tensor<1x512xf32> loc(#loc87)
      %37 = arith.subf %19, %36 : tensor<1x512xf32> loc(#loc87)
      %38 = arith.divf %7, %cst_4 : tensor<1x1xf32> loc(#loc88)
      %39 = arith.addf %38, %cst_3 : tensor<1x1xf32> loc(#loc89)
      %40 = tt.extern_elementwise %39 {libname = "", libpath = "", pure = true, symbol = "__nv_rsqrtf"} : (tensor<1x1xf32>) -> tensor<1x1xf32> loc(#loc90)
      %41 = tt.broadcast %40 : tensor<1x1xf32> -> tensor<1x512xf32> loc(#loc91)
      %42 = arith.mulf %37, %41 : tensor<1x512xf32> loc(#loc91)
      %43 = arith.addf %24, %28 : tensor<1x512xf32> loc(#loc92)
      %44 = arith.addf %43, %cst_2 : tensor<1x512xf32> loc(#loc93)
      %45 = arith.mulf %42, %44 : tensor<1x512xf32> loc(#loc94)
      %46 = arith.addf %32, %35 : tensor<1x512xf32> loc(#loc95)
      %47 = arith.addf %45, %46 : tensor<1x512xf32> loc(#loc96)
      %48 = tt.splat %arg5 : !tt.ptr<bf16> -> tensor<1x512x!tt.ptr<bf16>> loc(#loc97)
      %49 = tt.addptr %48, %13 : tensor<1x512x!tt.ptr<bf16>>, tensor<1x512xi32> loc(#loc97)
      %50 = arith.truncf %47 : tensor<1x512xf32> to tensor<1x512xbf16> loc(#loc98)
      tt.store %49, %50, %17 : tensor<1x512x!tt.ptr<bf16>> loc(#loc98)
    } loc(#loc64)
    tt.return loc(#loc99)
  } loc(#loc)
} loc(#loc)
#loc2 = loc("/tmp/torchinductor_root/3m/c3mgiydlquqgahxuxqrkeu3hg6gxhrbbjx4qxncdiesulz4vxqnh.py":23:28)
#loc3 = loc("/tmp/torchinductor_root/3m/c3mgiydlquqgahxuxqrkeu3hg6gxhrbbjx4qxncdiesulz4vxqnh.py":25:21)
#loc4 = loc("/tmp/torchinductor_root/3m/c3mgiydlquqgahxuxqrkeu3hg6gxhrbbjx4qxncdiesulz4vxqnh.py":26:27)
#loc5 = loc("/tmp/torchinductor_root/3m/c3mgiydlquqgahxuxqrkeu3hg6gxhrbbjx4qxncdiesulz4vxqnh.py":26:37)
#loc6 = loc("/tmp/torchinductor_root/3m/c3mgiydlquqgahxuxqrkeu3hg6gxhrbbjx4qxncdiesulz4vxqnh.py":32:40)
#loc7 = loc("/tmp/torchinductor_root/3m/c3mgiydlquqgahxuxqrkeu3hg6gxhrbbjx4qxncdiesulz4vxqnh.py":33:31)
#loc8 = loc("/tmp/torchinductor_root/3m/c3mgiydlquqgahxuxqrkeu3hg6gxhrbbjx4qxncdiesulz4vxqnh.py":34:29)
#loc9 = loc("/tmp/torchinductor_root/3m/c3mgiydlquqgahxuxqrkeu3hg6gxhrbbjx4qxncdiesulz4vxqnh.py":38:46)
#loc10 = loc("/tmp/torchinductor_root/3m/c3mgiydlquqgahxuxqrkeu3hg6gxhrbbjx4qxncdiesulz4vxqnh.py":38:41)
#loc11 = loc("/tmp/torchinductor_root/3m/c3mgiydlquqgahxuxqrkeu3hg6gxhrbbjx4qxncdiesulz4vxqnh.py":38:34)
#loc12 = loc("/tmp/torchinductor_root/3m/c3mgiydlquqgahxuxqrkeu3hg6gxhrbbjx4qxncdiesulz4vxqnh.py":38:61)
#loc13 = loc("/tmp/torchinductor_root/3m/c3mgiydlquqgahxuxqrkeu3hg6gxhrbbjx4qxncdiesulz4vxqnh.py":38:51)
#loc14 = loc("/tmp/torchinductor_root/3m/c3mgiydlquqgahxuxqrkeu3hg6gxhrbbjx4qxncdiesulz4vxqnh.py":38:113)
#loc15 = loc("/tmp/torchinductor_root/3m/c3mgiydlquqgahxuxqrkeu3hg6gxhrbbjx4qxncdiesulz4vxqnh.py":39:41)
#loc16 = loc("/tmp/torchinductor_root/3m/c3mgiydlquqgahxuxqrkeu3hg6gxhrbbjx4qxncdiesulz4vxqnh.py":39:34)
#loc17 = loc("/tmp/torchinductor_root/3m/c3mgiydlquqgahxuxqrkeu3hg6gxhrbbjx4qxncdiesulz4vxqnh.py":39:48)
#loc18 = loc("/tmp/torchinductor_root/3m/c3mgiydlquqgahxuxqrkeu3hg6gxhrbbjx4qxncdiesulz4vxqnh.py":39:101)
#loc19 = loc("/tmp/torchinductor_root/3m/c3mgiydlquqgahxuxqrkeu3hg6gxhrbbjx4qxncdiesulz4vxqnh.py":40:34)
#loc20 = loc("/tmp/torchinductor_root/3m/c3mgiydlquqgahxuxqrkeu3hg6gxhrbbjx4qxncdiesulz4vxqnh.py":40:48)
#loc21 = loc("/tmp/torchinductor_root/3m/c3mgiydlquqgahxuxqrkeu3hg6gxhrbbjx4qxncdiesulz4vxqnh.py":40:101)
#loc22 = loc("/tmp/torchinductor_root/3m/c3mgiydlquqgahxuxqrkeu3hg6gxhrbbjx4qxncdiesulz4vxqnh.py":41:38)
#loc23 = loc("/tmp/torchinductor_root/3m/c3mgiydlquqgahxuxqrkeu3hg6gxhrbbjx4qxncdiesulz4vxqnh.py":41:55)
#loc24 = loc("/tmp/torchinductor_root/3m/c3mgiydlquqgahxuxqrkeu3hg6gxhrbbjx4qxncdiesulz4vxqnh.py":41:117)
#loc25 = loc("/tmp/torchinductor_root/3m/c3mgiydlquqgahxuxqrkeu3hg6gxhrbbjx4qxncdiesulz4vxqnh.py":42:34)
#loc26 = loc("/tmp/torchinductor_root/3m/c3mgiydlquqgahxuxqrkeu3hg6gxhrbbjx4qxncdiesulz4vxqnh.py":42:41)
#loc27 = loc("/tmp/torchinductor_root/3m/c3mgiydlquqgahxuxqrkeu3hg6gxhrbbjx4qxncdiesulz4vxqnh.py":42:94)
#loc28 = loc("/tmp/torchinductor_root/3m/c3mgiydlquqgahxuxqrkeu3hg6gxhrbbjx4qxncdiesulz4vxqnh.py":43:22)
#loc29 = loc("/tmp/torchinductor_root/3m/c3mgiydlquqgahxuxqrkeu3hg6gxhrbbjx4qxncdiesulz4vxqnh.py":44:22)
#loc30 = loc("/tmp/torchinductor_root/3m/c3mgiydlquqgahxuxqrkeu3hg6gxhrbbjx4qxncdiesulz4vxqnh.py":45:22)
#loc31 = loc("/tmp/torchinductor_root/3m/c3mgiydlquqgahxuxqrkeu3hg6gxhrbbjx4qxncdiesulz4vxqnh.py":46:22)
#loc32 = loc("/tmp/torchinductor_root/3m/c3mgiydlquqgahxuxqrkeu3hg6gxhrbbjx4qxncdiesulz4vxqnh.py":50:66)
#loc33 = loc("/usr/local/lib/python3.10/dist-packages/torch/_inductor/runtime/triton_helpers.py":203:7)
#loc34 = loc("/tmp/torchinductor_root/3m/c3mgiydlquqgahxuxqrkeu3hg6gxhrbbjx4qxncdiesulz4vxqnh.py":50:55)
#loc35 = loc("/usr/local/lib/python3.10/dist-packages/torch/_inductor/runtime/triton_helpers.py":206:31)
#loc36 = loc("/usr/local/lib/python3.10/dist-packages/torch/_inductor/runtime/triton_helpers.py":208:24)
#loc37 = loc("/usr/local/lib/python3.10/dist-packages/torch/_inductor/runtime/triton_helpers.py":209:30)
#loc38 = loc("/usr/local/lib/python3.10/dist-packages/torch/_inductor/runtime/triton_helpers.py":210:34)
#loc39 = loc("/usr/local/lib/python3.10/dist-packages/torch/_inductor/runtime/triton_helpers.py":210:26)
#loc40 = loc("/usr/local/lib/python3.10/dist-packages/torch/_inductor/runtime/triton_helpers.py":211:39)
#loc41 = loc("/usr/local/lib/python3.10/dist-packages/torch/_inductor/runtime/triton_helpers.py":211:31)
#loc42 = loc("/usr/local/lib/python3.10/dist-packages/torch/_inductor/runtime/triton_helpers.py":211:22)
#loc43 = loc("/tmp/torchinductor_root/3m/c3mgiydlquqgahxuxqrkeu3hg6gxhrbbjx4qxncdiesulz4vxqnh.py":52:64)
#loc44 = loc("/tmp/torchinductor_root/3m/c3mgiydlquqgahxuxqrkeu3hg6gxhrbbjx4qxncdiesulz4vxqnh.py":53:60)
#loc45 = loc("/tmp/torchinductor_root/3m/c3mgiydlquqgahxuxqrkeu3hg6gxhrbbjx4qxncdiesulz4vxqnh.py":54:68)
#loc46 = loc("/tmp/torchinductor_root/3m/c3mgiydlquqgahxuxqrkeu3hg6gxhrbbjx4qxncdiesulz4vxqnh.py":55:55)
#loc47 = loc("/tmp/torchinductor_root/3m/c3mgiydlquqgahxuxqrkeu3hg6gxhrbbjx4qxncdiesulz4vxqnh.py":55:8)
#loc48 = loc("/usr/local/lib/python3.10/dist-packages/torch/_inductor/runtime/triton_helpers.py":229:46)
#loc50 = loc("/usr/local/lib/python3.10/dist-packages/torch/_inductor/runtime/triton_helpers.py":217:21)
#loc51 = loc("/usr/local/lib/python3.10/dist-packages/torch/_inductor/runtime/triton_helpers.py":218:28)
#loc52 = loc("/usr/local/lib/python3.10/dist-packages/torch/_inductor/runtime/triton_helpers.py":219:39)
#loc53 = loc("/usr/local/lib/python3.10/dist-packages/torch/_inductor/runtime/triton_helpers.py":219:60)
#loc54 = loc("/usr/local/lib/python3.10/dist-packages/torch/_inductor/runtime/triton_helpers.py":219:49)
#loc55 = loc("/usr/local/lib/python3.10/dist-packages/torch/_inductor/runtime/triton_helpers.py":221:25)
#loc56 = loc("/usr/local/lib/python3.10/dist-packages/torch/_inductor/runtime/triton_helpers.py":221:17)
#loc57 = loc("/usr/local/lib/python3.10/dist-packages/torch/_inductor/runtime/triton_helpers.py":222:15)
#loc58 = loc("/usr/local/lib/python3.10/dist-packages/torch/_inductor/runtime/triton_helpers.py":222:30)
#loc59 = loc("/usr/local/lib/python3.10/dist-packages/torch/_inductor/runtime/triton_helpers.py":222:38)
#loc60 = loc("/usr/local/lib/python3.10/dist-packages/torch/_inductor/runtime/triton_helpers.py":222:49)
#loc61 = loc("/usr/local/lib/python3.10/dist-packages/torch/_inductor/runtime/triton_helpers.py":222:22)
#loc62 = loc("/tmp/torchinductor_root/3m/c3mgiydlquqgahxuxqrkeu3hg6gxhrbbjx4qxncdiesulz4vxqnh.py":57:18)
#loc63 = loc("/tmp/torchinductor_root/3m/c3mgiydlquqgahxuxqrkeu3hg6gxhrbbjx4qxncdiesulz4vxqnh.py":58:18)
#loc64 = loc("/tmp/torchinductor_root/3m/c3mgiydlquqgahxuxqrkeu3hg6gxhrbbjx4qxncdiesulz4vxqnh.py":60:40)
#loc65 = loc("/tmp/torchinductor_root/3m/c3mgiydlquqgahxuxqrkeu3hg6gxhrbbjx4qxncdiesulz4vxqnh.py":61:31)
#loc66 = loc("/tmp/torchinductor_root/3m/c3mgiydlquqgahxuxqrkeu3hg6gxhrbbjx4qxncdiesulz4vxqnh.py":62:29)
#loc67 = loc("/tmp/torchinductor_root/3m/c3mgiydlquqgahxuxqrkeu3hg6gxhrbbjx4qxncdiesulz4vxqnh.py":66:51)
#loc68 = loc("/tmp/torchinductor_root/3m/c3mgiydlquqgahxuxqrkeu3hg6gxhrbbjx4qxncdiesulz4vxqnh.py":66:46)
#loc69 = loc("/tmp/torchinductor_root/3m/c3mgiydlquqgahxuxqrkeu3hg6gxhrbbjx4qxncdiesulz4vxqnh.py":66:39)
#loc70 = loc("/tmp/torchinductor_root/3m/c3mgiydlquqgahxuxqrkeu3hg6gxhrbbjx4qxncdiesulz4vxqnh.py":66:66)
#loc71 = loc("/tmp/torchinductor_root/3m/c3mgiydlquqgahxuxqrkeu3hg6gxhrbbjx4qxncdiesulz4vxqnh.py":66:56)
#loc72 = loc("/tmp/torchinductor_root/3m/c3mgiydlquqgahxuxqrkeu3hg6gxhrbbjx4qxncdiesulz4vxqnh.py":66:118)
#loc73 = loc("/tmp/torchinductor_root/3m/c3mgiydlquqgahxuxqrkeu3hg6gxhrbbjx4qxncdiesulz4vxqnh.py":67:43)
#loc74 = loc("/tmp/torchinductor_root/3m/c3mgiydlquqgahxuxqrkeu3hg6gxhrbbjx4qxncdiesulz4vxqnh.py":67:35)
#loc75 = loc("/tmp/torchinductor_root/3m/c3mgiydlquqgahxuxqrkeu3hg6gxhrbbjx4qxncdiesulz4vxqnh.py":67:50)
#loc76 = loc("/tmp/torchinductor_root/3m/c3mgiydlquqgahxuxqrkeu3hg6gxhrbbjx4qxncdiesulz4vxqnh.py":67:103)
#loc77 = loc("/tmp/torchinductor_root/3m/c3mgiydlquqgahxuxqrkeu3hg6gxhrbbjx4qxncdiesulz4vxqnh.py":68:35)
#loc78 = loc("/tmp/torchinductor_root/3m/c3mgiydlquqgahxuxqrkeu3hg6gxhrbbjx4qxncdiesulz4vxqnh.py":68:50)
#loc79 = loc("/tmp/torchinductor_root/3m/c3mgiydlquqgahxuxqrkeu3hg6gxhrbbjx4qxncdiesulz4vxqnh.py":68:103)
#loc80 = loc("/tmp/torchinductor_root/3m/c3mgiydlquqgahxuxqrkeu3hg6gxhrbbjx4qxncdiesulz4vxqnh.py":69:42)
#loc81 = loc("/tmp/torchinductor_root/3m/c3mgiydlquqgahxuxqrkeu3hg6gxhrbbjx4qxncdiesulz4vxqnh.py":69:35)
#loc82 = loc("/tmp/torchinductor_root/3m/c3mgiydlquqgahxuxqrkeu3hg6gxhrbbjx4qxncdiesulz4vxqnh.py":69:49)
#loc83 = loc("/tmp/torchinductor_root/3m/c3mgiydlquqgahxuxqrkeu3hg6gxhrbbjx4qxncdiesulz4vxqnh.py":69:102)
#loc84 = loc("/tmp/torchinductor_root/3m/c3mgiydlquqgahxuxqrkeu3hg6gxhrbbjx4qxncdiesulz4vxqnh.py":70:35)
#loc85 = loc("/tmp/torchinductor_root/3m/c3mgiydlquqgahxuxqrkeu3hg6gxhrbbjx4qxncdiesulz4vxqnh.py":70:49)
#loc86 = loc("/tmp/torchinductor_root/3m/c3mgiydlquqgahxuxqrkeu3hg6gxhrbbjx4qxncdiesulz4vxqnh.py":70:102)
#loc87 = loc("/tmp/torchinductor_root/3m/c3mgiydlquqgahxuxqrkeu3hg6gxhrbbjx4qxncdiesulz4vxqnh.py":72:24)
#loc88 = loc("/tmp/torchinductor_root/3m/c3mgiydlquqgahxuxqrkeu3hg6gxhrbbjx4qxncdiesulz4vxqnh.py":74:25)
#loc89 = loc("/tmp/torchinductor_root/3m/c3mgiydlquqgahxuxqrkeu3hg6gxhrbbjx4qxncdiesulz4vxqnh.py":76:24)
#loc90 = loc("/tmp/torchinductor_root/3m/c3mgiydlquqgahxuxqrkeu3hg6gxhrbbjx4qxncdiesulz4vxqnh.py":77:32)
#loc91 = loc("/tmp/torchinductor_root/3m/c3mgiydlquqgahxuxqrkeu3hg6gxhrbbjx4qxncdiesulz4vxqnh.py":78:24)
#loc92 = loc("/tmp/torchinductor_root/3m/c3mgiydlquqgahxuxqrkeu3hg6gxhrbbjx4qxncdiesulz4vxqnh.py":80:24)
#loc93 = loc("/tmp/torchinductor_root/3m/c3mgiydlquqgahxuxqrkeu3hg6gxhrbbjx4qxncdiesulz4vxqnh.py":82:24)
#loc94 = loc("/tmp/torchinductor_root/3m/c3mgiydlquqgahxuxqrkeu3hg6gxhrbbjx4qxncdiesulz4vxqnh.py":83:24)
#loc95 = loc("/tmp/torchinductor_root/3m/c3mgiydlquqgahxuxqrkeu3hg6gxhrbbjx4qxncdiesulz4vxqnh.py":84:24)
#loc96 = loc("/tmp/torchinductor_root/3m/c3mgiydlquqgahxuxqrkeu3hg6gxhrbbjx4qxncdiesulz4vxqnh.py":85:24)
#loc97 = loc("/tmp/torchinductor_root/3m/c3mgiydlquqgahxuxqrkeu3hg6gxhrbbjx4qxncdiesulz4vxqnh.py":86:29)
#loc98 = loc("/tmp/torchinductor_root/3m/c3mgiydlquqgahxuxqrkeu3hg6gxhrbbjx4qxncdiesulz4vxqnh.py":86:53)
#loc99 = loc("/tmp/torchinductor_root/3m/c3mgiydlquqgahxuxqrkeu3hg6gxhrbbjx4qxncdiesulz4vxqnh.py":60:4)
#loc100 = loc(fused[#loc10, #loc9])
#loc101 = loc(fused[#loc12, #loc3])
#loc102 = loc(callsite(#loc33 at #loc34))
#loc103 = loc(callsite(#loc35 at #loc34))
#loc104 = loc(callsite(#loc36 at #loc34))
#loc105 = loc(callsite(#loc37 at #loc34))
#loc106 = loc(callsite(#loc38 at #loc34))
#loc107 = loc(callsite(#loc39 at #loc34))
#loc108 = loc(callsite(#loc40 at #loc34))
#loc109 = loc(callsite(#loc41 at #loc34))
#loc110 = loc(callsite(#loc42 at #loc34))
#loc111 = loc(callsite(#loc48 at #loc49))
#loc113 = loc(callsite(#loc50 at #loc48))
#loc114 = loc(callsite(#loc51 at #loc48))
#loc115 = loc(callsite(#loc52 at #loc48))
#loc116 = loc(callsite(#loc53 at #loc48))
#loc117 = loc(callsite(#loc54 at #loc48))
#loc118 = loc(callsite(#loc55 at #loc48))
#loc119 = loc(callsite(#loc56 at #loc48))
#loc120 = loc(callsite(#loc57 at #loc48))
#loc121 = loc(callsite(#loc58 at #loc48))
#loc122 = loc(callsite(#loc59 at #loc48))
#loc123 = loc(callsite(#loc60 at #loc48))
#loc124 = loc(callsite(#loc61 at #loc48))
#loc125 = loc(fused[#loc68, #loc67])
#loc126 = loc(fused[#loc70, #loc3])
#loc127 = loc(callsite(#loc113 at #loc49))
#loc128 = loc(callsite(#loc114 at #loc49))
#loc129 = loc(callsite(#loc115 at #loc49))
#loc130 = loc(callsite(#loc116 at #loc49))
#loc131 = loc(callsite(#loc117 at #loc49))
#loc132 = loc(callsite(#loc118 at #loc49))
#loc133 = loc(callsite(#loc119 at #loc49))
#loc134 = loc(callsite(#loc120 at #loc49))
#loc135 = loc(callsite(#loc121 at #loc49))
#loc136 = loc(callsite(#loc122 at #loc49))
#loc137 = loc(callsite(#loc123 at #loc49))
#loc138 = loc(callsite(#loc124 at #loc49))
