#loc = loc("/tmp/torchinductor_root/ka/ckavwgge4wo3d4gevf27syez73oho7yang6ck5clzpaesyo4cqfp.py":18:0)
#loc1 = loc(unknown)
#loc23 = loc("/tmp/torchinductor_root/ka/ckavwgge4wo3d4gevf27syez73oho7yang6ck5clzpaesyo4cqfp.py":44:25)
#loc30 = loc(callsite(#loc1 at #loc23))
module {
  tt.func public @triton_red_fused__to_copy_mean_pow_3(%arg0: !tt.ptr<bf16> {tt.divisibility = 16 : i32} loc("/tmp/torchinductor_root/ka/ckavwgge4wo3d4gevf27syez73oho7yang6ck5clzpaesyo4cqfp.py":18:0), %arg1: !tt.ptr<f32> {tt.divisibility = 16 : i32} loc("/tmp/torchinductor_root/ka/ckavwgge4wo3d4gevf27syez73oho7yang6ck5clzpaesyo4cqfp.py":18:0), %arg2: i32 {tt.divisibility = 16 : i32} loc("/tmp/torchinductor_root/ka/ckavwgge4wo3d4gevf27syez73oho7yang6ck5clzpaesyo4cqfp.py":18:0), %arg3: i32 {tt.divisibility = 16 : i32} loc("/tmp/torchinductor_root/ka/ckavwgge4wo3d4gevf27syez73oho7yang6ck5clzpaesyo4cqfp.py":18:0)) attributes {noinline = false} {
    %cst = arith.constant dense<0.000000e+00> : tensor<8x128xbf16> loc(#loc1)
    %cst_0 = arith.constant dense<9216> : tensor<8x1xi32> loc(#loc1)
    %cst_1 = arith.constant dense<128> : tensor<8x1xi32> loc(#loc1)
    %cst_2 = arith.constant dense<128> : tensor<1x128xi32> loc(#loc1)
    %cst_3 = arith.constant dense<0.000000e+00> : tensor<8x128xf32> loc(#loc1)
    %cst_4 = arith.constant dense<24> : tensor<8x1xi32> loc(#loc1)
    %c8_i32 = arith.constant 8 : i32 loc(#loc1)
    %0 = tt.get_program_id x : i32 loc(#loc2)
    %1 = arith.muli %0, %c8_i32 : i32 loc(#loc3)
    %2 = tt.make_range {end = 8 : i32, start = 0 : i32} : tensor<8xi32> loc(#loc4)
    %3 = tt.expand_dims %2 {axis = 1 : i32} : tensor<8xi32> -> tensor<8x1xi32> loc(#loc5)
    %4 = tt.splat %1 : i32 -> tensor<8x1xi32> loc(#loc6)
    %5 = arith.addi %4, %3 : tensor<8x1xi32> loc(#loc6)
    %6 = tt.make_range {end = 128 : i32, start = 0 : i32} : tensor<128xi32> loc(#loc7)
    %7 = tt.expand_dims %6 {axis = 0 : i32} : tensor<128xi32> -> tensor<1x128xi32> loc(#loc8)
    %8 = arith.remsi %5, %cst_4 : tensor<8x1xi32> loc(#loc9)
    %9 = arith.divsi %5, %cst_4 : tensor<8x1xi32> loc(#loc10)
    %10 = arith.cmpi slt, %7, %cst_2 : tensor<1x128xi32> loc(#loc11)
    %11 = arith.muli %8, %cst_1 : tensor<8x1xi32> loc(#loc12)
    %12 = tt.broadcast %7 : tensor<1x128xi32> -> tensor<8x128xi32> loc(#loc13)
    %13 = tt.broadcast %11 : tensor<8x1xi32> -> tensor<8x128xi32> loc(#loc13)
    %14 = arith.addi %12, %13 : tensor<8x128xi32> loc(#loc13)
    %15 = arith.muli %9, %cst_0 : tensor<8x1xi32> loc(#loc14)
    %16 = tt.broadcast %15 : tensor<8x1xi32> -> tensor<8x128xi32> loc(#loc15)
    %17 = arith.addi %14, %16 : tensor<8x128xi32> loc(#loc15)
    %18 = tt.splat %arg0 : !tt.ptr<bf16> -> tensor<8x128x!tt.ptr<bf16>> loc(#loc16)
    %19 = tt.addptr %18, %17 : tensor<8x128x!tt.ptr<bf16>>, tensor<8x128xi32> loc(#loc16)
    %20 = tt.broadcast %10 : tensor<1x128xi1> -> tensor<8x128xi1> loc(#loc17)
    %21 = tt.load %19, %20, %cst evictionPolicy = evict_first : tensor<8x128x!tt.ptr<bf16>> loc(#loc17)
    %22 = arith.extf %21 : tensor<8x128xbf16> to tensor<8x128xf32> loc(#loc18)
    %23 = arith.mulf %22, %22 : tensor<8x128xf32> loc(#loc19)
    %24 = arith.addf %23, %cst_3 : tensor<8x128xf32> loc(#loc20)
    %25 = arith.select %20, %24, %cst_3 : tensor<8x128xi1>, tensor<8x128xf32> loc(#loc21)
    %26 = "tt.reduce"(%25) <{axis = 1 : i32}> ({
    ^bb0(%arg4: f32 loc(callsite(#loc1 at #loc23)), %arg5: f32 loc(callsite(#loc1 at #loc23))):
      %30 = arith.addf %arg4, %arg5 : f32 loc(#loc32)
      tt.reduce.return %30 : f32 loc(#loc29)
    }) : (tensor<8x128xf32>) -> tensor<8xf32> loc(#loc29)
    %27 = tt.expand_dims %26 {axis = 1 : i32} : tensor<8xf32> -> tensor<8x1xf32> loc(#loc25)
    %28 = tt.splat %arg1 : !tt.ptr<f32> -> tensor<8x1x!tt.ptr<f32>> loc(#loc26)
    %29 = tt.addptr %28, %5 : tensor<8x1x!tt.ptr<f32>>, tensor<8x1xi32> loc(#loc26)
    tt.store %29, %27 : tensor<8x1x!tt.ptr<f32>> loc(#loc27)
    tt.return loc(#loc28)
  } loc(#loc)
} loc(#loc)
#loc2 = loc("/tmp/torchinductor_root/ka/ckavwgge4wo3d4gevf27syez73oho7yang6ck5clzpaesyo4cqfp.py":23:28)
#loc3 = loc("/tmp/torchinductor_root/ka/ckavwgge4wo3d4gevf27syez73oho7yang6ck5clzpaesyo4cqfp.py":23:33)
#loc4 = loc("/tmp/torchinductor_root/ka/ckavwgge4wo3d4gevf27syez73oho7yang6ck5clzpaesyo4cqfp.py":24:36)
#loc5 = loc("/tmp/torchinductor_root/ka/ckavwgge4wo3d4gevf27syez73oho7yang6ck5clzpaesyo4cqfp.py":24:44)
#loc6 = loc("/tmp/torchinductor_root/ka/ckavwgge4wo3d4gevf27syez73oho7yang6ck5clzpaesyo4cqfp.py":24:23)
#loc7 = loc("/tmp/torchinductor_root/ka/ckavwgge4wo3d4gevf27syez73oho7yang6ck5clzpaesyo4cqfp.py":26:27)
#loc8 = loc("/tmp/torchinductor_root/ka/ckavwgge4wo3d4gevf27syez73oho7yang6ck5clzpaesyo4cqfp.py":26:37)
#loc9 = loc("/tmp/torchinductor_root/ka/ckavwgge4wo3d4gevf27syez73oho7yang6ck5clzpaesyo4cqfp.py":28:19)
#loc10 = loc("/tmp/torchinductor_root/ka/ckavwgge4wo3d4gevf27syez73oho7yang6ck5clzpaesyo4cqfp.py":29:19)
#loc11 = loc("/tmp/torchinductor_root/ka/ckavwgge4wo3d4gevf27syez73oho7yang6ck5clzpaesyo4cqfp.py":34:29)
#loc12 = loc("/tmp/torchinductor_root/ka/ckavwgge4wo3d4gevf27syez73oho7yang6ck5clzpaesyo4cqfp.py":38:45)
#loc13 = loc("/tmp/torchinductor_root/ka/ckavwgge4wo3d4gevf27syez73oho7yang6ck5clzpaesyo4cqfp.py":38:41)
#loc14 = loc("/tmp/torchinductor_root/ka/ckavwgge4wo3d4gevf27syez73oho7yang6ck5clzpaesyo4cqfp.py":38:55)
#loc15 = loc("/tmp/torchinductor_root/ka/ckavwgge4wo3d4gevf27syez73oho7yang6ck5clzpaesyo4cqfp.py":38:50)
#loc16 = loc("/tmp/torchinductor_root/ka/ckavwgge4wo3d4gevf27syez73oho7yang6ck5clzpaesyo4cqfp.py":38:34)
#loc17 = loc("/tmp/torchinductor_root/ka/ckavwgge4wo3d4gevf27syez73oho7yang6ck5clzpaesyo4cqfp.py":38:60)
#loc18 = loc("/tmp/torchinductor_root/ka/ckavwgge4wo3d4gevf27syez73oho7yang6ck5clzpaesyo4cqfp.py":38:114)
#loc19 = loc("/tmp/torchinductor_root/ka/ckavwgge4wo3d4gevf27syez73oho7yang6ck5clzpaesyo4cqfp.py":40:22)
#loc20 = loc("/tmp/torchinductor_root/ka/ckavwgge4wo3d4gevf27syez73oho7yang6ck5clzpaesyo4cqfp.py":42:23)
#loc21 = loc("/tmp/torchinductor_root/ka/ckavwgge4wo3d4gevf27syez73oho7yang6ck5clzpaesyo4cqfp.py":43:40)
#loc22 = loc("/usr/local/lib/python3.10/dist-packages/triton/language/standard.py":286:36)
#loc24 = loc("/usr/local/lib/python3.10/dist-packages/triton/language/standard.py":256:15)
#loc25 = loc("/tmp/torchinductor_root/ka/ckavwgge4wo3d4gevf27syez73oho7yang6ck5clzpaesyo4cqfp.py":44:28)
#loc26 = loc("/tmp/torchinductor_root/ka/ckavwgge4wo3d4gevf27syez73oho7yang6ck5clzpaesyo4cqfp.py":45:25)
#loc27 = loc("/tmp/torchinductor_root/ka/ckavwgge4wo3d4gevf27syez73oho7yang6ck5clzpaesyo4cqfp.py":45:36)
#loc28 = loc("/tmp/torchinductor_root/ka/ckavwgge4wo3d4gevf27syez73oho7yang6ck5clzpaesyo4cqfp.py":45:4)
#loc29 = loc(callsite(#loc22 at #loc23))
#loc31 = loc(callsite(#loc24 at #loc22))
#loc32 = loc(callsite(#loc31 at #loc23))
