#loc = loc("/tmp/torchinductor_root/7a/c7auwd54m7iuk45jsuygmt4yc5q7wbigrg64w2jg25y6ef2zpwvp.py":18:0)
module {
  tt.func public @triton_poi_fused__scaled_dot_product_efficient_attention_clone_2(%arg0: !tt.ptr<bf16> {tt.divisibility = 16 : i32} loc("/tmp/torchinductor_root/7a/c7auwd54m7iuk45jsuygmt4yc5q7wbigrg64w2jg25y6ef2zpwvp.py":18:0), %arg1: i32 loc("/tmp/torchinductor_root/7a/c7auwd54m7iuk45jsuygmt4yc5q7wbigrg64w2jg25y6ef2zpwvp.py":18:0)) attributes {noinline = false} {
    %cst = arith.constant dense<80> : tensor<256xi32> loc(#loc1)
    %cst_0 = arith.constant dense<-3.38953139E+38> : tensor<256xf32> loc(#loc1)
    %cst_1 = arith.constant dense<0.000000e+00> : tensor<256xf32> loc(#loc1)
    %cst_2 = arith.constant dense<1> : tensor<256xi32> loc(#loc1)
    %cst_3 = arith.constant dense<77> : tensor<256xi64> loc(#loc1)
    %cst_4 = arith.constant dense<77> : tensor<256xi32> loc(#loc1)
    %cst_5 = arith.constant dense<5929> : tensor<256xi32> loc(#loc1)
    %c256_i32 = arith.constant 256 : i32 loc(#loc1)
    %0 = tt.get_program_id x : i32 loc(#loc2)
    %1 = arith.muli %0, %c256_i32 : i32 loc(#loc3)
    %2 = tt.make_range {end = 256 : i32, start = 0 : i32} : tensor<256xi32> loc(#loc4)
    %3 = tt.splat %1 : i32 -> tensor<256xi32> loc(#loc5)
    %4 = arith.addi %3, %2 : tensor<256xi32> loc(#loc5)
    %5 = arith.cmpi slt, %4, %cst_5 : tensor<256xi32> loc(#loc6)
    %6 = arith.remsi %4, %cst_4 : tensor<256xi32> loc(#loc7)
    %7 = arith.divsi %4, %cst_4 : tensor<256xi32> loc(#loc8)
    %8 = arith.extsi %6 : tensor<256xi32> to tensor<256xi64> loc(#loc9)
    %9 = arith.cmpi slt, %8, %cst_3 : tensor<256xi64> loc(#loc9)
    %10 = arith.addi %7, %cst_2 : tensor<256xi32> loc(#loc10)
    %11 = arith.cmpi slt, %6, %10 : tensor<256xi32> loc(#loc11)
    %12 = arith.select %11, %cst_1, %cst_0 : tensor<256xi1>, tensor<256xf32> loc(#loc12)
    %13 = arith.select %9, %12, %cst_1 : tensor<256xi1>, tensor<256xf32> loc(#loc13)
    %14 = arith.muli %7, %cst : tensor<256xi32> loc(#loc14)
    %15 = arith.addi %6, %14 : tensor<256xi32> loc(#loc15)
    %16 = tt.splat %arg0 : !tt.ptr<bf16> -> tensor<256x!tt.ptr<bf16>> loc(#loc16)
    %17 = tt.addptr %16, %15 : tensor<256x!tt.ptr<bf16>>, tensor<256xi32> loc(#loc16)
    %18 = arith.truncf %13 : tensor<256xf32> to tensor<256xbf16> loc(#loc17)
    tt.store %17, %18, %5 : tensor<256x!tt.ptr<bf16>> loc(#loc17)
    tt.return loc(#loc18)
  } loc(#loc)
} loc(#loc)
#loc1 = loc(unknown)
#loc2 = loc("/tmp/torchinductor_root/7a/c7auwd54m7iuk45jsuygmt4yc5q7wbigrg64w2jg25y6ef2zpwvp.py":20:28)
#loc3 = loc("/tmp/torchinductor_root/7a/c7auwd54m7iuk45jsuygmt4yc5q7wbigrg64w2jg25y6ef2zpwvp.py":20:33)
#loc4 = loc("/tmp/torchinductor_root/7a/c7auwd54m7iuk45jsuygmt4yc5q7wbigrg64w2jg25y6ef2zpwvp.py":21:36)
#loc5 = loc("/tmp/torchinductor_root/7a/c7auwd54m7iuk45jsuygmt4yc5q7wbigrg64w2jg25y6ef2zpwvp.py":21:23)
#loc6 = loc("/tmp/torchinductor_root/7a/c7auwd54m7iuk45jsuygmt4yc5q7wbigrg64w2jg25y6ef2zpwvp.py":22:21)
#loc7 = loc("/tmp/torchinductor_root/7a/c7auwd54m7iuk45jsuygmt4yc5q7wbigrg64w2jg25y6ef2zpwvp.py":23:19)
#loc8 = loc("/tmp/torchinductor_root/7a/c7auwd54m7iuk45jsuygmt4yc5q7wbigrg64w2jg25y6ef2zpwvp.py":24:19)
#loc9 = loc("/tmp/torchinductor_root/7a/c7auwd54m7iuk45jsuygmt4yc5q7wbigrg64w2jg25y6ef2zpwvp.py":27:18)
#loc10 = loc("/tmp/torchinductor_root/7a/c7auwd54m7iuk45jsuygmt4yc5q7wbigrg64w2jg25y6ef2zpwvp.py":29:15)
#loc11 = loc("/tmp/torchinductor_root/7a/c7auwd54m7iuk45jsuygmt4yc5q7wbigrg64w2jg25y6ef2zpwvp.py":30:18)
#loc12 = loc("/tmp/torchinductor_root/7a/c7auwd54m7iuk45jsuygmt4yc5q7wbigrg64w2jg25y6ef2zpwvp.py":33:32)
#loc13 = loc("/tmp/torchinductor_root/7a/c7auwd54m7iuk45jsuygmt4yc5q7wbigrg64w2jg25y6ef2zpwvp.py":36:33)
#loc14 = loc("/tmp/torchinductor_root/7a/c7auwd54m7iuk45jsuygmt4yc5q7wbigrg64w2jg25y6ef2zpwvp.py":37:33)
#loc15 = loc("/tmp/torchinductor_root/7a/c7auwd54m7iuk45jsuygmt4yc5q7wbigrg64w2jg25y6ef2zpwvp.py":37:30)
#loc16 = loc("/tmp/torchinductor_root/7a/c7auwd54m7iuk45jsuygmt4yc5q7wbigrg64w2jg25y6ef2zpwvp.py":37:25)
#loc17 = loc("/tmp/torchinductor_root/7a/c7auwd54m7iuk45jsuygmt4yc5q7wbigrg64w2jg25y6ef2zpwvp.py":37:45)
#loc18 = loc("/tmp/torchinductor_root/7a/c7auwd54m7iuk45jsuygmt4yc5q7wbigrg64w2jg25y6ef2zpwvp.py":37:4)
